…
    mean_file: "./data/ilsvrc12/imagenet_mean.binaryproto"
  }
  image_data_param {
    source: "./data/office/amazon_list.txt"
    batch_size: 64
    shuffle: true
    new_height: 256
    new_width: 256
  }
}
layer {
  name: "target_data"
  type: "ImageData"
  top: "target_data"
  top: "target_label"
  include {
    phase: TRAIN
  }
  transform_param {
    mirror: true
    crop_size: 227
    mean_file: "./data/ilsvrc12/imagenet_mean.binaryproto"
  }
  image_data_param {
    source: "./data/office/webcam_list.txt"
    batch_size: 64
    shuffle: true
    new_height: 256
    new_width: 256
  }
}
layer {
  name: "target_label_silence"
  type: "Silence"
  bottom: "target_label"
  include {
    phase: TRAIN
  }
}
layer {
  name: "data"
  type: "Concat"
  bottom: "source_data"
  bottom: "target_data"
  top: "data"
  include {
    phase: TRAIN
  }
  concat_param {
    axis: 0
  }
}
layer {
  name: "conv1"
  type: "Convolution"
  bottom: "data"
  top: "conv1"
  param {
    lr_mult: 0
    decay_mult: 1
  }
  param {
    lr_mult: 0
    decay_mult: 0
  }
  convolution_param {
    num_output: 96
    kernel_size: 11
    stride: 4
    weight_filler {
      type: "gaussian"
      std: 0.01
    }
    bias_filler {
      type: "constant"
      value: 0
    }
  }
}
layer {
  name: "relu1"
  type: "ReLU"
  bottom: "conv1"
  top: "conv1"
}
layer {
  name: "pool1"
  type: "Pooling"
  bottom: "conv1"
  top: "pool1"
  pooling_param {
    pool: MAX
    kernel_size: 3
    stride: 2
  }
}
layer {
  name: "norm1"
  type: "LRN"
  bottom: "pool1"
  top: "norm1"
  lrn_param {
    local_size: 5
    alpha: 0.0001
    beta: 0.75
  }
}
layer {
  name: "conv2"
  type: "Convolution"
  bottom: "norm1"
  top: "conv2"
  param {
    lr_mult: 0
    decay_mult: 1
  }
  param {
    lr_mult: 0
    decay_mult: 0
  }
  convolution_param {
    num_output: 256
    pad: 2
    kernel_size: 5
    group: 2
    weight_filler {
      type: "gaussian"
      std: 0.01
    }
    bias_filler {
      type: "constant"
      value: 1
    }
  }
}
layer {
  name: "relu2"
  type: "ReLU"
  bottom: "conv2"
  top: "conv2"
}
layer {
  name: "pool2"
  type: "Pooling"
  bottom: "conv2"
  top: "pool2"
  pooling_param {
    pool: MAX
    kernel_size: 3
    stride: 2
  }
}
layer {
  name: "norm2"
  type: "LRN"
  bottom: "pool2"
  top: "norm2"
  lrn_param {
    local_size: 5
    alpha: 0.0001
    beta: 0.75
  }
}
layer {
  name: "conv3"
  type: "Convolution"
  bottom: "norm2"
  top: "conv3"
  param {
    lr_mult: 0.1
    decay_mult: 1
  }
  param {
    lr_mult: 0.2
    decay_mult: 0
  }
  convolution_param {
    num_output: 384
    pad: 1
    kernel_size: 3
    weight_filler {
      type: "gaussian"
      std: 0.01
    }
    bias_filler {
      type: "constant"
      value: 0
    }
  }
}
layer {
  name: "relu3"
  type: "ReLU"
  bottom: "conv3"
  top: "conv3"
}
layer {
  name: "conv4"
  type: "Convolution"
  bottom: "conv3"
  top: "conv4"
  param {
    lr_mult: 0.1
    decay_mult: 1
  }
  param {
    lr_mult: 0.2
    decay_mult: 0
  }
  convolution_param {
    num_output: 384
    pad: 1
    kernel_size: 3
    group: 2
    weight_filler {
      type: "gaussian"
      std: 0.01
    }
    bias_filler {
      type: "constant"
      value: 1
    }
  }
}
layer {
  name: "relu4"
  type: "ReLU"
  bottom: "conv4"
  top: "conv4"
}
layer {
  name: "conv5"
  type: "Convolution"
  bottom: "conv4"
  top: "conv5"
  param {
    lr_mult: 0.1
    decay_mult: 1
  }
  param {
    lr_mult: 0.2
    decay_mult: 0
  }
  convolution_param {
    num_output: 256
    pad: 1
    kernel_size: 3
    group: 2
    weight_filler {
      type: "gaussian"
      std: 0.01
    }
    bias_filler {
      type: "constant"
      value: 1
    }
  }
}
layer {
  name: "relu5"
  type: "ReLU"
  bottom: "conv5"
  top: "conv5"
}
layer {
  name: "pool5"
  type: "Pooling"
  bottom: "conv5"
  top: "pool5"
  pooling_param {
    pool: MAX
    kernel_size: 3
    stride: 2
  }
}
layer {
  name: "fc6"
  type: "InnerProduct"
  bottom: "pool5"
  top: "fc6"
  param {
    lr_mult: 0.1
    decay_mult: 1
  }
  param {
    lr_mult: 0.2
    decay_mult: 0
  }
  inner_product_param {
    num_output: 4096
    weight_filler {
      type: "gaussian"
      std: 0.005
    }
    bias_filler {
      type: "constant"
      value: 1
    }
  }
}
layer {
  name: "relu6"
  type: "ReLU"
  bottom: "fc6"
  top: "fc6"
}
layer {
  name: "drop6"
  type: "Dropout"
  bottom: "fc6"
  top: "fc6"
  dropout_param {
    dropout_ratio: 0.5
  }
}
layer {
  name: "fc7"
  type: "InnerProduct"
  bottom: "fc6"
  top: "fc7"
  param {
    lr_mult: 0.1
    decay_mult: 1
  }
  param {
    lr_mult: 0.2
    decay_mult: 0
  }
  inner_product_param {
    num_output: 4096
    weight_filler {
      type: "gaussian"
      std: 0.005
    }
    bias_filler {
      type: "constant"
      value: 1
    }
  }
}
layer {
  name: "relu7"
  type: "ReLU"
  bottom: "fc7"
  top: "fc7"
}
layer {
  name: "drop7"
  type: "Dropout"
  bottom: "fc7"
  top: "fc7"
  dropout_param {
    dropout_ratio: 0.5
  }
}
layer {
  name: "fc8_new"
  type: "InnerProduct"
  bottom: "fc7"
  top: "fc8"
  param {
    lr_mult: 1
    decay_mult: 1
  }
  param {
    lr_mult: 2
    decay_mult: 0
  }
  inner_product_param {
    num_output: 31
    weight_filler {
      type: "gaussian"
      std: 0.01
    }
    bias_filler {
      type: "constant"
      value: 0
    }
  }
}
layer {
  name: "slice_fc7"
  type: "Slice"
  bottom: "fc7"
  top: "fc7_source"
  top: "fc7_target"
  include {
    phase: TRAIN
  }
  slice_param {
    slice_dim: 0
  }
}
layer {
  name: "slice_fc8"
  type: "Slice"
  bottom: "fc8"
  top: "fc8_source"
  top: "fc8_target"
  include {
    phase: TRAIN
  }
  slice_param {
    slice_dim: 0
  }
}
layer {
  name: "silence"
  type: "Silence"
  bottom: "fc8_target"
  include {
    phase: TRAIN
  }
}
layer {
  name: "softmax_loss"
  type: "SoftmaxWithLoss"
  bottom: "fc8_source"
  bottom: "source_label"
  top: "softmax_loss"
  include {
    phase: TRAIN
  }
}
layer {
  name: "fc8_softmax"
  type: "Softmax"
  bottom: "fc8"
  top: "fc8_softmax"
  include {
    phase: TRAIN
  }
}
layer {
  name: "slice_softmax"
  type: "Slice"
  bottom: "fc8_softmax"
  top: "source_softmax"
  top: "target_softmax"
  include {
    phase: TRAIN
  }
  slice_param {
    slice_dim: 0
  }
}
layer {
  name: "jmmd_loss_fc7"
  type: "JMMDLoss"
  bottom: "fc7_source"
  bottom: "fc7_target"
  bottom: "source_softmax"
  bottom: "target_softmax"
  top: "jmmd_loss_fc7"
  loss_weight: 0.3
  include {
    phase: TRAIN
  }
}
layer {
  name: "jmmd_loss_softmax"
  type: "JMMDLoss"
  bottom: "source_softmax"
  bottom: "target_softmax"
  bottom: "source_softmax"
  bottom: "target_softmax"
  top: "jmmd_loss_softmax"
  loss_weight: 0.3
  include {
    phase: TRAIN
  }
}
layer {
  name: "silence_loss_value"
  type: "Silence"
  bottom: "jmmd_loss_fc7"
  bottom: "jmmd_loss_softmax"
  include {
    phase: TRAIN
  }
}
I1008 10:24:51.279381 54999 layer_factory.hpp:77] Creating layer source_data
I1008 10:24:51.279444 54999 net.cpp:100] Creating Layer source_data
I1008 10:24:51.279464 54999 net.cpp:408] source_data -> source_data
I1008 10:24:51.279495 54999 net.cpp:408] source_data -> source_label
I1008 10:24:51.279511 54999 data_transformer.cpp:25] Loading mean file from: ./data/ilsvrc12/imagenet_mean.binaryproto
I1008 10:24:51.310132 54999 image_data_layer.cpp:38] Opening file ./data/office/amazon_list.txt
I1008 10:24:51.311038 54999 image_data_layer.cpp:53] Shuffling data
I1008 10:24:51.311269 54999 image_data_layer.cpp:58] A total of 2817 images.
I1008 10:24:51.766633 54999 image_data_layer.cpp:85] output data size: 64,3,227,227
I1008 10:24:51.860227 54999 net.cpp:150] Setting up source_data
I1008 10:24:51.860283 54999 net.cpp:157] Top shape: 64 3 227 227 (9893568)
I1008 10:24:51.860291 54999 net.cpp:157] Top shape: 64 (64)
I1008 10:24:51.860296 54999 net.cpp:165] Memory required for data: 39574528
I1008 10:24:51.860307 54999 layer_factory.hpp:77] Creating layer target_data
I1008 10:24:51.860343 54999 net.cpp:100] Creating Layer target_data
I1008 10:24:51.860353 54999 net.cpp:408] target_data -> target_data
I1008 10:24:51.860373 54999 net.cpp:408] target_data -> target_label
I1008 10:24:51.860383 54999 data_transformer.cpp:25] Loading mean file from: ./data/ilsvrc12/imagenet_mean.binaryproto
I1008 10:24:51.861874 54999 image_data_layer.cpp:38] Opening file ./data/office/webcam_list.txt
I1008 10:24:51.862140 54999 image_data_layer.cpp:53] Shuffling data
I1008 10:24:51.862205 54999 image_data_layer.cpp:58] A total of 795 images.
I1008 10:24:51.868532 54999 image_data_layer.cpp:85] output data size: 64,3,227,227
I1008 10:24:51.960193 54999 net.cpp:150] Setting up target_data
I1008 10:24:51.960244 54999 net.cpp:157] Top shape: 64 3 227 227 (9893568)
I1008 10:24:51.960252 54999 net.cpp:157] Top shape: 64 (64)
I1008 10:24:51.960256 54999 net.cpp:165] Memory required for data: 79149056
I1008 10:24:51.960266 54999 layer_factory.hpp:77] Creating layer target_label_silence
I1008 10:24:51.960289 54999 net.cpp:100] Creating Layer target_label_silence
I1008 10:24:51.960299 54999 net.cpp:434] target_label_silence <- target_label
I1008 10:24:51.960319 54999 net.cpp:150] Setting up target_label_silence
I1008 10:24:51.960324 54999 net.cpp:165] Memory required for data: 79149056
I1008 10:24:51.960327 54999 layer_factory.hpp:77] Creating layer data
I1008 10:24:51.960340 54999 net.cpp:100] Creating Layer data
I1008 10:24:51.960345 54999 net.cpp:434] data <- source_data
I1008 10:24:51.960350 54999 net.cpp:434] data <- target_data
I1008 10:24:51.960358 54999 net.cpp:408] data -> data
I1008 10:24:51.960422 54999 net.cpp:150] Setting up data
I1008 10:24:51.960430 54999 net.cpp:157] Top shape: 128 3 227 227 (19787136)
I1008 10:24:51.960435 54999 net.cpp:165] Memory required for data: 158297600
I1008 10:24:51.960440 54999 layer_factory.hpp:77] Creating layer conv1
I1008 10:24:51.960464 54999 net.cpp:100] Creating Layer conv1
I1008 10:24:51.960469 54999 net.cpp:434] conv1 <- data
I1008 10:24:51.960476 54999 net.cpp:408] conv1 -> conv1
I1008 10:24:51.964928 54999 net.cpp:150] Setting up conv1
I1008 10:24:51.964948 54999 net.cpp:157] Top shape: 128 96 55 55 (37171200)
I1008 10:24:51.964953 54999 net.cpp:165] Memory required for data: 306982400
I1008 10:24:51.964970 54999 layer_factory.hpp:77] Creating layer relu1
I1008 10:24:51.964982 54999 net.cpp:100] Creating Layer relu1
I1008 10:24:51.964987 54999 net.cpp:434] relu1 <- conv1
I1008 10:24:51.964994 54999 net.cpp:395] relu1 -> conv1 (in-place)
I1008 10:24:51.965004 54999 net.cpp:150] Setting up relu1
I1008 10:24:51.965011 54999 net.cpp:157] Top shape: 128 96 55 55 (37171200)
I1008 10:24:51.965014 54999 net.cpp:165] Memory required for data: 455667200
I1008 10:24:51.965019 54999 layer_factory.hpp:77] Creating layer pool1
I1008 10:24:51.965030 54999 net.cpp:100] Creating Layer pool1
I1008 10:24:51.965034 54999 net.cpp:434] pool1 <- conv1
I1008 10:24:51.965041 54999 net.cpp:408] pool1 -> pool1
I1008 10:24:51.965224 54999 net.cpp:150] Setting up pool1
I1008 10:24:51.965314 54999 net.cpp:157] Top shape: 128 96 27 27 (8957952)
I1008 10:24:51.965355 54999 net.cpp:165] Memory required for data: 491499008
I1008 10:24:51.965369 54999 layer_factory.hpp:77] Creating layer norm1
I1008 10:24:51.965394 54999 net.cpp:100] Creating Layer norm1
I1008 10:24:51.965409 54999 net.cpp:434] norm1 <- pool1
I1008 10:24:51.965425 54999 net.cpp:408] norm1 -> norm1
I1008 10:24:51.965503 54999 net.cpp:150] Setting up norm1
I1008 10:24:51.965518 54999 net.cpp:157] Top shape: 128 96 27 27 (8957952)
I1008 10:24:51.965528 54999 net.cpp:165] Memory required for data: 527330816
I1008 10:24:51.965538 54999 layer_factory.hpp:77] Creating layer conv2
I1008 10:24:51.965567 54999 net.cpp:100] Creating Layer conv2
I1008 10:24:51.965576 54999 net.cpp:434] conv2 <- norm1
I1008 10:24:51.965592 54999 net.cpp:408] conv2 -> conv2
I1008 10:24:51.986956 54999 net.cpp:150] Setting up conv2
I1008 10:24:51.986989 54999 net.cpp:157] Top shape: 128 256 27 27 (23887872)
I1008 10:24:51.986999 54999 net.cpp:165] Memory required for data: 622882304
I1008 10:24:51.987020 54999 layer_factory.hpp:77] Creating layer relu2
I1008 10:24:51.987035 54999 net.cpp:100] Creating Layer relu2
I1008 10:24:51.987045 54999 net.cpp:434] relu2 <- conv2
I1008 10:24:51.987058 54999 net.cpp:395] relu2 -> conv2 (in-place)
I1008 10:24:51.987076 54999 net.cpp:150] Setting up relu2
I1008 10:24:51.987087 54999 net.cpp:157] Top shape: 128 256 27 27 (23887872)
I1008 10:24:51.987094 54999 net.cpp:165] Memory required for data: 718433792
I1008 10:24:51.987102 54999 layer_factory.hpp:77] Creating layer pool2
I1008 10:24:51.987118 54999 net.cpp:100] Creating Layer pool2
I1008 10:24:51.987125 54999 net.cpp:434] pool2 <- conv2
I1008 10:24:51.987138 54999 net.cpp:408] pool2 -> pool2
I1008 10:24:51.987231 54999 net.cpp:150] Setting up pool2
I1008 10:24:51.987247 54999 net.cpp:157] Top shape: 128 256 13 13 (5537792)
I1008 10:24:51.987256 54999 net.cpp:165] Memory required for data: 740584960
I1008 10:24:51.987262 54999 layer_factory.hpp:77] Creating layer norm2
I1008 10:24:51.987275 54999 net.cpp:100] Creating Layer norm2
I1008 10:24:51.987285 54999 net.cpp:434] norm2 <- pool2
I1008 10:24:51.987298 54999 net.cpp:408] norm2 -> norm2
I1008 10:24:51.987357 54999 net.cpp:150] Setting up norm2
I1008 10:24:51.987368 54999 net.cpp:157] Top shape: 128 256 13 13 (5537792)
I1008 10:24:51.987377 54999 net.cpp:165] Memory required for data: 762736128
I1008 10:24:51.987385 54999 layer_factory.hpp:77] Creating layer conv3
I1008 10:24:51.987404 54999 net.cpp:100] Creating Layer conv3
I1008 10:24:51.987412 54999 net.cpp:434] conv3 <- norm2
I1008 10:24:51.987427 54999 net.cpp:408] conv3 -> conv3
I1008 10:24:52.028669 54999 net.cpp:150] Setting up conv3
I1008 10:24:52.028699 54999 net.cpp:157] Top shape: 128 384 13 13 (8306688)
I1008 10:24:52.028707 54999 net.cpp:165] Memory required for data: 795962880
I1008 10:24:52.028724 54999 layer_factory.hpp:77] Creating layer relu3
I1008 10:24:52.028743 54999 net.cpp:100] Creating Layer relu3
I1008 10:24:52.028753 54999 net.cpp:434] relu3 <- conv3
I1008 10:24:52.028764 54999 net.cpp:395] relu3 -> conv3 (in-place)
I1008 10:24:52.028777 54999 net.cpp:150] Setting up relu3
I1008 10:24:52.028786 54999 net.cpp:157] Top shape: 128 384 13 13 (8306688)
I1008 10:24:52.028792 54999 net.cpp:165] Memory required for data: 829189632
I1008 10:24:52.028800 54999 layer_factory.hpp:77] Creating layer conv4
I1008 10:24:52.028816 54999 net.cpp:100] Creating Layer conv4
I1008 10:24:52.028823 54999 net.cpp:434] conv4 <- conv3
I1008 10:24:52.028836 54999 net.cpp:408] conv4 -> conv4
I1008 10:24:52.055418 54999 net.cpp:150] Setting up conv4
I1008 10:24:52.055445 54999 net.cpp:157] Top shape: 128 384 13 13 (8306688)
I1008 10:24:52.055452 54999 net.cpp:165] Memory required for data: 862416384
I1008 10:24:52.055462 54999 layer_factory.hpp:77] Creating layer relu4
I1008 10:24:52.055474 54999 net.cpp:100] Creating Layer relu4
I1008 10:24:52.055481 54999 net.cpp:434] relu4 <- conv4
I1008 10:24:52.055491 54999 net.cpp:395] relu4 -> conv4 (in-place)
I1008 10:24:52.055519 54999 net.cpp:150] Setting up relu4
I1008 10:24:52.055528 54999 net.cpp:157] Top shape: 128 384 13 13 (8306688)
I1008 10:24:52.055557 54999 net.cpp:165] Memory required for data: 895643136
I1008 10:24:52.055562 54999 layer_factory.hpp:77] Creating layer conv5
I1008 10:24:52.055580 54999 net.cpp:100] Creating Layer conv5
I1008 10:24:52.055586 54999 net.cpp:434] conv5 <- conv4
I1008 10:24:52.055598 54999 net.cpp:408] conv5 -> conv5
I1008 10:24:52.072299 54999 net.cpp:150] Setting up conv5
I1008 10:24:52.072320 54999 net.cpp:157] Top shape: 128 256 13 13 (5537792)
I1008 10:24:52.072326 54999 net.cpp:165] Memory required for data: 917794304
I1008 10:24:52.072341 54999 layer_factory.hpp:77] Creating layer relu5
I1008 10:24:52.072351 54999 net.cpp:100] Creating Layer relu5
I1008 10:24:52.072357 54999 net.cpp:434] relu5 <- conv5
I1008 10:24:52.072365 54999 net.cpp:395] relu5 -> conv5 (in-place)
I1008 10:24:52.072376 54999 net.cpp:150] Setting up relu5
I1008 10:24:52.072382 54999 net.cpp:157] Top shape: 128 256 13 13 (5537792)
I1008 10:24:52.072387 54999 net.cpp:165] Memory required for data: 939945472
I1008 10:24:52.072392 54999 layer_factory.hpp:77] Creating layer pool5
I1008 10:24:52.072403 54999 net.cpp:100] Creating Layer pool5
I1008 10:24:52.072408 54999 net.cpp:434] pool5 <- conv5
I1008 10:24:52.072417 54999 net.cpp:408] pool5 -> pool5
I1008 10:24:52.072463 54999 net.cpp:150] Setting up pool5
I1008 10:24:52.072471 54999 net.cpp:157] Top shape: 128 256 6 6 (1179648)
I1008 10:24:52.072476 54999 net.cpp:165] Memory required for data: 944664064
I1008 10:24:52.072481 54999 layer_factory.hpp:77] Creating layer fc6
I1008 10:24:52.072492 54999 net.cpp:100] Creating Layer fc6
I1008 10:24:52.072499 54999 net.cpp:434] fc6 <- pool5
I1008 10:24:52.072507 54999 net.cpp:408] fc6 -> fc6
I1008 10:24:53.062578 54999 net.cpp:150] Setting up fc6
I1008 10:24:53.062636 54999 net.cpp:157] Top shape: 128 4096 (524288)
I1008 10:24:53.062641 54999 net.cpp:165] Memory required for data: 946761216
I1008 10:24:53.062656 54999 layer_factory.hpp:77] Creating layer relu6
I1008 10:24:53.062674 54999 net.cpp:100] Creating Layer relu6
I1008 10:24:53.062680 54999 net.cpp:434] relu6 <- fc6
I1008 10:24:53.062688 54999 net.cpp:395] relu6 -> fc6 (in-place)
I1008 10:24:53.062700 54999 net.cpp:150] Setting up relu6
I1008 10:24:53.062703 54999 net.cpp:157] Top shape: 128 4096 (524288)
I1008 10:24:53.062706 54999 net.cpp:165] Memory required for data: 948858368
I1008 10:24:53.062711 54999 layer_factory.hpp:77] Creating layer drop6
I1008 10:24:53.062719 54999 net.cpp:100] Creating Layer drop6
I1008 10:24:53.062722 54999 net.cpp:434] drop6 <- fc6
I1008 10:24:53.062726 54999 net.cpp:395] drop6 -> fc6 (in-place)
I1008 10:24:53.062748 54999 net.cpp:150] Setting up drop6
I1008 10:24:53.062754 54999 net.cpp:157] Top shape: 128 4096 (524288)
I1008 10:24:53.062757 54999 net.cpp:165] Memory required for data: 950955520
I1008 10:24:53.062760 54999 layer_factory.hpp:77] Creating layer fc7
I1008 10:24:53.062769 54999 net.cpp:100] Creating Layer fc7
I1008 10:24:53.062772 54999 net.cpp:434] fc7 <- fc6
I1008 10:24:53.062777 54999 net.cpp:408] fc7 -> fc7
I1008 10:24:53.412614 54999 net.cpp:150] Setting up fc7
I1008 10:24:53.412662 54999 net.cpp:157] Top shape: 128 4096 (524288)
I1008 10:24:53.412667 54999 net.cpp:165] Memory required for data: 953052672
I1008 10:24:53.412677 54999 layer_factory.hpp:77] Creating layer relu7
I1008 10:24:53.412689 54999 net.cpp:100] Creating Layer relu7
I1008 10:24:53.412695 54999 net.cpp:434] relu7 <- fc7
I1008 10:24:53.412703 54999 net.cpp:395] relu7 -> fc7 (in-place)
I1008 10:24:53.412714 54999 net.cpp:150] Setting up relu7
I1008 10:24:53.412717 54999 net.cpp:157] Top shape: 128 4096 (524288)
I1008 10:24:53.412721 54999 net.cpp:165] Memory required for data: 955149824
I1008 10:24:53.412726 54999 layer_factory.hpp:77] Creating layer drop7
I1008 10:24:53.412734 54999 net.cpp:100] Creating Layer drop7
I1008 10:24:53.412737 54999 net.cpp:434] drop7 <- fc7
I1008 10:24:53.412742 54999 net.cpp:395] drop7 -> fc7 (in-place)
I1008 10:24:53.412781 54999 net.cpp:150] Setting up drop7
I1008 10:24:53.412788 54999 net.cpp:157] Top shape: 128 4096 (524288)
I1008 10:24:53.412811 54999 net.cpp:165] Memory required for data: 957246976
I1008 10:24:53.412814 54999 layer_factory.hpp:77] Creating layer fc7_drop7_0_split
I1008 10:24:53.412822 54999 net.cpp:100] Creating Layer fc7_drop7_0_split
I1008 10:24:53.412824 54999 net.cpp:434] fc7_drop7_0_split <- fc7
I1008 10:24:53.412829 54999 net.cpp:408] fc7_drop7_0_split -> fc7_drop7_0_split_0
I1008 10:24:53.412837 54999 net.cpp:408] fc7_drop7_0_split -> fc7_drop7_0_split_1
I1008 10:24:53.412863 54999 net.cpp:150] Setting up fc7_drop7_0_split
I1008 10:24:53.412869 54999 net.cpp:157] Top shape: 128 4096 (524288)
I1008 10:24:53.412873 54999 net.cpp:157] Top shape: 128 4096 (524288)
I1008 10:24:53.412876 54999 net.cpp:165] Memory required for data: 961441280
I1008 10:24:53.412878 54999 layer_factory.hpp:77] Creating layer fc8_new
I1008 10:24:53.412890 54999 net.cpp:100] Creating Layer fc8_new
I1008 10:24:53.412894 54999 net.cpp:434] fc8_new <- fc7_drop7_0_split_0
I1008 10:24:53.412900 54999 net.cpp:408] fc8_new -> fc8
I1008 10:24:53.415999 54999 net.cpp:150] Setting up fc8_new
I1008 10:24:53.416008 54999 net.cpp:157] Top shape: 128 31 (3968)
I1008 10:24:53.416012 54999 net.cpp:165] Memory required for data: 961457152
I1008 10:24:53.416018 54999 layer_factory.hpp:77] Creating layer fc8_fc8_new_0_split
I1008 10:24:53.416024 54999 net.cpp:100] Creating Layer fc8_fc8_new_0_split
I1008 10:24:53.416028 54999 net.cpp:434] fc8_fc8_new_0_split <- fc8
I1008 10:24:53.416033 54999 net.cpp:408] fc8_fc8_new_0_split -> fc8_fc8_new_0_split_0
I1008 10:24:53.416039 54999 net.cpp:408] fc8_fc8_new_0_split -> fc8_fc8_new_0_split_1
I1008 10:24:53.416062 54999 net.cpp:150] Setting up fc8_fc8_new_0_split
I1008 10:24:53.416069 54999 net.cpp:157] Top shape: 128 31 (3968)
I1008 10:24:53.416071 54999 net.cpp:157] Top shape: 128 31 (3968)
I1008 10:24:53.416074 54999 net.cpp:165] Memory required for data: 961488896
I1008 10:24:53.416079 54999 layer_factory.hpp:77] Creating layer slice_fc7
I1008 10:24:53.416088 54999 net.cpp:100] Creating Layer slice_fc7
I1008 10:24:53.416091 54999 net.cpp:434] slice_fc7 <- fc7_drop7_0_split_1
I1008 10:24:53.416097 54999 net.cpp:408] slice_fc7 -> fc7_source
I1008 10:24:53.416106 54999 net.cpp:408] slice_fc7 -> fc7_target
I1008 10:24:53.416131 54999 net.cpp:150] Setting up slice_fc7
I1008 10:24:53.416136 54999 net.cpp:157] Top shape: 64 4096 (262144)
I1008 10:24:53.416141 54999 net.cpp:157] Top shape: 64 4096 (262144)
I1008 10:24:53.416143 54999 net.cpp:165] Memory required for data: 963586048
I1008 10:24:53.416146 54999 layer_factory.hpp:77] Creating layer slice_fc8
I1008 10:24:53.416152 54999 net.cpp:100] Creating Layer slice_fc8
I1008 10:24:53.416157 54999 net.cpp:434] slice_fc8 <- fc8_fc8_new_0_split_0
I1008 10:24:53.416162 54999 net.cpp:408] slice_fc8 -> fc8_source
I1008 10:24:53.416167 54999 net.cpp:408] slice_fc8 -> fc8_target
I1008 10:24:53.416193 54999 net.cpp:150] Setting up slice_fc8
I1008 10:24:53.416198 54999 net.cpp:157] Top shape: 64 31 (1984)
I1008 10:24:53.416201 54999 net.cpp:157] Top shape: 64 31 (1984)
I1008 10:24:53.416204 54999 net.cpp:165] Memory required for data: 963601920
I1008 10:24:53.416208 54999 layer_factory.hpp:77] Creating layer silence
I1008 10:24:53.416216 54999 net.cpp:100] Creating Layer silence
I1008 10:24:53.416219 54999 net.cpp:434] silence <- fc8_target
I1008 10:24:53.416224 54999 net.cpp:150] Setting up silence
I1008 10:24:53.416226 54999 net.cpp:165] Memory required for data: 963601920
…
I1008 10:24:53.416332 54999 net.cpp:150] Setting up softmax_loss
I1008 10:24:53.416344 54999 net.cpp:157] Top shape: (1)
I1008 10:24:53.416348 54999 net.cpp:160]     with loss weight 1
I1008 10:24:53.416378 54999 net.cpp:165] Memory required for data: 963601924
I1008 10:24:53.416381 54999 layer_factory.hpp:77] Creating layer fc8_softmax
I1008 10:24:53.416404 54999 net.cpp:100] Creating Layer fc8_softmax
I1008 10:24:53.416411 54999 net.cpp:434] fc8_softmax <- fc8_fc8_new_0_split_1
I1008 10:24:53.416416 54999 net.cpp:408] fc8_softmax -> fc8_softmax
I1008 10:24:53.416461 54999 net.cpp:150] Setting up fc8_softmax
I1008 10:24:53.416467 54999 net.cpp:157] Top shape: 128 31 (3968)
I1008 10:24:53.416471 54999 net.cpp:165] Memory required for data: 963617796
I1008 10:24:53.416473 54999 layer_factory.hpp:77] Creating layer slice_softmax
I1008 10:24:53.416481 54999 net.cpp:100] Creating Layer slice_softmax
I1008 10:24:53.416484 54999 net.cpp:434] slice_softmax <- fc8_softmax
I1008 10:24:53.416491 54999 net.cpp:408] slice_softmax -> source_softmax
I1008 10:24:53.416496 54999 net.cpp:408] slice_softmax -> target_softmax
I1008 10:24:53.416522 54999 net.cpp:150] Setting up slice_softmax
I1008 10:24:53.416527 54999 net.cpp:157] Top shape: 64 31 (1984)
I1008 10:24:53.416530 54999 net.cpp:157] Top shape: 64 31 (1984)
I1008 10:24:53.416533 54999 net.cpp:165] Memory required for data: 963633668
I1008 10:24:53.416537 54999 layer_factory.hpp:77] Creating layer source_softmax_slice_softmax_0_split
I1008 10:24:53.416541 54999 net.cpp:100] Creating Layer source_softmax_slice_softmax_0_split
I1008 10:24:53.416545 54999 net.cpp:434] source_softmax_slice_softmax_0_split <- source_softmax
I1008 10:24:53.416550 54999 net.cpp:408] source_softmax_slice_softmax_0_split -> source_softmax_slice_softmax_0_split_0
I1008 10:24:53.416555 54999 net.cpp:408] source_softmax_slice_softmax_0_split -> source_softmax_slice_softmax_0_split_1
I1008 10:24:53.416560 54999 net.cpp:408] source_softmax_slice_softmax_0_split -> source_softmax_slice_softmax_0_split_2
I1008 10:24:53.416599 54999 net.cpp:150] Setting up source_softmax_slice_softmax_0_split
I1008 10:24:53.416604 54999 net.cpp:157] Top shape: 64 31 (1984)
I1008 10:24:53.416607 54999 net.cpp:157] Top shape: 64 31 (1984)
I1008 10:24:53.416611 54999 net.cpp:157] Top shape: 64 31 (1984)
I1008 10:24:53.416615 54999 net.cpp:165] Memory required for data: 963657476
I1008 10:24:53.416617 54999 layer_factory.hpp:77] Creating layer target_softmax_slice_softmax_1_split
I1008 10:24:53.416623 54999 net.cpp:100] Creating Layer target_softmax_slice_softmax_1_split
I1008 10:24:53.416627 54999 net.cpp:434] target_softmax_slice_softmax_1_split <- target_softmax
I1008 10:24:53.416632 54999 net.cpp:408] target_softmax_slice_softmax_1_split -> target_softmax_slice_softmax_1_split_0
I1008 10:24:53.416637 54999 net.cpp:408] target_softmax_slice_softmax_1_split -> target_softmax_slice_softmax_1_split_1
I1008 10:24:53.416642 54999 net.cpp:408] target_softmax_slice_softmax_1_split -> target_softmax_slice_softmax_1_split_2
I1008 10:24:53.416673 54999 net.cpp:150] Setting up target_softmax_slice_softmax_1_split
I1008 10:24:53.416678 54999 net.cpp:157] Top shape: 64 31 (1984)
I1008 10:24:53.416682 54999 net.cpp:157] Top shape: 64 31 (1984)
I1008 10:24:53.416685 54999 net.cpp:157] Top shape: 64 31 (1984)
I1008 10:24:53.416688 54999 net.cpp:165] Memory required for data: 963681284
I1008 10:24:53.416692 54999 layer_factory.hpp:77] Creating layer jmmd_loss_fc7
I1008 10:24:53.416698 54999 net.cpp:100] Creating Layer jmmd_loss_fc7
I1008 10:24:53.416702 54999 net.cpp:434] jmmd_loss_fc7 <- fc7_source
I1008 10:24:53.416707 54999 net.cpp:434] jmmd_loss_fc7 <- fc7_target
I1008 10:24:53.416710 54999 net.cpp:434] jmmd_loss_fc7 <- source_softmax_slice_softmax_0_split_0
…
I1008 10:24:53.418138 54999 net.cpp:322] The NetState phase (1) differed from the phase (0) specified by a rule in layer silence_loss_value
I1008 10:24:53.418325 54999 net.cpp:58] Initializing net from parameters: 
name: "amazon_to_webcam"
state {
  phase: TEST
}
layer {
  name: "test_data"
  type: "ImageData"
  top: "data"
  top: "label"
  include {
    phase: TEST
  }
  transform_param {
    mirror: false
    crop_size: 227
    mean_file: "./data/ilsvrc12/imagenet_mean.binaryproto"
  }
  image_data_param {
    source: "./data/office/webcam_list.txt"
    batch_size: 1
    shuffle: false
    new_height: 256
    new_width: 256
  }
}
layer {
  name: "conv1"
  type: "Convolution"
  bottom: "data"
  top: "conv1"
  param {
    lr_mult: 0
    decay_mult: 1
  }
  param {
    lr_mult: 0
    decay_mult: 0
  }
  convolution_param {
    num_output: 96
    kernel_size: 11
    stride: 4
    weight_filler {
      type: "gaussian"
      std: 0.01
    }
    bias_filler {
      type: "constant"
      value: 0
    }
  }
}
layer {
  name: "relu1"
  type: "ReLU"
  bottom: "conv1"
  top: "conv1"
}
layer {
  name: "pool1"
  type: "Pooling"
  bottom: "conv1"
  top: "pool1"
  pooling_param {
    pool: MAX
    kernel_size: 3
    stride: 2
  }
}
layer {
  name: "norm1"
  type: "LRN"
  bottom: "pool1"
  top: "norm1"
  lrn_param {
    local_size: 5
    alpha: 0.0001
    beta: 0.75
  }
}
layer {
  name: "conv2"
  type: "Convolution"
  bottom: "norm1"
  top: "conv2"
  param {
    lr_mult: 0
    decay_mult: 1
  }
  param {
    lr_mult: 0
    decay_mult: 0
  }
  convolution_param {
    num_output: 256
    pad: 2
    kernel_size: 5
    group: 2
    weight_filler {
      type: "gaussian"
      std: 0.01
    }
    bias_filler {
      type: "constant"
      value: 1
    }
  }
}
layer {
  name: "relu2"
  type: "ReLU"
  bottom: "conv2"
  top: "conv2"
}
layer {
  name: "pool2"
  type: "Pooling"
  bottom: "conv2"
  top: "pool2"
  pooling_param {
    pool: MAX
    kernel_size: 3
    stride: 2
  }
}
layer {
  name: "norm2"
  type: "LRN"
  bottom: "pool2"
  top: "norm2"
  lrn_param {
    local_size: 5
    alpha: 0.0001
    beta: 0.75
  }
}
layer {
  name: "conv3"
  type: "Convolution"
  bottom: "norm2"
  top: "conv3"
  param {
    lr_mult: 0.1
    decay_mult: 1
  }
  param {
    lr_mult: 0.2
    decay_mult: 0
  }
  convolution_param {
    num_output: 384
    pad: 1
    kernel_size: 3
    weight_filler {
      type: "gaussian"
      std: 0.01
    }
    bias_filler {
      type: "constant"
      value: 0
    }
  }
}
layer {
  name: "relu3"
  type: "ReLU"
  bottom: "conv3"
  top: "conv3"
}
layer {
  name: "conv4"
  type: "Convolution"
  bottom: "conv3"
  top: "conv4"
  param {
    lr_mult: 0.1
    decay_mult: 1
  }
  param {
    lr_mult: 0.2
    decay_mult: 0
  }
  convolution_param {
    num_output: 384
    pad: 1
    kernel_size: 3
    group: 2
    weight_filler {
      type: "gaussian"
      std: 0.01
    }
    bias_filler {
      type: "constant"
      value: 1
    }
  }
}
layer {
  name: "relu4"
  type: "ReLU"
  bottom: "conv4"
  top: "conv4"
}
layer {
  name: "conv5"
  type: "Convolution"
  bottom: "conv4"
  top: "conv5"
  param {
    lr_mult: 0.1
    decay_mult: 1
  }
  param {
    lr_mult: 0.2
    decay_mult: 0
  }
  convolution_param {
    num_output: 256
    pad: 1
    kernel_size: 3
    group: 2
    weight_filler {
      type: "gaussian"
      std: 0.01
    }
    bias_filler {
      type: "constant"
      value: 1
    }
  }
}
layer {
  name: "relu5"
  type: "ReLU"
  bottom: "conv5"
  top: "conv5"
}
layer {
  name: "pool5"
  type: "Pooling"
  bottom: "conv5"
  top: "pool5"
  pooling_param {
    pool: MAX
    kernel_size: 3
    stride: 2
  }
}
layer {
  name: "fc6"
  type: "InnerProduct"
  bottom: "pool5"
  top: "fc6"
  param {
    lr_mult: 0.1
    decay_mult: 1
  }
  param {
    lr_mult: 0.2
    decay_mult: 0
  }
  inner_product_param {
    num_output: 4096
    weight_filler {
      type: "gaussian"
      std: 0.005
    }
    bias_filler {
      type: "constant"
      value: 1
    }
  }
}
layer {
  name: "relu6"
  type: "ReLU"
  bottom: "fc6"
  top: "fc6"
}
layer {
  name: "drop6"
  type: "Dropout"
  bottom: "fc6"
  top: "fc6"
  dropout_param {
    dropout_ratio: 0.5
  }
}
layer {
  name: "fc7"
  type: "InnerProduct"
  bottom: "fc6"
  top: "fc7"
  param {
    lr_mult: 0.1
    decay_mult: 1
  }
  param {
    lr_mult: 0.2
    decay_mult: 0
  }
  inner_product_param {
    num_output: 4096
    weight_filler {
      type: "gaussian"
      std: 0.005
    }
    bias_filler {
      type: "constant"
      value: 1
    }
  }
}
layer {
  name: "relu7"
  type: "ReLU"
  bottom: "fc7"
  top: "fc7"
}
layer {
  name: "drop7"
  type: "Dropout"
  bottom: "fc7"
  top: "fc7"
  dropout_param {
    dropout_ratio: 0.5
  }
}
layer {
  name: "fc8_new"
  type: "InnerProduct"
  bottom: "fc7"
  top: "fc8"
  param {
    lr_mult: 1
    decay_mult: 1
  }
  param {
    lr_mult: 2
    decay_mult: 0
  }
  inner_product_param {
    num_output: 31
    weight_filler {
      type: "gaussian"
      std: 0.01
    }
    bias_filler {
      type: "constant"
      value: 0
    }
  }
}
layer {
  name: "accuracy"
  type: "Accuracy"
  bottom: "fc8"
  bottom: "label"
  top: "accuracy"
  include {
    phase: TEST
  }
}
I1008 10:24:53.418401 54999 layer_factory.hpp:77] Creating layer test_data
I1008 10:24:53.418414 54999 net.cpp:100] Creating Layer test_data
I1008 10:24:53.418418 54999 net.cpp:408] test_data -> data
I1008 10:24:53.418426 54999 net.cpp:408] test_data -> label
I1008 10:24:53.418433 54999 data_transformer.cpp:25] Loading mean file from: ./data/ilsvrc12/imagenet_mean.binaryproto
I1008 10:24:53.421478 54999 image_data_layer.cpp:38] Opening file ./data/office/webcam_list.txt
I1008 10:24:53.421680 54999 image_data_layer.cpp:58] A total of 795 images.
I1008 10:24:53.424135 54999 image_data_layer.cpp:85] output data size: 1,3,227,227
I1008 10:24:53.426651 54999 net.cpp:150] Setting up test_data
I1008 10:24:53.426666 54999 net.cpp:157] Top shape: 1 3 227 227 (154587)
I1008 10:24:53.426669 54999 net.cpp:157] Top shape: 1 (1)
I1008 10:24:53.426672 54999 net.cpp:165] Memory required for data: 618352
I1008 10:24:53.426676 54999 layer_factory.hpp:77] Creating layer conv1
I1008 10:24:53.426688 54999 net.cpp:100] Creating Layer conv1
I1008 10:24:53.426692 54999 net.cpp:434] conv1 <- data
I1008 10:24:53.426697 54999 net.cpp:408] conv1 -> conv1
I1008 10:24:53.427644 54999 net.cpp:150] Setting up conv1
I1008 10:24:53.427654 54999 net.cpp:157] Top shape: 1 96 55 55 (290400)
I1008 10:24:53.427657 54999 net.cpp:165] Memory required for data: 1779952
I1008 10:24:53.427665 54999 layer_factory.hpp:77] Creating layer relu1
I1008 10:24:53.427672 54999 net.cpp:100] Creating Layer relu1
I1008 10:24:53.427676 54999 net.cpp:434] relu1 <- conv1
I1008 10:24:53.427680 54999 net.cpp:395] relu1 -> conv1 (in-place)
I1008 10:24:53.427685 54999 net.cpp:150] Setting up relu1
I1008 10:24:53.427690 54999 net.cpp:157] Top shape: 1 96 55 55 (290400)
I1008 10:24:53.427692 54999 net.cpp:165] Memory required for data: 2941552
I1008 10:24:53.427695 54999 layer_factory.hpp:77] Creating layer pool1
I1008 10:24:53.427700 54999 net.cpp:100] Creating Layer pool1
I1008 10:24:53.427705 54999 net.cpp:434] pool1 <- conv1
I1008 10:24:53.427708 54999 net.cpp:408] pool1 -> pool1
I1008 10:24:53.427736 54999 net.cpp:150] Setting up pool1
I1008 10:24:53.427741 54999 net.cpp:157] Top shape: 1 96 27 27 (69984)
I1008 10:24:53.427744 54999 net.cpp:165] Memory required for data: 3221488
I1008 10:24:53.427747 54999 layer_factory.hpp:77] Creating layer norm1
I1008 10:24:53.427760 54999 net.cpp:100] Creating Layer norm1
I1008 10:24:53.427772 54999 net.cpp:434] norm1 <- pool1
I1008 10:24:53.427778 54999 net.cpp:408] norm1 -> norm1
I1008 10:24:53.427803 54999 net.cpp:150] Setting up norm1
I1008 10:24:53.427809 54999 net.cpp:157] Top shape: 1 96 27 27 (69984)
I1008 10:24:53.427811 54999 net.cpp:165] Memory required for data: 3501424
I1008 10:24:53.427814 54999 layer_factory.hpp:77] Creating layer conv2
I1008 10:24:53.427821 54999 net.cpp:100] Creating Layer conv2
I1008 10:24:53.427824 54999 net.cpp:434] conv2 <- norm1
I1008 10:24:53.427829 54999 net.cpp:408] conv2 -> conv2
I1008 10:24:53.433806 54999 net.cpp:150] Setting up conv2
I1008 10:24:53.433815 54999 net.cpp:157] Top shape: 1 256 27 27 (186624)
I1008 10:24:53.433818 54999 net.cpp:165] Memory required for data: 4247920
I1008 10:24:53.433825 54999 layer_factory.hpp:77] Creating layer relu2
I1008 10:24:53.433831 54999 net.cpp:100] Creating Layer relu2
I1008 10:24:53.433835 54999 net.cpp:434] relu2 <- conv2
I1008 10:24:53.433838 54999 net.cpp:395] relu2 -> conv2 (in-place)
I1008 10:24:53.433843 54999 net.cpp:150] Setting up relu2
I1008 10:24:53.433847 54999 net.cpp:157] Top shape: 1 256 27 27 (186624)
I1008 10:24:53.433851 54999 net.cpp:165] Memory required for data: 4994416
I1008 10:24:53.433853 54999 layer_factory.hpp:77] Creating layer pool2
I1008 10:24:53.433857 54999 net.cpp:100] Creating Layer pool2
I1008 10:24:53.433861 54999 net.cpp:434] pool2 <- conv2
I1008 10:24:53.433866 54999 net.cpp:408] pool2 -> pool2
I1008 10:24:53.433889 54999 net.cpp:150] Setting up pool2
I1008 10:24:53.433894 54999 net.cpp:157] Top shape: 1 256 13 13 (43264)
I1008 10:24:53.433898 54999 net.cpp:165] Memory required for data: 5167472
I1008 10:24:53.433902 54999 layer_factory.hpp:77] Creating layer norm2
I1008 10:24:53.433907 54999 net.cpp:100] Creating Layer norm2
I1008 10:24:53.433909 54999 net.cpp:434] norm2 <- pool2
I1008 10:24:53.433913 54999 net.cpp:408] norm2 -> norm2
I1008 10:24:53.433935 54999 net.cpp:150] Setting up norm2
I1008 10:24:53.433940 54999 net.cpp:157] Top shape: 1 256 13 13 (43264)
I1008 10:24:53.433943 54999 net.cpp:165] Memory required for data: 5340528
I1008 10:24:53.433946 54999 layer_factory.hpp:77] Creating layer conv3
I1008 10:24:53.433954 54999 net.cpp:100] Creating Layer conv3
I1008 10:24:53.433956 54999 net.cpp:434] conv3 <- norm2
I1008 10:24:53.433960 54999 net.cpp:408] conv3 -> conv3
I1008 10:24:53.452669 54999 net.cpp:150] Setting up conv3
I1008 10:24:53.452684 54999 net.cpp:157] Top shape: 1 384 13 13 (64896)
I1008 10:24:53.452688 54999 net.cpp:165] Memory required for data: 5600112
I1008 10:24:53.452695 54999 layer_factory.hpp:77] Creating layer relu3
I1008 10:24:53.452702 54999 net.cpp:100] Creating Layer relu3
I1008 10:24:53.452705 54999 net.cpp:434] relu3 <- conv3
I1008 10:24:53.452709 54999 net.cpp:395] relu3 -> conv3 (in-place)
I1008 10:24:53.452715 54999 net.cpp:150] Setting up relu3
I1008 10:24:53.452719 54999 net.cpp:157] Top shape: 1 384 13 13 (64896)
I1008 10:24:53.452723 54999 net.cpp:165] Memory required for data: 5859696
I1008 10:24:53.452725 54999 layer_factory.hpp:77] Creating layer conv4
I1008 10:24:53.452731 54999 net.cpp:100] Creating Layer conv4
I1008 10:24:53.452735 54999 net.cpp:434] conv4 <- conv3
I1008 10:24:53.452739 54999 net.cpp:408] conv4 -> conv4
I1008 10:24:53.466821 54999 net.cpp:150] Setting up conv4
I1008 10:24:53.466835 54999 net.cpp:157] Top shape: 1 384 13 13 (64896)
I1008 10:24:53.466840 54999 net.cpp:165] Memory required for data: 6119280
I1008 10:24:53.466845 54999 layer_factory.hpp:77] Creating layer relu4
I1008 10:24:53.466850 54999 net.cpp:100] Creating Layer relu4
I1008 10:24:53.466855 54999 net.cpp:434] relu4 <- conv4
I1008 10:24:53.466859 54999 net.cpp:395] relu4 -> conv4 (in-place)
I1008 10:24:53.466864 54999 net.cpp:150] Setting up relu4
I1008 10:24:53.466868 54999 net.cpp:157] Top shape: 1 384 13 13 (64896)
I1008 10:24:53.466871 54999 net.cpp:165] Memory required for data: 6378864
I1008 10:24:53.466874 54999 layer_factory.hpp:77] Creating layer conv5
I1008 10:24:53.466900 54999 net.cpp:100] Creating Layer conv5
I1008 10:24:53.466912 54999 net.cpp:434] conv5 <- conv4
I1008 10:24:53.466917 54999 net.cpp:408] conv5 -> conv5
I1008 10:24:53.476910 54999 net.cpp:150] Setting up conv5
I1008 10:24:53.476927 54999 net.cpp:157] Top shape: 1 256 13 13 (43264)
I1008 10:24:53.476930 54999 net.cpp:165] Memory required for data: 6551920
I1008 10:24:53.476938 54999 layer_factory.hpp:77] Creating layer relu5
I1008 10:24:53.476945 54999 net.cpp:100] Creating Layer relu5
I1008 10:24:53.476948 54999 net.cpp:434] relu5 <- conv5
I1008 10:24:53.476953 54999 net.cpp:395] relu5 -> conv5 (in-place)
I1008 10:24:53.476959 54999 net.cpp:150] Setting up relu5
I1008 10:24:53.476963 54999 net.cpp:157] Top shape: 1 256 13 13 (43264)
I1008 10:24:53.476966 54999 net.cpp:165] Memory required for data: 6724976
I1008 10:24:53.476969 54999 layer_factory.hpp:77] Creating layer pool5
I1008 10:24:53.476974 54999 net.cpp:100] Creating Layer pool5
I1008 10:24:53.476977 54999 net.cpp:434] pool5 <- conv5
I1008 10:24:53.476981 54999 net.cpp:408] pool5 -> pool5
I1008 10:24:53.477008 54999 net.cpp:150] Setting up pool5
I1008 10:24:53.477013 54999 net.cpp:157] Top shape: 1 256 6 6 (9216)
I1008 10:24:53.477017 54999 net.cpp:165] Memory required for data: 6761840
I1008 10:24:53.477020 54999 layer_factory.hpp:77] Creating layer fc6
I1008 10:24:53.477027 54999 net.cpp:100] Creating Layer fc6
I1008 10:24:53.477030 54999 net.cpp:434] fc6 <- pool5
I1008 10:24:53.477035 54999 net.cpp:408] fc6 -> fc6
I1008 10:24:54.263622 54999 net.cpp:150] Setting up fc6
I1008 10:24:54.263692 54999 net.cpp:157] Top shape: 1 4096 (4096)
I1008 10:24:54.263697 54999 net.cpp:165] Memory required for data: 6778224
I1008 10:24:54.263712 54999 layer_factory.hpp:77] Creating layer relu6
I1008 10:24:54.263731 54999 net.cpp:100] Creating Layer relu6
I1008 10:24:54.263737 54999 net.cpp:434] relu6 <- fc6
I1008 10:24:54.263746 54999 net.cpp:395] relu6 -> fc6 (in-place)
I1008 10:24:54.263757 54999 net.cpp:150] Setting up relu6
I1008 10:24:54.263761 54999 net.cpp:157] Top shape: 1 4096 (4096)
I1008 10:24:54.263764 54999 net.cpp:165] Memory required for data: 6794608
I1008 10:24:54.263767 54999 layer_factory.hpp:77] Creating layer drop6
I1008 10:24:54.263779 54999 net.cpp:100] Creating Layer drop6
I1008 10:24:54.263783 54999 net.cpp:434] drop6 <- fc6
I1008 10:24:54.263788 54999 net.cpp:395] drop6 -> fc6 (in-place)
I1008 10:24:54.263809 54999 net.cpp:150] Setting up drop6
I1008 10:24:54.263816 54999 net.cpp:157] Top shape: 1 4096 (4096)
I1008 10:24:54.263818 54999 net.cpp:165] Memory required for data: 6810992
I1008 10:24:54.263821 54999 layer_factory.hpp:77] Creating layer fc7
I1008 10:24:54.263833 54999 net.cpp:100] Creating Layer fc7
I1008 10:24:54.263836 54999 net.cpp:434] fc7 <- fc6
I1008 10:24:54.263842 54999 net.cpp:408] fc7 -> fc7
I1008 10:24:54.612102 54999 net.cpp:150] Setting up fc7
I1008 10:24:54.612149 54999 net.cpp:157] Top shape: 1 4096 (4096)
I1008 10:24:54.612154 54999 net.cpp:165] Memory required for data: 6827376
I1008 10:24:54.612164 54999 layer_factory.hpp:77] Creating layer relu7
I1008 10:24:54.612179 54999 net.cpp:100] Creating Layer relu7
I1008 10:24:54.612182 54999 net.cpp:434] relu7 <- fc7
I1008 10:24:54.612191 54999 net.cpp:395] relu7 -> fc7 (in-place)
I1008 10:24:54.612201 54999 net.cpp:150] Setting up relu7
I1008 10:24:54.612205 54999 net.cpp:157] Top shape: 1 4096 (4096)
I1008 10:24:54.612208 54999 net.cpp:165] Memory required for data: 6843760
I1008 10:24:54.612211 54999 layer_factory.hpp:77] Creating layer drop7
I1008 10:24:54.612223 54999 net.cpp:100] Creating Layer drop7
I1008 10:24:54.612226 54999 net.cpp:434] drop7 <- fc7
I1008 10:24:54.612231 54999 net.cpp:395] drop7 -> fc7 (in-place)
I1008 10:24:54.612252 54999 net.cpp:150] Setting up drop7
I1008 10:24:54.612257 54999 net.cpp:157] Top shape: 1 4096 (4096)
I1008 10:24:54.612260 54999 net.cpp:165] Memory required for data: 6860144
I1008 10:24:54.612263 54999 layer_factory.hpp:77] Creating layer fc8_new
I1008 10:24:54.612274 54999 net.cpp:100] Creating Layer fc8_new
I1008 10:24:54.612303 54999 net.cpp:434] fc8_new <- fc7
I1008 10:24:54.612310 54999 net.cpp:408] fc8_new -> fc8
I1008 10:24:54.614876 54999 net.cpp:150] Setting up fc8_new
I1008 10:24:54.614886 54999 net.cpp:157] Top shape: 1 31 (31)
I1008 10:24:54.614888 54999 net.cpp:165] Memory required for data: 6860268
I1008 10:24:54.614893 54999 layer_factory.hpp:77] Creating layer accuracy
I1008 10:24:54.614902 54999 net.cpp:100] Creating Layer accuracy
I1008 10:24:54.614907 54999 net.cpp:434] accuracy <- fc8
I1008 10:24:54.614910 54999 net.cpp:434] accuracy <- label
I1008 10:24:54.614915 54999 net.cpp:408] accuracy -> accuracy
…
