…
    mean_file: "./data/ilsvrc12/imagenet_mean.binaryproto"
  }
  image_data_param {
    source: "./data/office/webcam_list.txt"
    batch_size: 64
    shuffle: true
    new_height: 256
    new_width: 256
  }
}
layer {
  name: "target_data"
  type: "ImageData"
  top: "target_data"
  top: "target_label"
  include {
    phase: TRAIN
  }
  transform_param {
    mirror: true
    crop_size: 227
    mean_file: "./data/ilsvrc12/imagenet_mean.binaryproto"
  }
  image_data_param {
    source: "./data/office/amazon_list.txt"
    batch_size: 64
    shuffle: true
    new_height: 256
    new_width: 256
  }
}
layer {
  name: "target_label_silence"
  type: "Silence"
  bottom: "target_label"
  include {
    phase: TRAIN
  }
}
layer {
  name: "data"
  type: "Concat"
  bottom: "source_data"
  bottom: "target_data"
  top: "data"
  include {
    phase: TRAIN
  }
  concat_param {
    axis: 0
  }
}
layer {
  name: "conv1"
  type: "Convolution"
  bottom: "data"
  top: "conv1"
  param {
    lr_mult: 0
    decay_mult: 1
  }
  param {
    lr_mult: 0
    decay_mult: 0
  }
  convolution_param {
    num_output: 96
    kernel_size: 11
    stride: 4
    weight_filler {
      type: "gaussian"
      std: 0.01
    }
    bias_filler {
      type: "constant"
      value: 0
    }
  }
}
layer {
  name: "relu1"
  type: "ReLU"
  bottom: "conv1"
  top: "conv1"
}
layer {
  name: "pool1"
  type: "Pooling"
  bottom: "conv1"
  top: "pool1"
  pooling_param {
    pool: MAX
    kernel_size: 3
    stride: 2
  }
}
layer {
  name: "norm1"
  type: "LRN"
  bottom: "pool1"
  top: "norm1"
  lrn_param {
    local_size: 5
    alpha: 0.0001
    beta: 0.75
  }
}
layer {
  name: "conv2"
  type: "Convolution"
  bottom: "norm1"
  top: "conv2"
  param {
    lr_mult: 0
    decay_mult: 1
  }
  param {
    lr_mult: 0
    decay_mult: 0
  }
  convolution_param {
    num_output: 256
    pad: 2
    kernel_size: 5
    group: 2
    weight_filler {
      type: "gaussian"
      std: 0.01
    }
    bias_filler {
      type: "constant"
      value: 1
    }
  }
}
layer {
  name: "relu2"
  type: "ReLU"
  bottom: "conv2"
  top: "conv2"
}
layer {
  name: "pool2"
  type: "Pooling"
  bottom: "conv2"
  top: "pool2"
  pooling_param {
    pool: MAX
    kernel_size: 3
    stride: 2
  }
}
layer {
  name: "norm2"
  type: "LRN"
  bottom: "pool2"
  top: "norm2"
  lrn_param {
    local_size: 5
    alpha: 0.0001
    beta: 0.75
  }
}
layer {
  name: "conv3"
  type: "Convolution"
  bottom: "norm2"
  top: "conv3"
  param {
    lr_mult: 0.1
    decay_mult: 1
  }
  param {
    lr_mult: 0.2
    decay_mult: 0
  }
  convolution_param {
    num_output: 384
    pad: 1
    kernel_size: 3
    weight_filler {
      type: "gaussian"
      std: 0.01
    }
    bias_filler {
      type: "constant"
      value: 0
    }
  }
}
layer {
  name: "relu3"
  type: "ReLU"
  bottom: "conv3"
  top: "conv3"
}
layer {
  name: "conv4"
  type: "Convolution"
  bottom: "conv3"
  top: "conv4"
  param {
    lr_mult: 0.1
    decay_mult: 1
  }
  param {
    lr_mult: 0.2
    decay_mult: 0
  }
  convolution_param {
    num_output: 384
    pad: 1
    kernel_size: 3
    group: 2
    weight_filler {
      type: "gaussian"
      std: 0.01
    }
    bias_filler {
      type: "constant"
      value: 1
    }
  }
}
layer {
  name: "relu4"
  type: "ReLU"
  bottom: "conv4"
  top: "conv4"
}
layer {
  name: "conv5"
  type: "Convolution"
  bottom: "conv4"
  top: "conv5"
  param {
    lr_mult: 0.1
    decay_mult: 1
  }
  param {
    lr_mult: 0.2
    decay_mult: 0
  }
  convolution_param {
    num_output: 256
    pad: 1
    kernel_size: 3
    group: 2
    weight_filler {
      type: "gaussian"
      std: 0.01
    }
    bias_filler {
      type: "constant"
      value: 1
    }
  }
}
layer {
  name: "relu5"
  type: "ReLU"
  bottom: "conv5"
  top: "conv5"
}
layer {
  name: "pool5"
  type: "Pooling"
  bottom: "conv5"
  top: "pool5"
  pooling_param {
    pool: MAX
    kernel_size: 3
    stride: 2
  }
}
layer {
  name: "fc6"
  type: "InnerProduct"
  bottom: "pool5"
  top: "fc6"
  param {
    lr_mult: 0.1
    decay_mult: 1
  }
  param {
    lr_mult: 0.2
    decay_mult: 0
  }
  inner_product_param {
    num_output: 4096
    weight_filler {
      type: "gaussian"
      std: 0.005
    }
    bias_filler {
      type: "constant"
      value: 1
    }
  }
}
layer {
  name: "relu6"
  type: "ReLU"
  bottom: "fc6"
  top: "fc6"
}
layer {
  name: "drop6"
  type: "Dropout"
  bottom: "fc6"
  top: "fc6"
  dropout_param {
    dropout_ratio: 0.5
  }
}
layer {
  name: "fc7"
  type: "InnerProduct"
  bottom: "fc6"
  top: "fc7"
  param {
    lr_mult: 0.1
    decay_mult: 1
  }
  param {
    lr_mult: 0.2
    decay_mult: 0
  }
  inner_product_param {
    num_output: 4096
    weight_filler {
      type: "gaussian"
      std: 0.005
    }
    bias_filler {
      type: "constant"
      value: 1
    }
  }
}
layer {
  name: "relu7"
  type: "ReLU"
  bottom: "fc7"
  top: "fc7"
}
layer {
  name: "drop7"
  type: "Dropout"
  bottom: "fc7"
  top: "fc7"
  dropout_param {
    dropout_ratio: 0.5
  }
}
layer {
  name: "fc8_new"
  type: "InnerProduct"
  bottom: "fc7"
  top: "fc8"
  param {
    lr_mult: 1
    decay_mult: 1
  }
  param {
    lr_mult: 2
    decay_mult: 0
  }
  inner_product_param {
    num_output: 31
    weight_filler {
      type: "gaussian"
      std: 0.01
    }
    bias_filler {
      type: "constant"
      value: 0
    }
  }
}
layer {
  name: "slice_fc7"
  type: "Slice"
  bottom: "fc7"
  top: "fc7_source"
  top: "fc7_target"
  include {
    phase: TRAIN
  }
  slice_param {
    slice_dim: 0
  }
}
layer {
  name: "slice_fc8"
  type: "Slice"
  bottom: "fc8"
  top: "fc8_source"
  top: "fc8_target"
  include {
    phase: TRAIN
  }
  slice_param {
    slice_dim: 0
  }
}
layer {
  name: "silence"
  type: "Silence"
  bottom: "fc8_target"
  include {
    phase: TRAIN
  }
}
layer {
  name: "softmax_loss"
  type: "SoftmaxWithLoss"
  bottom: "fc8_source"
  bottom: "source_label"
  top: "softmax_loss"
  include {
    phase: TRAIN
  }
}
layer {
  name: "fc8_softmax"
  type: "Softmax"
  bottom: "fc8"
  top: "fc8_softmax"
  include {
    phase: TRAIN
  }
}
layer {
  name: "slice_softmax"
  type: "Slice"
  bottom: "fc8_softmax"
  top: "source_softmax"
  top: "target_softmax"
  include {
    phase: TRAIN
  }
  slice_param {
    slice_dim: 0
  }
}
layer {
  name: "jmmd_loss_fc7"
  type: "JMMDLoss"
  bottom: "fc7_source"
  bottom: "fc7_target"
  bottom: "source_softmax"
  bottom: "target_softmax"
  top: "jmmd_loss_fc7"
  loss_weight: 0.3
  include {
    phase: TRAIN
  }
}
layer {
  name: "jmmd_loss_softmax"
  type: "JMMDLoss"
  bottom: "source_softmax"
  bottom: "target_softmax"
  bottom: "source_softmax"
  bottom: "target_softmax"
  top: "jmmd_loss_softmax"
  loss_weight: 0.3
  include {
    phase: TRAIN
  }
}
layer {
  name: "silence_loss_value"
  type: "Silence"
  bottom: "jmmd_loss_fc7"
  bottom: "jmmd_loss_softmax"
  include {
    phase: TRAIN
  }
}
I1008 12:16:46.976392 55747 layer_factory.hpp:77] Creating layer source_data
I1008 12:16:46.976466 55747 net.cpp:100] Creating Layer source_data
I1008 12:16:46.976500 55747 net.cpp:408] source_data -> source_data
I1008 12:16:46.976537 55747 net.cpp:408] source_data -> source_label
I1008 12:16:46.976562 55747 data_transformer.cpp:25] Loading mean file from: ./data/ilsvrc12/imagenet_mean.binaryproto
I1008 12:16:47.022912 55747 image_data_layer.cpp:38] Opening file ./data/office/webcam_list.txt
I1008 12:16:47.023392 55747 image_data_layer.cpp:53] Shuffling data
I1008 12:16:47.023495 55747 image_data_layer.cpp:58] A total of 795 images.
I1008 12:16:47.513975 55747 image_data_layer.cpp:85] output data size: 64,3,227,227
I1008 12:16:47.602005 55747 net.cpp:150] Setting up source_data
I1008 12:16:47.602046 55747 net.cpp:157] Top shape: 64 3 227 227 (9893568)
I1008 12:16:47.602054 55747 net.cpp:157] Top shape: 64 (64)
I1008 12:16:47.602058 55747 net.cpp:165] Memory required for data: 39574528
I1008 12:16:47.602154 55747 layer_factory.hpp:77] Creating layer target_data
I1008 12:16:47.602221 55747 net.cpp:100] Creating Layer target_data
I1008 12:16:47.602232 55747 net.cpp:408] target_data -> target_data
I1008 12:16:47.602248 55747 net.cpp:408] target_data -> target_label
I1008 12:16:47.602257 55747 data_transformer.cpp:25] Loading mean file from: ./data/ilsvrc12/imagenet_mean.binaryproto
I1008 12:16:47.603718 55747 image_data_layer.cpp:38] Opening file ./data/office/amazon_list.txt
I1008 12:16:47.604576 55747 image_data_layer.cpp:53] Shuffling data
I1008 12:16:47.604779 55747 image_data_layer.cpp:58] A total of 2817 images.
I1008 12:16:47.606552 55747 image_data_layer.cpp:85] output data size: 64,3,227,227
I1008 12:16:47.689996 55747 net.cpp:150] Setting up target_data
I1008 12:16:47.690042 55747 net.cpp:157] Top shape: 64 3 227 227 (9893568)
I1008 12:16:47.690047 55747 net.cpp:157] Top shape: 64 (64)
I1008 12:16:47.690052 55747 net.cpp:165] Memory required for data: 79149056
I1008 12:16:47.690078 55747 layer_factory.hpp:77] Creating layer target_label_silence
I1008 12:16:47.690135 55747 net.cpp:100] Creating Layer target_label_silence
I1008 12:16:47.690145 55747 net.cpp:434] target_label_silence <- target_label
I1008 12:16:47.690161 55747 net.cpp:150] Setting up target_label_silence
I1008 12:16:47.690165 55747 net.cpp:165] Memory required for data: 79149056
I1008 12:16:47.690171 55747 layer_factory.hpp:77] Creating layer data
I1008 12:16:47.690201 55747 net.cpp:100] Creating Layer data
I1008 12:16:47.690207 55747 net.cpp:434] data <- source_data
I1008 12:16:47.690212 55747 net.cpp:434] data <- target_data
I1008 12:16:47.690220 55747 net.cpp:408] data -> data
I1008 12:16:47.690271 55747 net.cpp:150] Setting up data
I1008 12:16:47.690280 55747 net.cpp:157] Top shape: 128 3 227 227 (19787136)
I1008 12:16:47.690284 55747 net.cpp:165] Memory required for data: 158297600
I1008 12:16:47.690289 55747 layer_factory.hpp:77] Creating layer conv1
I1008 12:16:47.690381 55747 net.cpp:100] Creating Layer conv1
I1008 12:16:47.690385 55747 net.cpp:434] conv1 <- data
I1008 12:16:47.690393 55747 net.cpp:408] conv1 -> conv1
I1008 12:16:47.694686 55747 net.cpp:150] Setting up conv1
I1008 12:16:47.694705 55747 net.cpp:157] Top shape: 128 96 55 55 (37171200)
I1008 12:16:47.694710 55747 net.cpp:165] Memory required for data: 306982400
I1008 12:16:47.694723 55747 layer_factory.hpp:77] Creating layer relu1
I1008 12:16:47.694752 55747 net.cpp:100] Creating Layer relu1
I1008 12:16:47.694757 55747 net.cpp:434] relu1 <- conv1
I1008 12:16:47.694764 55747 net.cpp:395] relu1 -> conv1 (in-place)
I1008 12:16:47.694773 55747 net.cpp:150] Setting up relu1
I1008 12:16:47.694779 55747 net.cpp:157] Top shape: 128 96 55 55 (37171200)
I1008 12:16:47.694783 55747 net.cpp:165] Memory required for data: 455667200
I1008 12:16:47.694788 55747 layer_factory.hpp:77] Creating layer pool1
I1008 12:16:47.694797 55747 net.cpp:100] Creating Layer pool1
I1008 12:16:47.694802 55747 net.cpp:434] pool1 <- conv1
I1008 12:16:47.694808 55747 net.cpp:408] pool1 -> pool1
I1008 12:16:47.694857 55747 net.cpp:150] Setting up pool1
I1008 12:16:47.694885 55747 net.cpp:157] Top shape: 128 96 27 27 (8957952)
I1008 12:16:47.694905 55747 net.cpp:165] Memory required for data: 491499008
I1008 12:16:47.694910 55747 layer_factory.hpp:77] Creating layer norm1
I1008 12:16:47.694918 55747 net.cpp:100] Creating Layer norm1
I1008 12:16:47.694922 55747 net.cpp:434] norm1 <- pool1
I1008 12:16:47.694931 55747 net.cpp:408] norm1 -> norm1
I1008 12:16:47.694967 55747 net.cpp:150] Setting up norm1
I1008 12:16:47.694974 55747 net.cpp:157] Top shape: 128 96 27 27 (8957952)
I1008 12:16:47.694978 55747 net.cpp:165] Memory required for data: 527330816
I1008 12:16:47.694983 55747 layer_factory.hpp:77] Creating layer conv2
I1008 12:16:47.694995 55747 net.cpp:100] Creating Layer conv2
I1008 12:16:47.695000 55747 net.cpp:434] conv2 <- norm1
I1008 12:16:47.695008 55747 net.cpp:408] conv2 -> conv2
I1008 12:16:47.706140 55747 net.cpp:150] Setting up conv2
I1008 12:16:47.706161 55747 net.cpp:157] Top shape: 128 256 27 27 (23887872)
I1008 12:16:47.706166 55747 net.cpp:165] Memory required for data: 622882304
I1008 12:16:47.706176 55747 layer_factory.hpp:77] Creating layer relu2
I1008 12:16:47.706185 55747 net.cpp:100] Creating Layer relu2
I1008 12:16:47.706190 55747 net.cpp:434] relu2 <- conv2
I1008 12:16:47.706197 55747 net.cpp:395] relu2 -> conv2 (in-place)
I1008 12:16:47.706205 55747 net.cpp:150] Setting up relu2
I1008 12:16:47.706212 55747 net.cpp:157] Top shape: 128 256 27 27 (23887872)
I1008 12:16:47.706214 55747 net.cpp:165] Memory required for data: 718433792
I1008 12:16:47.706219 55747 layer_factory.hpp:77] Creating layer pool2
I1008 12:16:47.706228 55747 net.cpp:100] Creating Layer pool2
I1008 12:16:47.706233 55747 net.cpp:434] pool2 <- conv2
I1008 12:16:47.706238 55747 net.cpp:408] pool2 -> pool2
I1008 12:16:47.706279 55747 net.cpp:150] Setting up pool2
I1008 12:16:47.706285 55747 net.cpp:157] Top shape: 128 256 13 13 (5537792)
I1008 12:16:47.706290 55747 net.cpp:165] Memory required for data: 740584960
I1008 12:16:47.706293 55747 layer_factory.hpp:77] Creating layer norm2
I1008 12:16:47.706301 55747 net.cpp:100] Creating Layer norm2
I1008 12:16:47.706305 55747 net.cpp:434] norm2 <- pool2
I1008 12:16:47.706311 55747 net.cpp:408] norm2 -> norm2
I1008 12:16:47.706343 55747 net.cpp:150] Setting up norm2
I1008 12:16:47.706351 55747 net.cpp:157] Top shape: 128 256 13 13 (5537792)
I1008 12:16:47.706353 55747 net.cpp:165] Memory required for data: 762736128
I1008 12:16:47.706358 55747 layer_factory.hpp:77] Creating layer conv3
I1008 12:16:47.706369 55747 net.cpp:100] Creating Layer conv3
I1008 12:16:47.706373 55747 net.cpp:434] conv3 <- norm2
I1008 12:16:47.706379 55747 net.cpp:408] conv3 -> conv3
I1008 12:16:47.731227 55747 net.cpp:150] Setting up conv3
I1008 12:16:47.731247 55747 net.cpp:157] Top shape: 128 384 13 13 (8306688)
I1008 12:16:47.731251 55747 net.cpp:165] Memory required for data: 795962880
I1008 12:16:47.731262 55747 layer_factory.hpp:77] Creating layer relu3
I1008 12:16:47.731273 55747 net.cpp:100] Creating Layer relu3
I1008 12:16:47.731278 55747 net.cpp:434] relu3 <- conv3
I1008 12:16:47.731286 55747 net.cpp:395] relu3 -> conv3 (in-place)
I1008 12:16:47.731294 55747 net.cpp:150] Setting up relu3
I1008 12:16:47.731300 55747 net.cpp:157] Top shape: 128 384 13 13 (8306688)
I1008 12:16:47.731304 55747 net.cpp:165] Memory required for data: 829189632
I1008 12:16:47.731308 55747 layer_factory.hpp:77] Creating layer conv4
I1008 12:16:47.731320 55747 net.cpp:100] Creating Layer conv4
I1008 12:16:47.731325 55747 net.cpp:434] conv4 <- conv3
I1008 12:16:47.731333 55747 net.cpp:408] conv4 -> conv4
I1008 12:16:47.750052 55747 net.cpp:150] Setting up conv4
I1008 12:16:47.750072 55747 net.cpp:157] Top shape: 128 384 13 13 (8306688)
I1008 12:16:47.750077 55747 net.cpp:165] Memory required for data: 862416384
I1008 12:16:47.750084 55747 layer_factory.hpp:77] Creating layer relu4
I1008 12:16:47.750092 55747 net.cpp:100] Creating Layer relu4
I1008 12:16:47.750097 55747 net.cpp:434] relu4 <- conv4
I1008 12:16:47.750108 55747 net.cpp:395] relu4 -> conv4 (in-place)
I1008 12:16:47.750133 55747 net.cpp:150] Setting up relu4
I1008 12:16:47.750138 55747 net.cpp:157] Top shape: 128 384 13 13 (8306688)
I1008 12:16:47.750157 55747 net.cpp:165] Memory required for data: 895643136
I1008 12:16:47.750162 55747 layer_factory.hpp:77] Creating layer conv5
I1008 12:16:47.750180 55747 net.cpp:100] Creating Layer conv5
I1008 12:16:47.750185 55747 net.cpp:434] conv5 <- conv4
I1008 12:16:47.750192 55747 net.cpp:408] conv5 -> conv5
I1008 12:16:47.763121 55747 net.cpp:150] Setting up conv5
I1008 12:16:47.763139 55747 net.cpp:157] Top shape: 128 256 13 13 (5537792)
I1008 12:16:47.763144 55747 net.cpp:165] Memory required for data: 917794304
I1008 12:16:47.763175 55747 layer_factory.hpp:77] Creating layer relu5
I1008 12:16:47.763185 55747 net.cpp:100] Creating Layer relu5
I1008 12:16:47.763190 55747 net.cpp:434] relu5 <- conv5
I1008 12:16:47.763196 55747 net.cpp:395] relu5 -> conv5 (in-place)
I1008 12:16:47.763204 55747 net.cpp:150] Setting up relu5
I1008 12:16:47.763211 55747 net.cpp:157] Top shape: 128 256 13 13 (5537792)
I1008 12:16:47.763213 55747 net.cpp:165] Memory required for data: 939945472
I1008 12:16:47.763217 55747 layer_factory.hpp:77] Creating layer pool5
I1008 12:16:47.763227 55747 net.cpp:100] Creating Layer pool5
I1008 12:16:47.763232 55747 net.cpp:434] pool5 <- conv5
I1008 12:16:47.763238 55747 net.cpp:408] pool5 -> pool5
I1008 12:16:47.763276 55747 net.cpp:150] Setting up pool5
I1008 12:16:47.763283 55747 net.cpp:157] Top shape: 128 256 6 6 (1179648)
I1008 12:16:47.763288 55747 net.cpp:165] Memory required for data: 944664064
I1008 12:16:47.763290 55747 layer_factory.hpp:77] Creating layer fc6
I1008 12:16:47.763303 55747 net.cpp:100] Creating Layer fc6
I1008 12:16:47.763306 55747 net.cpp:434] fc6 <- pool5
I1008 12:16:47.763314 55747 net.cpp:408] fc6 -> fc6
I1008 12:16:48.738446 55747 net.cpp:150] Setting up fc6
I1008 12:16:48.738503 55747 net.cpp:157] Top shape: 128 4096 (524288)
I1008 12:16:48.738508 55747 net.cpp:165] Memory required for data: 946761216
I1008 12:16:48.738521 55747 layer_factory.hpp:77] Creating layer relu6
I1008 12:16:48.738543 55747 net.cpp:100] Creating Layer relu6
I1008 12:16:48.738549 55747 net.cpp:434] relu6 <- fc6
I1008 12:16:48.738556 55747 net.cpp:395] relu6 -> fc6 (in-place)
I1008 12:16:48.738566 55747 net.cpp:150] Setting up relu6
I1008 12:16:48.738570 55747 net.cpp:157] Top shape: 128 4096 (524288)
I1008 12:16:48.738574 55747 net.cpp:165] Memory required for data: 948858368
I1008 12:16:48.738577 55747 layer_factory.hpp:77] Creating layer drop6
I1008 12:16:48.738587 55747 net.cpp:100] Creating Layer drop6
I1008 12:16:48.738590 55747 net.cpp:434] drop6 <- fc6
I1008 12:16:48.738595 55747 net.cpp:395] drop6 -> fc6 (in-place)
I1008 12:16:48.738617 55747 net.cpp:150] Setting up drop6
I1008 12:16:48.738623 55747 net.cpp:157] Top shape: 128 4096 (524288)
I1008 12:16:48.738626 55747 net.cpp:165] Memory required for data: 950955520
I1008 12:16:48.738629 55747 layer_factory.hpp:77] Creating layer fc7
I1008 12:16:48.738637 55747 net.cpp:100] Creating Layer fc7
I1008 12:16:48.738641 55747 net.cpp:434] fc7 <- fc6
I1008 12:16:48.738646 55747 net.cpp:408] fc7 -> fc7
I1008 12:16:49.122838 55747 net.cpp:150] Setting up fc7
I1008 12:16:49.122874 55747 net.cpp:157] Top shape: 128 4096 (524288)
I1008 12:16:49.122877 55747 net.cpp:165] Memory required for data: 953052672
I1008 12:16:49.122887 55747 layer_factory.hpp:77] Creating layer relu7
I1008 12:16:49.122900 55747 net.cpp:100] Creating Layer relu7
I1008 12:16:49.122903 55747 net.cpp:434] relu7 <- fc7
I1008 12:16:49.122912 55747 net.cpp:395] relu7 -> fc7 (in-place)
I1008 12:16:49.122921 55747 net.cpp:150] Setting up relu7
I1008 12:16:49.122925 55747 net.cpp:157] Top shape: 128 4096 (524288)
I1008 12:16:49.122928 55747 net.cpp:165] Memory required for data: 955149824
I1008 12:16:49.122931 55747 layer_factory.hpp:77] Creating layer drop7
I1008 12:16:49.122939 55747 net.cpp:100] Creating Layer drop7
I1008 12:16:49.122942 55747 net.cpp:434] drop7 <- fc7
I1008 12:16:49.122946 55747 net.cpp:395] drop7 -> fc7 (in-place)
I1008 12:16:49.122982 55747 net.cpp:150] Setting up drop7
I1008 12:16:49.122988 55747 net.cpp:157] Top shape: 128 4096 (524288)
I1008 12:16:49.123005 55747 net.cpp:165] Memory required for data: 957246976
I1008 12:16:49.123011 55747 layer_factory.hpp:77] Creating layer fc7_drop7_0_split
I1008 12:16:49.123018 55747 net.cpp:100] Creating Layer fc7_drop7_0_split
I1008 12:16:49.123020 55747 net.cpp:434] fc7_drop7_0_split <- fc7
I1008 12:16:49.123025 55747 net.cpp:408] fc7_drop7_0_split -> fc7_drop7_0_split_0
I1008 12:16:49.123033 55747 net.cpp:408] fc7_drop7_0_split -> fc7_drop7_0_split_1
I1008 12:16:49.123059 55747 net.cpp:150] Setting up fc7_drop7_0_split
I1008 12:16:49.123065 55747 net.cpp:157] Top shape: 128 4096 (524288)
I1008 12:16:49.123069 55747 net.cpp:157] Top shape: 128 4096 (524288)
I1008 12:16:49.123071 55747 net.cpp:165] Memory required for data: 961441280
I1008 12:16:49.123075 55747 layer_factory.hpp:77] Creating layer fc8_new
I1008 12:16:49.123083 55747 net.cpp:100] Creating Layer fc8_new
I1008 12:16:49.123086 55747 net.cpp:434] fc8_new <- fc7_drop7_0_split_0
I1008 12:16:49.123091 55747 net.cpp:408] fc8_new -> fc8
I1008 12:16:49.125787 55747 net.cpp:150] Setting up fc8_new
I1008 12:16:49.125795 55747 net.cpp:157] Top shape: 128 31 (3968)
I1008 12:16:49.125797 55747 net.cpp:165] Memory required for data: 961457152
I1008 12:16:49.125803 55747 layer_factory.hpp:77] Creating layer fc8_fc8_new_0_split
I1008 12:16:49.125809 55747 net.cpp:100] Creating Layer fc8_fc8_new_0_split
I1008 12:16:49.125813 55747 net.cpp:434] fc8_fc8_new_0_split <- fc8
I1008 12:16:49.125818 55747 net.cpp:408] fc8_fc8_new_0_split -> fc8_fc8_new_0_split_0
I1008 12:16:49.125824 55747 net.cpp:408] fc8_fc8_new_0_split -> fc8_fc8_new_0_split_1
I1008 12:16:49.125846 55747 net.cpp:150] Setting up fc8_fc8_new_0_split
I1008 12:16:49.125852 55747 net.cpp:157] Top shape: 128 31 (3968)
I1008 12:16:49.125855 55747 net.cpp:157] Top shape: 128 31 (3968)
I1008 12:16:49.125859 55747 net.cpp:165] Memory required for data: 961488896
I1008 12:16:49.125862 55747 layer_factory.hpp:77] Creating layer slice_fc7
I1008 12:16:49.125872 55747 net.cpp:100] Creating Layer slice_fc7
I1008 12:16:49.125875 55747 net.cpp:434] slice_fc7 <- fc7_drop7_0_split_1
I1008 12:16:49.125880 55747 net.cpp:408] slice_fc7 -> fc7_source
I1008 12:16:49.125890 55747 net.cpp:408] slice_fc7 -> fc7_target
I1008 12:16:49.125913 55747 net.cpp:150] Setting up slice_fc7
I1008 12:16:49.125918 55747 net.cpp:157] Top shape: 64 4096 (262144)
I1008 12:16:49.125921 55747 net.cpp:157] Top shape: 64 4096 (262144)
I1008 12:16:49.125924 55747 net.cpp:165] Memory required for data: 963586048
I1008 12:16:49.125927 55747 layer_factory.hpp:77] Creating layer slice_fc8
I1008 12:16:49.125933 55747 net.cpp:100] Creating Layer slice_fc8
I1008 12:16:49.125936 55747 net.cpp:434] slice_fc8 <- fc8_fc8_new_0_split_0
I1008 12:16:49.125941 55747 net.cpp:408] slice_fc8 -> fc8_source
I1008 12:16:49.125946 55747 net.cpp:408] slice_fc8 -> fc8_target
I1008 12:16:49.125969 55747 net.cpp:150] Setting up slice_fc8
I1008 12:16:49.125974 55747 net.cpp:157] Top shape: 64 31 (1984)
I1008 12:16:49.125978 55747 net.cpp:157] Top shape: 64 31 (1984)
I1008 12:16:49.125980 55747 net.cpp:165] Memory required for data: 963601920
I1008 12:16:49.125983 55747 layer_factory.hpp:77] Creating layer silence
I1008 12:16:49.125989 55747 net.cpp:100] Creating Layer silence
I1008 12:16:49.125993 55747 net.cpp:434] silence <- fc8_target
I1008 12:16:49.125998 55747 net.cpp:150] Setting up silence
I1008 12:16:49.126000 55747 net.cpp:165] Memory required for data: 963601920
…
I1008 12:16:49.126104 55747 net.cpp:150] Setting up softmax_loss
I1008 12:16:49.126117 55747 net.cpp:157] Top shape: (1)
I1008 12:16:49.126121 55747 net.cpp:160]     with loss weight 1
I1008 12:16:49.126147 55747 net.cpp:165] Memory required for data: 963601924
I1008 12:16:49.126150 55747 layer_factory.hpp:77] Creating layer fc8_softmax
I1008 12:16:49.126163 55747 net.cpp:100] Creating Layer fc8_softmax
I1008 12:16:49.126166 55747 net.cpp:434] fc8_softmax <- fc8_fc8_new_0_split_1
I1008 12:16:49.126173 55747 net.cpp:408] fc8_softmax -> fc8_softmax
I1008 12:16:49.126214 55747 net.cpp:150] Setting up fc8_softmax
I1008 12:16:49.126220 55747 net.cpp:157] Top shape: 128 31 (3968)
I1008 12:16:49.126222 55747 net.cpp:165] Memory required for data: 963617796
I1008 12:16:49.126226 55747 layer_factory.hpp:77] Creating layer slice_softmax
I1008 12:16:49.126233 55747 net.cpp:100] Creating Layer slice_softmax
I1008 12:16:49.126236 55747 net.cpp:434] slice_softmax <- fc8_softmax
I1008 12:16:49.126241 55747 net.cpp:408] slice_softmax -> source_softmax
I1008 12:16:49.126247 55747 net.cpp:408] slice_softmax -> target_softmax
I1008 12:16:49.126271 55747 net.cpp:150] Setting up slice_softmax
I1008 12:16:49.126276 55747 net.cpp:157] Top shape: 64 31 (1984)
I1008 12:16:49.126279 55747 net.cpp:157] Top shape: 64 31 (1984)
I1008 12:16:49.126282 55747 net.cpp:165] Memory required for data: 963633668
I1008 12:16:49.126286 55747 layer_factory.hpp:77] Creating layer source_softmax_slice_softmax_0_split
I1008 12:16:49.126289 55747 net.cpp:100] Creating Layer source_softmax_slice_softmax_0_split
I1008 12:16:49.126293 55747 net.cpp:434] source_softmax_slice_softmax_0_split <- source_softmax
I1008 12:16:49.126297 55747 net.cpp:408] source_softmax_slice_softmax_0_split -> source_softmax_slice_softmax_0_split_0
I1008 12:16:49.126302 55747 net.cpp:408] source_softmax_slice_softmax_0_split -> source_softmax_slice_softmax_0_split_1
I1008 12:16:49.126307 55747 net.cpp:408] source_softmax_slice_softmax_0_split -> source_softmax_slice_softmax_0_split_2
I1008 12:16:49.126340 55747 net.cpp:150] Setting up source_softmax_slice_softmax_0_split
I1008 12:16:49.126346 55747 net.cpp:157] Top shape: 64 31 (1984)
I1008 12:16:49.126350 55747 net.cpp:157] Top shape: 64 31 (1984)
I1008 12:16:49.126353 55747 net.cpp:157] Top shape: 64 31 (1984)
I1008 12:16:49.126356 55747 net.cpp:165] Memory required for data: 963657476
I1008 12:16:49.126360 55747 layer_factory.hpp:77] Creating layer target_softmax_slice_softmax_1_split
I1008 12:16:49.126366 55747 net.cpp:100] Creating Layer target_softmax_slice_softmax_1_split
I1008 12:16:49.126369 55747 net.cpp:434] target_softmax_slice_softmax_1_split <- target_softmax
I1008 12:16:49.126374 55747 net.cpp:408] target_softmax_slice_softmax_1_split -> target_softmax_slice_softmax_1_split_0
I1008 12:16:49.126379 55747 net.cpp:408] target_softmax_slice_softmax_1_split -> target_softmax_slice_softmax_1_split_1
I1008 12:16:49.126384 55747 net.cpp:408] target_softmax_slice_softmax_1_split -> target_softmax_slice_softmax_1_split_2
I1008 12:16:49.126413 55747 net.cpp:150] Setting up target_softmax_slice_softmax_1_split
I1008 12:16:49.126418 55747 net.cpp:157] Top shape: 64 31 (1984)
I1008 12:16:49.126422 55747 net.cpp:157] Top shape: 64 31 (1984)
I1008 12:16:49.126426 55747 net.cpp:157] Top shape: 64 31 (1984)
I1008 12:16:49.126428 55747 net.cpp:165] Memory required for data: 963681284
I1008 12:16:49.126431 55747 layer_factory.hpp:77] Creating layer jmmd_loss_fc7
I1008 12:16:49.126437 55747 net.cpp:100] Creating Layer jmmd_loss_fc7
I1008 12:16:49.126441 55747 net.cpp:434] jmmd_loss_fc7 <- fc7_source
I1008 12:16:49.126444 55747 net.cpp:434] jmmd_loss_fc7 <- fc7_target
I1008 12:16:49.126447 55747 net.cpp:434] jmmd_loss_fc7 <- source_softmax_slice_softmax_0_split_0
…
I1008 12:16:49.127993 55747 net.cpp:322] The NetState phase (1) differed from the phase (0) specified by a rule in layer silence_loss_value
I1008 12:16:49.128201 55747 net.cpp:58] Initializing net from parameters: 
name: "amazon_to_webcam"
state {
  phase: TEST
}
layer {
  name: "test_data"
  type: "ImageData"
  top: "data"
  top: "label"
  include {
    phase: TEST
  }
  transform_param {
    mirror: false
    crop_size: 227
    mean_file: "./data/ilsvrc12/imagenet_mean.binaryproto"
  }
  image_data_param {
    source: "./data/office/amazon_list.txt"
    batch_size: 1
    shuffle: false
    new_height: 256
    new_width: 256
  }
}
layer {
  name: "conv1"
  type: "Convolution"
  bottom: "data"
  top: "conv1"
  param {
    lr_mult: 0
    decay_mult: 1
  }
  param {
    lr_mult: 0
    decay_mult: 0
  }
  convolution_param {
    num_output: 96
    kernel_size: 11
    stride: 4
    weight_filler {
      type: "gaussian"
      std: 0.01
    }
    bias_filler {
      type: "constant"
      value: 0
    }
  }
}
layer {
  name: "relu1"
  type: "ReLU"
  bottom: "conv1"
  top: "conv1"
}
layer {
  name: "pool1"
  type: "Pooling"
  bottom: "conv1"
  top: "pool1"
  pooling_param {
    pool: MAX
    kernel_size: 3
    stride: 2
  }
}
layer {
  name: "norm1"
  type: "LRN"
  bottom: "pool1"
  top: "norm1"
  lrn_param {
    local_size: 5
    alpha: 0.0001
    beta: 0.75
  }
}
layer {
  name: "conv2"
  type: "Convolution"
  bottom: "norm1"
  top: "conv2"
  param {
    lr_mult: 0
    decay_mult: 1
  }
  param {
    lr_mult: 0
    decay_mult: 0
  }
  convolution_param {
    num_output: 256
    pad: 2
    kernel_size: 5
    group: 2
    weight_filler {
      type: "gaussian"
      std: 0.01
    }
    bias_filler {
      type: "constant"
      value: 1
    }
  }
}
layer {
  name: "relu2"
  type: "ReLU"
  bottom: "conv2"
  top: "conv2"
}
layer {
  name: "pool2"
  type: "Pooling"
  bottom: "conv2"
  top: "pool2"
  pooling_param {
    pool: MAX
    kernel_size: 3
    stride: 2
  }
}
layer {
  name: "norm2"
  type: "LRN"
  bottom: "pool2"
  top: "norm2"
  lrn_param {
    local_size: 5
    alpha: 0.0001
    beta: 0.75
  }
}
layer {
  name: "conv3"
  type: "Convolution"
  bottom: "norm2"
  top: "conv3"
  param {
    lr_mult: 0.1
    decay_mult: 1
  }
  param {
    lr_mult: 0.2
    decay_mult: 0
  }
  convolution_param {
    num_output: 384
    pad: 1
    kernel_size: 3
    weight_filler {
      type: "gaussian"
      std: 0.01
    }
    bias_filler {
      type: "constant"
      value: 0
    }
  }
}
layer {
  name: "relu3"
  type: "ReLU"
  bottom: "conv3"
  top: "conv3"
}
layer {
  name: "conv4"
  type: "Convolution"
  bottom: "conv3"
  top: "conv4"
  param {
    lr_mult: 0.1
    decay_mult: 1
  }
  param {
    lr_mult: 0.2
    decay_mult: 0
  }
  convolution_param {
    num_output: 384
    pad: 1
    kernel_size: 3
    group: 2
    weight_filler {
      type: "gaussian"
      std: 0.01
    }
    bias_filler {
      type: "constant"
      value: 1
    }
  }
}
layer {
  name: "relu4"
  type: "ReLU"
  bottom: "conv4"
  top: "conv4"
}
layer {
  name: "conv5"
  type: "Convolution"
  bottom: "conv4"
  top: "conv5"
  param {
    lr_mult: 0.1
    decay_mult: 1
  }
  param {
    lr_mult: 0.2
    decay_mult: 0
  }
  convolution_param {
    num_output: 256
    pad: 1
    kernel_size: 3
    group: 2
    weight_filler {
      type: "gaussian"
      std: 0.01
    }
    bias_filler {
      type: "constant"
      value: 1
    }
  }
}
layer {
  name: "relu5"
  type: "ReLU"
  bottom: "conv5"
  top: "conv5"
}
layer {
  name: "pool5"
  type: "Pooling"
  bottom: "conv5"
  top: "pool5"
  pooling_param {
    pool: MAX
    kernel_size: 3
    stride: 2
  }
}
layer {
  name: "fc6"
  type: "InnerProduct"
  bottom: "pool5"
  top: "fc6"
  param {
    lr_mult: 0.1
    decay_mult: 1
  }
  param {
    lr_mult: 0.2
    decay_mult: 0
  }
  inner_product_param {
    num_output: 4096
    weight_filler {
      type: "gaussian"
      std: 0.005
    }
    bias_filler {
      type: "constant"
      value: 1
    }
  }
}
layer {
  name: "relu6"
  type: "ReLU"
  bottom: "fc6"
  top: "fc6"
}
layer {
  name: "drop6"
  type: "Dropout"
  bottom: "fc6"
  top: "fc6"
  dropout_param {
    dropout_ratio: 0.5
  }
}
layer {
  name: "fc7"
  type: "InnerProduct"
  bottom: "fc6"
  top: "fc7"
  param {
    lr_mult: 0.1
    decay_mult: 1
  }
  param {
    lr_mult: 0.2
    decay_mult: 0
  }
  inner_product_param {
    num_output: 4096
    weight_filler {
      type: "gaussian"
      std: 0.005
    }
    bias_filler {
      type: "constant"
      value: 1
    }
  }
}
layer {
  name: "relu7"
  type: "ReLU"
  bottom: "fc7"
  top: "fc7"
}
layer {
  name: "drop7"
  type: "Dropout"
  bottom: "fc7"
  top: "fc7"
  dropout_param {
    dropout_ratio: 0.5
  }
}
layer {
  name: "fc8_new"
  type: "InnerProduct"
  bottom: "fc7"
  top: "fc8"
  param {
    lr_mult: 1
    decay_mult: 1
  }
  param {
    lr_mult: 2
    decay_mult: 0
  }
  inner_product_param {
    num_output: 31
    weight_filler {
      type: "gaussian"
      std: 0.01
    }
    bias_filler {
      type: "constant"
      value: 0
    }
  }
}
layer {
  name: "accuracy"
  type: "Accuracy"
  bottom: "fc8"
  bottom: "label"
  top: "accuracy"
  include {
    phase: TEST
  }
}
I1008 12:16:49.128271 55747 layer_factory.hpp:77] Creating layer test_data
I1008 12:16:49.128288 55747 net.cpp:100] Creating Layer test_data
I1008 12:16:49.128293 55747 net.cpp:408] test_data -> data
I1008 12:16:49.128300 55747 net.cpp:408] test_data -> label
I1008 12:16:49.128306 55747 data_transformer.cpp:25] Loading mean file from: ./data/ilsvrc12/imagenet_mean.binaryproto
I1008 12:16:49.131022 55747 image_data_layer.cpp:38] Opening file ./data/office/amazon_list.txt
I1008 12:16:49.131741 55747 image_data_layer.cpp:58] A total of 2817 images.
I1008 12:16:49.132778 55747 image_data_layer.cpp:85] output data size: 1,3,227,227
I1008 12:16:49.135449 55747 net.cpp:150] Setting up test_data
I1008 12:16:49.135466 55747 net.cpp:157] Top shape: 1 3 227 227 (154587)
I1008 12:16:49.135470 55747 net.cpp:157] Top shape: 1 (1)
I1008 12:16:49.135473 55747 net.cpp:165] Memory required for data: 618352
I1008 12:16:49.135478 55747 layer_factory.hpp:77] Creating layer conv1
I1008 12:16:49.135493 55747 net.cpp:100] Creating Layer conv1
I1008 12:16:49.135514 55747 net.cpp:434] conv1 <- data
I1008 12:16:49.135520 55747 net.cpp:408] conv1 -> conv1
I1008 12:16:49.136570 55747 net.cpp:150] Setting up conv1
I1008 12:16:49.136580 55747 net.cpp:157] Top shape: 1 96 55 55 (290400)
I1008 12:16:49.136584 55747 net.cpp:165] Memory required for data: 1779952
I1008 12:16:49.136590 55747 layer_factory.hpp:77] Creating layer relu1
I1008 12:16:49.136596 55747 net.cpp:100] Creating Layer relu1
I1008 12:16:49.136600 55747 net.cpp:434] relu1 <- conv1
I1008 12:16:49.136605 55747 net.cpp:395] relu1 -> conv1 (in-place)
I1008 12:16:49.136610 55747 net.cpp:150] Setting up relu1
I1008 12:16:49.136613 55747 net.cpp:157] Top shape: 1 96 55 55 (290400)
I1008 12:16:49.136616 55747 net.cpp:165] Memory required for data: 2941552
I1008 12:16:49.136620 55747 layer_factory.hpp:77] Creating layer pool1
I1008 12:16:49.136624 55747 net.cpp:100] Creating Layer pool1
I1008 12:16:49.136626 55747 net.cpp:434] pool1 <- conv1
I1008 12:16:49.136631 55747 net.cpp:408] pool1 -> pool1
I1008 12:16:49.136657 55747 net.cpp:150] Setting up pool1
I1008 12:16:49.136663 55747 net.cpp:157] Top shape: 1 96 27 27 (69984)
I1008 12:16:49.136665 55747 net.cpp:165] Memory required for data: 3221488
I1008 12:16:49.136669 55747 layer_factory.hpp:77] Creating layer norm1
I1008 12:16:49.136682 55747 net.cpp:100] Creating Layer norm1
I1008 12:16:49.136693 55747 net.cpp:434] norm1 <- pool1
I1008 12:16:49.136698 55747 net.cpp:408] norm1 -> norm1
I1008 12:16:49.136723 55747 net.cpp:150] Setting up norm1
I1008 12:16:49.136729 55747 net.cpp:157] Top shape: 1 96 27 27 (69984)
I1008 12:16:49.136731 55747 net.cpp:165] Memory required for data: 3501424
I1008 12:16:49.136734 55747 layer_factory.hpp:77] Creating layer conv2
I1008 12:16:49.136741 55747 net.cpp:100] Creating Layer conv2
I1008 12:16:49.136744 55747 net.cpp:434] conv2 <- norm1
I1008 12:16:49.136749 55747 net.cpp:408] conv2 -> conv2
I1008 12:16:49.142769 55747 net.cpp:150] Setting up conv2
I1008 12:16:49.142778 55747 net.cpp:157] Top shape: 1 256 27 27 (186624)
I1008 12:16:49.142781 55747 net.cpp:165] Memory required for data: 4247920
I1008 12:16:49.142788 55747 layer_factory.hpp:77] Creating layer relu2
I1008 12:16:49.142792 55747 net.cpp:100] Creating Layer relu2
I1008 12:16:49.142796 55747 net.cpp:434] relu2 <- conv2
I1008 12:16:49.142801 55747 net.cpp:395] relu2 -> conv2 (in-place)
I1008 12:16:49.142805 55747 net.cpp:150] Setting up relu2
I1008 12:16:49.142809 55747 net.cpp:157] Top shape: 1 256 27 27 (186624)
I1008 12:16:49.142812 55747 net.cpp:165] Memory required for data: 4994416
I1008 12:16:49.142815 55747 layer_factory.hpp:77] Creating layer pool2
I1008 12:16:49.142819 55747 net.cpp:100] Creating Layer pool2
I1008 12:16:49.142822 55747 net.cpp:434] pool2 <- conv2
I1008 12:16:49.142827 55747 net.cpp:408] pool2 -> pool2
I1008 12:16:49.142853 55747 net.cpp:150] Setting up pool2
I1008 12:16:49.142858 55747 net.cpp:157] Top shape: 1 256 13 13 (43264)
I1008 12:16:49.142861 55747 net.cpp:165] Memory required for data: 5167472
I1008 12:16:49.142864 55747 layer_factory.hpp:77] Creating layer norm2
I1008 12:16:49.142869 55747 net.cpp:100] Creating Layer norm2
I1008 12:16:49.142873 55747 net.cpp:434] norm2 <- pool2
I1008 12:16:49.142876 55747 net.cpp:408] norm2 -> norm2
I1008 12:16:49.142899 55747 net.cpp:150] Setting up norm2
I1008 12:16:49.142902 55747 net.cpp:157] Top shape: 1 256 13 13 (43264)
I1008 12:16:49.142905 55747 net.cpp:165] Memory required for data: 5340528
I1008 12:16:49.142909 55747 layer_factory.hpp:77] Creating layer conv3
I1008 12:16:49.142915 55747 net.cpp:100] Creating Layer conv3
I1008 12:16:49.142918 55747 net.cpp:434] conv3 <- norm2
I1008 12:16:49.142922 55747 net.cpp:408] conv3 -> conv3
I1008 12:16:49.161905 55747 net.cpp:150] Setting up conv3
I1008 12:16:49.161919 55747 net.cpp:157] Top shape: 1 384 13 13 (64896)
I1008 12:16:49.161923 55747 net.cpp:165] Memory required for data: 5600112
I1008 12:16:49.161931 55747 layer_factory.hpp:77] Creating layer relu3
I1008 12:16:49.161936 55747 net.cpp:100] Creating Layer relu3
I1008 12:16:49.161939 55747 net.cpp:434] relu3 <- conv3
I1008 12:16:49.161944 55747 net.cpp:395] relu3 -> conv3 (in-place)
I1008 12:16:49.161949 55747 net.cpp:150] Setting up relu3
I1008 12:16:49.161953 55747 net.cpp:157] Top shape: 1 384 13 13 (64896)
I1008 12:16:49.161957 55747 net.cpp:165] Memory required for data: 5859696
I1008 12:16:49.161959 55747 layer_factory.hpp:77] Creating layer conv4
I1008 12:16:49.161967 55747 net.cpp:100] Creating Layer conv4
I1008 12:16:49.161969 55747 net.cpp:434] conv4 <- conv3
I1008 12:16:49.161973 55747 net.cpp:408] conv4 -> conv4
I1008 12:16:49.176357 55747 net.cpp:150] Setting up conv4
I1008 12:16:49.176370 55747 net.cpp:157] Top shape: 1 384 13 13 (64896)
I1008 12:16:49.176373 55747 net.cpp:165] Memory required for data: 6119280
I1008 12:16:49.176379 55747 layer_factory.hpp:77] Creating layer relu4
I1008 12:16:49.176385 55747 net.cpp:100] Creating Layer relu4
I1008 12:16:49.176388 55747 net.cpp:434] relu4 <- conv4
I1008 12:16:49.176393 55747 net.cpp:395] relu4 -> conv4 (in-place)
I1008 12:16:49.176399 55747 net.cpp:150] Setting up relu4
I1008 12:16:49.176403 55747 net.cpp:157] Top shape: 1 384 13 13 (64896)
I1008 12:16:49.176405 55747 net.cpp:165] Memory required for data: 6378864
I1008 12:16:49.176409 55747 layer_factory.hpp:77] Creating layer conv5
I1008 12:16:49.176432 55747 net.cpp:100] Creating Layer conv5
I1008 12:16:49.176443 55747 net.cpp:434] conv5 <- conv4
I1008 12:16:49.176448 55747 net.cpp:408] conv5 -> conv5
I1008 12:16:49.186296 55747 net.cpp:150] Setting up conv5
I1008 12:16:49.186311 55747 net.cpp:157] Top shape: 1 256 13 13 (43264)
I1008 12:16:49.186313 55747 net.cpp:165] Memory required for data: 6551920
I1008 12:16:49.186321 55747 layer_factory.hpp:77] Creating layer relu5
I1008 12:16:49.186327 55747 net.cpp:100] Creating Layer relu5
I1008 12:16:49.186331 55747 net.cpp:434] relu5 <- conv5
I1008 12:16:49.186336 55747 net.cpp:395] relu5 -> conv5 (in-place)
I1008 12:16:49.186342 55747 net.cpp:150] Setting up relu5
I1008 12:16:49.186345 55747 net.cpp:157] Top shape: 1 256 13 13 (43264)
I1008 12:16:49.186348 55747 net.cpp:165] Memory required for data: 6724976
I1008 12:16:49.186352 55747 layer_factory.hpp:77] Creating layer pool5
I1008 12:16:49.186355 55747 net.cpp:100] Creating Layer pool5
I1008 12:16:49.186358 55747 net.cpp:434] pool5 <- conv5
I1008 12:16:49.186363 55747 net.cpp:408] pool5 -> pool5
I1008 12:16:49.186390 55747 net.cpp:150] Setting up pool5
I1008 12:16:49.186395 55747 net.cpp:157] Top shape: 1 256 6 6 (9216)
I1008 12:16:49.186398 55747 net.cpp:165] Memory required for data: 6761840
I1008 12:16:49.186401 55747 layer_factory.hpp:77] Creating layer fc6
I1008 12:16:49.186409 55747 net.cpp:100] Creating Layer fc6
I1008 12:16:49.186413 55747 net.cpp:434] fc6 <- pool5
I1008 12:16:49.186416 55747 net.cpp:408] fc6 -> fc6
I1008 12:16:50.000532 55747 net.cpp:150] Setting up fc6
I1008 12:16:50.000568 55747 net.cpp:157] Top shape: 1 4096 (4096)
I1008 12:16:50.000572 55747 net.cpp:165] Memory required for data: 6778224
I1008 12:16:50.000581 55747 layer_factory.hpp:77] Creating layer relu6
I1008 12:16:50.000592 55747 net.cpp:100] Creating Layer relu6
I1008 12:16:50.000597 55747 net.cpp:434] relu6 <- fc6
I1008 12:16:50.000603 55747 net.cpp:395] relu6 -> fc6 (in-place)
I1008 12:16:50.000613 55747 net.cpp:150] Setting up relu6
I1008 12:16:50.000618 55747 net.cpp:157] Top shape: 1 4096 (4096)
I1008 12:16:50.000622 55747 net.cpp:165] Memory required for data: 6794608
I1008 12:16:50.000624 55747 layer_factory.hpp:77] Creating layer drop6
I1008 12:16:50.000632 55747 net.cpp:100] Creating Layer drop6
I1008 12:16:50.000635 55747 net.cpp:434] drop6 <- fc6
I1008 12:16:50.000639 55747 net.cpp:395] drop6 -> fc6 (in-place)
I1008 12:16:50.000659 55747 net.cpp:150] Setting up drop6
I1008 12:16:50.000664 55747 net.cpp:157] Top shape: 1 4096 (4096)
I1008 12:16:50.000668 55747 net.cpp:165] Memory required for data: 6810992
I1008 12:16:50.000670 55747 layer_factory.hpp:77] Creating layer fc7
I1008 12:16:50.000679 55747 net.cpp:100] Creating Layer fc7
I1008 12:16:50.000682 55747 net.cpp:434] fc7 <- fc6
I1008 12:16:50.000689 55747 net.cpp:408] fc7 -> fc7
I1008 12:16:50.363010 55747 net.cpp:150] Setting up fc7
I1008 12:16:50.363045 55747 net.cpp:157] Top shape: 1 4096 (4096)
I1008 12:16:50.363049 55747 net.cpp:165] Memory required for data: 6827376
I1008 12:16:50.363059 55747 layer_factory.hpp:77] Creating layer relu7
I1008 12:16:50.363070 55747 net.cpp:100] Creating Layer relu7
I1008 12:16:50.363075 55747 net.cpp:434] relu7 <- fc7
I1008 12:16:50.363081 55747 net.cpp:395] relu7 -> fc7 (in-place)
I1008 12:16:50.363092 55747 net.cpp:150] Setting up relu7
I1008 12:16:50.363096 55747 net.cpp:157] Top shape: 1 4096 (4096)
I1008 12:16:50.363098 55747 net.cpp:165] Memory required for data: 6843760
I1008 12:16:50.363101 55747 layer_factory.hpp:77] Creating layer drop7
I1008 12:16:50.363109 55747 net.cpp:100] Creating Layer drop7
I1008 12:16:50.363112 55747 net.cpp:434] drop7 <- fc7
I1008 12:16:50.363117 55747 net.cpp:395] drop7 -> fc7 (in-place)
I1008 12:16:50.363138 55747 net.cpp:150] Setting up drop7
I1008 12:16:50.363143 55747 net.cpp:157] Top shape: 1 4096 (4096)
I1008 12:16:50.363173 55747 net.cpp:165] Memory required for data: 6860144
I1008 12:16:50.363178 55747 layer_factory.hpp:77] Creating layer fc8_new
I1008 12:16:50.363204 55747 net.cpp:100] Creating Layer fc8_new
I1008 12:16:50.363225 55747 net.cpp:434] fc8_new <- fc7
I1008 12:16:50.363232 55747 net.cpp:408] fc8_new -> fc8
I1008 12:16:50.365877 55747 net.cpp:150] Setting up fc8_new
I1008 12:16:50.365885 55747 net.cpp:157] Top shape: 1 31 (31)
I1008 12:16:50.365888 55747 net.cpp:165] Memory required for data: 6860268
I1008 12:16:50.365892 55747 layer_factory.hpp:77] Creating layer accuracy
I1008 12:16:50.365900 55747 net.cpp:100] Creating Layer accuracy
I1008 12:16:50.365903 55747 net.cpp:434] accuracy <- fc8
I1008 12:16:50.365907 55747 net.cpp:434] accuracy <- label
I1008 12:16:50.365913 55747 net.cpp:408] accuracy -> accuracy
…
