…
    mean_file: "./data/ilsvrc12/imagenet_mean.binaryproto"
  }
  image_data_param {
    source: "./data/office/amazon_list.txt"
    batch_size: 64
    shuffle: true
    new_height: 256
    new_width: 256
  }
}
layer {
  name: "target_data"
  type: "ImageData"
  top: "target_data"
  top: "target_label"
  include {
    phase: TRAIN
  }
  transform_param {
    mirror: true
    crop_size: 227
    mean_file: "./data/ilsvrc12/imagenet_mean.binaryproto"
  }
  image_data_param {
    source: "./data/office/webcam_list.txt"
    batch_size: 64
    shuffle: true
    new_height: 256
    new_width: 256
  }
}
layer {
  name: "target_label_silence"
  type: "Silence"
  bottom: "target_label"
  include {
    phase: TRAIN
  }
}
layer {
  name: "data"
  type: "Concat"
  bottom: "source_data"
  bottom: "target_data"
  top: "data"
  include {
    phase: TRAIN
  }
  concat_param {
    axis: 0
  }
}
layer {
  name: "conv1"
  type: "Convolution"
  bottom: "data"
  top: "conv1"
  param {
    lr_mult: 0
    decay_mult: 1
  }
  param {
    lr_mult: 0
    decay_mult: 0
  }
  convolution_param {
    num_output: 96
    kernel_size: 11
    stride: 4
    weight_filler {
      type: "gaussian"
      std: 0.01
    }
    bias_filler {
      type: "constant"
      value: 0
    }
  }
}
layer {
  name: "relu1"
  type: "ReLU"
  bottom: "conv1"
  top: "conv1"
}
layer {
  name: "pool1"
  type: "Pooling"
  bottom: "conv1"
  top: "pool1"
  pooling_param {
    pool: MAX
    kernel_size: 3
    stride: 2
  }
}
layer {
  name: "norm1"
  type: "LRN"
  bottom: "pool1"
  top: "norm1"
  lrn_param {
    local_size: 5
    alpha: 0.0001
    beta: 0.75
  }
}
layer {
  name: "conv2"
  type: "Convolution"
  bottom: "norm1"
  top: "conv2"
  param {
    lr_mult: 0
    decay_mult: 1
  }
  param {
    lr_mult: 0
    decay_mult: 0
  }
  convolution_param {
    num_output: 256
    pad: 2
    kernel_size: 5
    group: 2
    weight_filler {
      type: "gaussian"
      std: 0.01
    }
    bias_filler {
      type: "constant"
      value: 1
    }
  }
}
layer {
  name: "relu2"
  type: "ReLU"
  bottom: "conv2"
  top: "conv2"
}
layer {
  name: "pool2"
  type: "Pooling"
  bottom: "conv2"
  top: "pool2"
  pooling_param {
    pool: MAX
    kernel_size: 3
    stride: 2
  }
}
layer {
  name: "norm2"
  type: "LRN"
  bottom: "pool2"
  top: "norm2"
  lrn_param {
    local_size: 5
    alpha: 0.0001
    beta: 0.75
  }
}
layer {
  name: "conv3"
  type: "Convolution"
  bottom: "norm2"
  top: "conv3"
  param {
    lr_mult: 0.1
    decay_mult: 1
  }
  param {
    lr_mult: 0.2
    decay_mult: 0
  }
  convolution_param {
    num_output: 384
    pad: 1
    kernel_size: 3
    weight_filler {
      type: "gaussian"
      std: 0.01
    }
    bias_filler {
      type: "constant"
      value: 0
    }
  }
}
layer {
  name: "relu3"
  type: "ReLU"
  bottom: "conv3"
  top: "conv3"
}
layer {
  name: "conv4"
  type: "Convolution"
  bottom: "conv3"
  top: "conv4"
  param {
    lr_mult: 0.1
    decay_mult: 1
  }
  param {
    lr_mult: 0.2
    decay_mult: 0
  }
  convolution_param {
    num_output: 384
    pad: 1
    kernel_size: 3
    group: 2
    weight_filler {
      type: "gaussian"
      std: 0.01
    }
    bias_filler {
      type: "constant"
      value: 1
    }
  }
}
layer {
  name: "relu4"
  type: "ReLU"
  bottom: "conv4"
  top: "conv4"
}
layer {
  name: "conv5"
  type: "Convolution"
  bottom: "conv4"
  top: "conv5"
  param {
    lr_mult: 0.1
    decay_mult: 1
  }
  param {
    lr_mult: 0.2
    decay_mult: 0
  }
  convolution_param {
    num_output: 256
    pad: 1
    kernel_size: 3
    group: 2
    weight_filler {
      type: "gaussian"
      std: 0.01
    }
    bias_filler {
      type: "constant"
      value: 1
    }
  }
}
layer {
  name: "relu5"
  type: "ReLU"
  bottom: "conv5"
  top: "conv5"
}
layer {
  name: "pool5"
  type: "Pooling"
  bottom: "conv5"
  top: "pool5"
  pooling_param {
    pool: MAX
    kernel_size: 3
    stride: 2
  }
}
layer {
  name: "fc6"
  type: "InnerProduct"
  bottom: "pool5"
  top: "fc6"
  param {
    lr_mult: 0.1
    decay_mult: 1
  }
  param {
    lr_mult: 0.2
    decay_mult: 0
  }
  inner_product_param {
    num_output: 4096
    weight_filler {
      type: "gaussian"
      std: 0.005
    }
    bias_filler {
      type: "constant"
      value: 1
    }
  }
}
layer {
  name: "relu6"
  type: "ReLU"
  bottom: "fc6"
  top: "fc6"
}
layer {
  name: "drop6"
  type: "Dropout"
  bottom: "fc6"
  top: "fc6"
  dropout_param {
    dropout_ratio: 0.5
  }
}
layer {
  name: "fc7"
  type: "InnerProduct"
  bottom: "fc6"
  top: "fc7"
  param {
    lr_mult: 0.1
    decay_mult: 1
  }
  param {
    lr_mult: 0.2
    decay_mult: 0
  }
  inner_product_param {
    num_output: 4096
    weight_filler {
      type: "gaussian"
      std: 0.005
    }
    bias_filler {
      type: "constant"
      value: 1
    }
  }
}
layer {
  name: "relu7"
  type: "ReLU"
  bottom: "fc7"
  top: "fc7"
}
layer {
  name: "drop7"
  type: "Dropout"
  bottom: "fc7"
  top: "fc7"
  dropout_param {
    dropout_ratio: 0.5
  }
}
layer {
  name: "fc8_new"
  type: "InnerProduct"
  bottom: "fc7"
  top: "fc8"
  param {
    lr_mult: 1
    decay_mult: 1
  }
  param {
    lr_mult: 2
    decay_mult: 0
  }
  inner_product_param {
    num_output: 31
    weight_filler {
      type: "gaussian"
      std: 0.01
    }
    bias_filler {
      type: "constant"
      value: 0
    }
  }
}
layer {
  name: "slice_fc8"
  type: "Slice"
  bottom: "fc8"
  top: "fc8_source"
  top: "fc8_target"
  include {
    phase: TRAIN
  }
  slice_param {
    slice_dim: 0
  }
}
layer {
  name: "silence"
  type: "Silence"
  bottom: "fc8_target"
  include {
    phase: TRAIN
  }
}
layer {
  name: "softmax_loss"
  type: "SoftmaxWithLoss"
  bottom: "fc8_source"
  bottom: "source_label"
  top: "softmax_loss"
  include {
    phase: TRAIN
  }
}
layer {
  name: "fc8_softmax"
  type: "Softmax"
  bottom: "fc8"
  top: "fc8_softmax"
  include {
    phase: TRAIN
  }
}
layer {
  name: "slice_softmax"
  type: "Slice"
  bottom: "fc8_softmax"
  top: "source_softmax"
  top: "target_softmax"
  include {
    phase: TRAIN
  }
  slice_param {
    slice_dim: 0
  }
}
layer {
  name: "jmmd_loss"
  type: "JMMDLoss"
  bottom: "source_softmax"
  bottom: "target_softmax"
  bottom: "source_softmax"
  bottom: "target_softmax"
  top: "jmmd_loss"
  loss_weight: 0.3
  include {
    phase: TRAIN
  }
}
layer {
  name: "silence_loss_value"
  type: "Silence"
  bottom: "jmmd_loss"
  include {
    phase: TRAIN
  }
}
I1007 04:49:51.250339 12755 layer_factory.hpp:77] Creating layer source_data
I1007 04:49:51.250370 12755 net.cpp:100] Creating Layer source_data
I1007 04:49:51.250378 12755 net.cpp:408] source_data -> source_data
I1007 04:49:51.250398 12755 net.cpp:408] source_data -> source_label
I1007 04:49:51.250411 12755 data_transformer.cpp:25] Loading mean file from: ./data/ilsvrc12/imagenet_mean.binaryproto
I1007 04:49:51.275234 12755 image_data_layer.cpp:38] Opening file ./data/office/amazon_list.txt
I1007 04:49:51.276010 12755 image_data_layer.cpp:53] Shuffling data
I1007 04:49:51.276192 12755 image_data_layer.cpp:58] A total of 2817 images.
I1007 04:49:51.765592 12755 image_data_layer.cpp:85] output data size: 64,3,227,227
I1007 04:49:51.848837 12755 net.cpp:150] Setting up source_data
I1007 04:49:51.848877 12755 net.cpp:157] Top shape: 64 3 227 227 (9893568)
I1007 04:49:51.848883 12755 net.cpp:157] Top shape: 64 (64)
I1007 04:49:51.848886 12755 net.cpp:165] Memory required for data: 39574528
I1007 04:49:51.848898 12755 layer_factory.hpp:77] Creating layer target_data
I1007 04:49:51.848929 12755 net.cpp:100] Creating Layer target_data
I1007 04:49:51.848937 12755 net.cpp:408] target_data -> target_data
I1007 04:49:51.848951 12755 net.cpp:408] target_data -> target_label
I1007 04:49:51.848960 12755 data_transformer.cpp:25] Loading mean file from: ./data/ilsvrc12/imagenet_mean.binaryproto
I1007 04:49:51.850128 12755 image_data_layer.cpp:38] Opening file ./data/office/webcam_list.txt
I1007 04:49:51.850360 12755 image_data_layer.cpp:53] Shuffling data
I1007 04:49:51.850414 12755 image_data_layer.cpp:58] A total of 795 images.
I1007 04:49:51.852506 12755 image_data_layer.cpp:85] output data size: 64,3,227,227
I1007 04:49:51.936256 12755 net.cpp:150] Setting up target_data
I1007 04:49:51.936302 12755 net.cpp:157] Top shape: 64 3 227 227 (9893568)
I1007 04:49:51.936308 12755 net.cpp:157] Top shape: 64 (64)
I1007 04:49:51.936311 12755 net.cpp:165] Memory required for data: 79149056
I1007 04:49:51.936345 12755 layer_factory.hpp:77] Creating layer target_label_silence
I1007 04:49:51.936408 12755 net.cpp:100] Creating Layer target_label_silence
I1007 04:49:51.936417 12755 net.cpp:434] target_label_silence <- target_label
I1007 04:49:51.936432 12755 net.cpp:150] Setting up target_label_silence
I1007 04:49:51.936436 12755 net.cpp:165] Memory required for data: 79149056
I1007 04:49:51.936440 12755 layer_factory.hpp:77] Creating layer data
I1007 04:49:51.936450 12755 net.cpp:100] Creating Layer data
I1007 04:49:51.936455 12755 net.cpp:434] data <- source_data
I1007 04:49:51.936460 12755 net.cpp:434] data <- target_data
I1007 04:49:51.936466 12755 net.cpp:408] data -> data
I1007 04:49:51.936537 12755 net.cpp:150] Setting up data
I1007 04:49:51.936547 12755 net.cpp:157] Top shape: 128 3 227 227 (19787136)
I1007 04:49:51.936550 12755 net.cpp:165] Memory required for data: 158297600
I1007 04:49:51.936554 12755 layer_factory.hpp:77] Creating layer conv1
I1007 04:49:51.936574 12755 net.cpp:100] Creating Layer conv1
I1007 04:49:51.936578 12755 net.cpp:434] conv1 <- data
I1007 04:49:51.936586 12755 net.cpp:408] conv1 -> conv1
I1007 04:49:51.940547 12755 net.cpp:150] Setting up conv1
I1007 04:49:51.940563 12755 net.cpp:157] Top shape: 128 96 55 55 (37171200)
I1007 04:49:51.940567 12755 net.cpp:165] Memory required for data: 306982400
I1007 04:49:51.940582 12755 layer_factory.hpp:77] Creating layer relu1
I1007 04:49:51.940593 12755 net.cpp:100] Creating Layer relu1
I1007 04:49:51.940598 12755 net.cpp:434] relu1 <- conv1
I1007 04:49:51.940604 12755 net.cpp:395] relu1 -> conv1 (in-place)
I1007 04:49:51.940613 12755 net.cpp:150] Setting up relu1
I1007 04:49:51.940618 12755 net.cpp:157] Top shape: 128 96 55 55 (37171200)
I1007 04:49:51.940621 12755 net.cpp:165] Memory required for data: 455667200
I1007 04:49:51.940625 12755 layer_factory.hpp:77] Creating layer pool1
I1007 04:49:51.940634 12755 net.cpp:100] Creating Layer pool1
I1007 04:49:51.940637 12755 net.cpp:434] pool1 <- conv1
I1007 04:49:51.940642 12755 net.cpp:408] pool1 -> pool1
I1007 04:49:51.940685 12755 net.cpp:150] Setting up pool1
I1007 04:49:51.940692 12755 net.cpp:157] Top shape: 128 96 27 27 (8957952)
I1007 04:49:51.940696 12755 net.cpp:165] Memory required for data: 491499008
I1007 04:49:51.940699 12755 layer_factory.hpp:77] Creating layer norm1
I1007 04:49:51.940706 12755 net.cpp:100] Creating Layer norm1
I1007 04:49:51.940711 12755 net.cpp:434] norm1 <- pool1
I1007 04:49:51.940716 12755 net.cpp:408] norm1 -> norm1
I1007 04:49:51.940745 12755 net.cpp:150] Setting up norm1
I1007 04:49:51.940771 12755 net.cpp:157] Top shape: 128 96 27 27 (8957952)
I1007 04:49:51.940791 12755 net.cpp:165] Memory required for data: 527330816
I1007 04:49:51.940795 12755 layer_factory.hpp:77] Creating layer conv2
I1007 04:49:51.940806 12755 net.cpp:100] Creating Layer conv2
I1007 04:49:51.940810 12755 net.cpp:434] conv2 <- norm1
I1007 04:49:51.940816 12755 net.cpp:408] conv2 -> conv2
I1007 04:49:51.950225 12755 net.cpp:150] Setting up conv2
I1007 04:49:51.950248 12755 net.cpp:157] Top shape: 128 256 27 27 (23887872)
I1007 04:49:51.950251 12755 net.cpp:165] Memory required for data: 622882304
I1007 04:49:51.950261 12755 layer_factory.hpp:77] Creating layer relu2
I1007 04:49:51.950270 12755 net.cpp:100] Creating Layer relu2
I1007 04:49:51.950274 12755 net.cpp:434] relu2 <- conv2
I1007 04:49:51.950281 12755 net.cpp:395] relu2 -> conv2 (in-place)
I1007 04:49:51.950289 12755 net.cpp:150] Setting up relu2
I1007 04:49:51.950294 12755 net.cpp:157] Top shape: 128 256 27 27 (23887872)
I1007 04:49:51.950297 12755 net.cpp:165] Memory required for data: 718433792
I1007 04:49:51.950301 12755 layer_factory.hpp:77] Creating layer pool2
I1007 04:49:51.950309 12755 net.cpp:100] Creating Layer pool2
I1007 04:49:51.950314 12755 net.cpp:434] pool2 <- conv2
I1007 04:49:51.950320 12755 net.cpp:408] pool2 -> pool2
I1007 04:49:51.953776 12755 net.cpp:150] Setting up pool2
I1007 04:49:51.953785 12755 net.cpp:157] Top shape: 128 256 13 13 (5537792)
I1007 04:49:51.953788 12755 net.cpp:165] Memory required for data: 740584960
I1007 04:49:51.953793 12755 layer_factory.hpp:77] Creating layer norm2
I1007 04:49:51.953799 12755 net.cpp:100] Creating Layer norm2
I1007 04:49:51.953819 12755 net.cpp:434] norm2 <- pool2
I1007 04:49:51.953825 12755 net.cpp:408] norm2 -> norm2
I1007 04:49:51.953855 12755 net.cpp:150] Setting up norm2
I1007 04:49:51.953862 12755 net.cpp:157] Top shape: 128 256 13 13 (5537792)
I1007 04:49:51.953866 12755 net.cpp:165] Memory required for data: 762736128
I1007 04:49:51.953869 12755 layer_factory.hpp:77] Creating layer conv3
I1007 04:49:51.953882 12755 net.cpp:100] Creating Layer conv3
I1007 04:49:51.953887 12755 net.cpp:434] conv3 <- norm2
I1007 04:49:51.953894 12755 net.cpp:408] conv3 -> conv3
I1007 04:49:51.974602 12755 net.cpp:150] Setting up conv3
I1007 04:49:51.974632 12755 net.cpp:157] Top shape: 128 384 13 13 (8306688)
I1007 04:49:51.974637 12755 net.cpp:165] Memory required for data: 795962880
I1007 04:49:51.974649 12755 layer_factory.hpp:77] Creating layer relu3
I1007 04:49:51.974660 12755 net.cpp:100] Creating Layer relu3
I1007 04:49:51.974665 12755 net.cpp:434] relu3 <- conv3
I1007 04:49:51.974673 12755 net.cpp:395] relu3 -> conv3 (in-place)
I1007 04:49:51.974683 12755 net.cpp:150] Setting up relu3
I1007 04:49:51.974687 12755 net.cpp:157] Top shape: 128 384 13 13 (8306688)
I1007 04:49:51.974690 12755 net.cpp:165] Memory required for data: 829189632
I1007 04:49:51.974694 12755 layer_factory.hpp:77] Creating layer conv4
I1007 04:49:51.974706 12755 net.cpp:100] Creating Layer conv4
I1007 04:49:51.974710 12755 net.cpp:434] conv4 <- conv3
I1007 04:49:51.974716 12755 net.cpp:408] conv4 -> conv4
I1007 04:49:51.990357 12755 net.cpp:150] Setting up conv4
I1007 04:49:51.990386 12755 net.cpp:157] Top shape: 128 384 13 13 (8306688)
I1007 04:49:51.990388 12755 net.cpp:165] Memory required for data: 862416384
I1007 04:49:51.990397 12755 layer_factory.hpp:77] Creating layer relu4
I1007 04:49:51.990411 12755 net.cpp:100] Creating Layer relu4
I1007 04:49:51.990416 12755 net.cpp:434] relu4 <- conv4
I1007 04:49:51.990422 12755 net.cpp:395] relu4 -> conv4 (in-place)
I1007 04:49:51.990432 12755 net.cpp:150] Setting up relu4
I1007 04:49:51.990435 12755 net.cpp:157] Top shape: 128 384 13 13 (8306688)
I1007 04:49:51.990439 12755 net.cpp:165] Memory required for data: 895643136
I1007 04:49:51.990442 12755 layer_factory.hpp:77] Creating layer conv5
I1007 04:49:51.990456 12755 net.cpp:100] Creating Layer conv5
I1007 04:49:51.990460 12755 net.cpp:434] conv5 <- conv4
I1007 04:49:51.990468 12755 net.cpp:408] conv5 -> conv5
I1007 04:49:52.001260 12755 net.cpp:150] Setting up conv5
I1007 04:49:52.001291 12755 net.cpp:157] Top shape: 128 256 13 13 (5537792)
I1007 04:49:52.001296 12755 net.cpp:165] Memory required for data: 917794304
I1007 04:49:52.001308 12755 layer_factory.hpp:77] Creating layer relu5
I1007 04:49:52.001317 12755 net.cpp:100] Creating Layer relu5
I1007 04:49:52.001322 12755 net.cpp:434] relu5 <- conv5
I1007 04:49:52.001327 12755 net.cpp:395] relu5 -> conv5 (in-place)
I1007 04:49:52.001335 12755 net.cpp:150] Setting up relu5
I1007 04:49:52.001339 12755 net.cpp:157] Top shape: 128 256 13 13 (5537792)
I1007 04:49:52.001343 12755 net.cpp:165] Memory required for data: 939945472
I1007 04:49:52.001345 12755 layer_factory.hpp:77] Creating layer pool5
I1007 04:49:52.001355 12755 net.cpp:100] Creating Layer pool5
I1007 04:49:52.001359 12755 net.cpp:434] pool5 <- conv5
I1007 04:49:52.001364 12755 net.cpp:408] pool5 -> pool5
I1007 04:49:52.001399 12755 net.cpp:150] Setting up pool5
I1007 04:49:52.001405 12755 net.cpp:157] Top shape: 128 256 6 6 (1179648)
I1007 04:49:52.001408 12755 net.cpp:165] Memory required for data: 944664064
I1007 04:49:52.001412 12755 layer_factory.hpp:77] Creating layer fc6
I1007 04:49:52.001420 12755 net.cpp:100] Creating Layer fc6
I1007 04:49:52.001425 12755 net.cpp:434] fc6 <- pool5
I1007 04:49:52.001431 12755 net.cpp:408] fc6 -> fc6
I1007 04:49:52.855926 12755 net.cpp:150] Setting up fc6
I1007 04:49:52.855965 12755 net.cpp:157] Top shape: 128 4096 (524288)
I1007 04:49:52.855970 12755 net.cpp:165] Memory required for data: 946761216
I1007 04:49:52.855979 12755 layer_factory.hpp:77] Creating layer relu6
I1007 04:49:52.855994 12755 net.cpp:100] Creating Layer relu6
I1007 04:49:52.855999 12755 net.cpp:434] relu6 <- fc6
I1007 04:49:52.856009 12755 net.cpp:395] relu6 -> fc6 (in-place)
I1007 04:49:52.856019 12755 net.cpp:150] Setting up relu6
I1007 04:49:52.856024 12755 net.cpp:157] Top shape: 128 4096 (524288)
I1007 04:49:52.856026 12755 net.cpp:165] Memory required for data: 948858368
I1007 04:49:52.856031 12755 layer_factory.hpp:77] Creating layer drop6
I1007 04:49:52.856040 12755 net.cpp:100] Creating Layer drop6
I1007 04:49:52.856045 12755 net.cpp:434] drop6 <- fc6
I1007 04:49:52.856050 12755 net.cpp:395] drop6 -> fc6 (in-place)
I1007 04:49:52.856076 12755 net.cpp:150] Setting up drop6
I1007 04:49:52.856082 12755 net.cpp:157] Top shape: 128 4096 (524288)
I1007 04:49:52.856086 12755 net.cpp:165] Memory required for data: 950955520
I1007 04:49:52.856088 12755 layer_factory.hpp:77] Creating layer fc7
I1007 04:49:52.856098 12755 net.cpp:100] Creating Layer fc7
I1007 04:49:52.856101 12755 net.cpp:434] fc7 <- fc6
I1007 04:49:52.856109 12755 net.cpp:408] fc7 -> fc7
I1007 04:49:53.233983 12755 net.cpp:150] Setting up fc7
I1007 04:49:53.234025 12755 net.cpp:157] Top shape: 128 4096 (524288)
I1007 04:49:53.234028 12755 net.cpp:165] Memory required for data: 953052672
I1007 04:49:53.234037 12755 layer_factory.hpp:77] Creating layer relu7
I1007 04:49:53.234050 12755 net.cpp:100] Creating Layer relu7
I1007 04:49:53.234055 12755 net.cpp:434] relu7 <- fc7
I1007 04:49:53.234062 12755 net.cpp:395] relu7 -> fc7 (in-place)
I1007 04:49:53.234072 12755 net.cpp:150] Setting up relu7
I1007 04:49:53.234076 12755 net.cpp:157] Top shape: 128 4096 (524288)
I1007 04:49:53.234081 12755 net.cpp:165] Memory required for data: 955149824
I1007 04:49:53.234083 12755 layer_factory.hpp:77] Creating layer drop7
I1007 04:49:53.234097 12755 net.cpp:100] Creating Layer drop7
I1007 04:49:53.234102 12755 net.cpp:434] drop7 <- fc7
I1007 04:49:53.234107 12755 net.cpp:395] drop7 -> fc7 (in-place)
I1007 04:49:53.234124 12755 net.cpp:150] Setting up drop7
I1007 04:49:53.234130 12755 net.cpp:157] Top shape: 128 4096 (524288)
I1007 04:49:53.234133 12755 net.cpp:165] Memory required for data: 957246976
I1007 04:49:53.234138 12755 layer_factory.hpp:77] Creating layer fc8_new
I1007 04:49:53.234146 12755 net.cpp:100] Creating Layer fc8_new
I1007 04:49:53.234150 12755 net.cpp:434] fc8_new <- fc7
I1007 04:49:53.234156 12755 net.cpp:408] fc8_new -> fc8
I1007 04:49:53.236937 12755 net.cpp:150] Setting up fc8_new
I1007 04:49:53.236946 12755 net.cpp:157] Top shape: 128 31 (3968)
I1007 04:49:53.236963 12755 net.cpp:165] Memory required for data: 957262848
I1007 04:49:53.236969 12755 layer_factory.hpp:77] Creating layer fc8_fc8_new_0_split
I1007 04:49:53.236976 12755 net.cpp:100] Creating Layer fc8_fc8_new_0_split
I1007 04:49:53.236980 12755 net.cpp:434] fc8_fc8_new_0_split <- fc8
I1007 04:49:53.236986 12755 net.cpp:408] fc8_fc8_new_0_split -> fc8_fc8_new_0_split_0
I1007 04:49:53.236992 12755 net.cpp:408] fc8_fc8_new_0_split -> fc8_fc8_new_0_split_1
I1007 04:49:53.237020 12755 net.cpp:150] Setting up fc8_fc8_new_0_split
I1007 04:49:53.237025 12755 net.cpp:157] Top shape: 128 31 (3968)
I1007 04:49:53.237030 12755 net.cpp:157] Top shape: 128 31 (3968)
I1007 04:49:53.237032 12755 net.cpp:165] Memory required for data: 957294592
I1007 04:49:53.237035 12755 layer_factory.hpp:77] Creating layer slice_fc8
I1007 04:49:53.237046 12755 net.cpp:100] Creating Layer slice_fc8
I1007 04:49:53.237049 12755 net.cpp:434] slice_fc8 <- fc8_fc8_new_0_split_0
I1007 04:49:53.237056 12755 net.cpp:408] slice_fc8 -> fc8_source
I1007 04:49:53.237064 12755 net.cpp:408] slice_fc8 -> fc8_target
I1007 04:49:53.237092 12755 net.cpp:150] Setting up slice_fc8
I1007 04:49:53.237097 12755 net.cpp:157] Top shape: 64 31 (1984)
I1007 04:49:53.237100 12755 net.cpp:157] Top shape: 64 31 (1984)
I1007 04:49:53.237104 12755 net.cpp:165] Memory required for data: 957310464
I1007 04:49:53.237107 12755 layer_factory.hpp:77] Creating layer silence
I1007 04:49:53.237114 12755 net.cpp:100] Creating Layer silence
I1007 04:49:53.237118 12755 net.cpp:434] silence <- fc8_target
I1007 04:49:53.237123 12755 net.cpp:150] Setting up silence
I1007 04:49:53.237125 12755 net.cpp:165] Memory required for data: 957310464
…
I1007 04:49:53.237228 12755 net.cpp:150] Setting up softmax_loss
I1007 04:49:53.237234 12755 net.cpp:157] Top shape: (1)
I1007 04:49:53.237237 12755 net.cpp:160]     with loss weight 1
I1007 04:49:53.237267 12755 net.cpp:165] Memory required for data: 957310468
I1007 04:49:53.237272 12755 layer_factory.hpp:77] Creating layer fc8_softmax
I1007 04:49:53.237277 12755 net.cpp:100] Creating Layer fc8_softmax
I1007 04:49:53.237282 12755 net.cpp:434] fc8_softmax <- fc8_fc8_new_0_split_1
I1007 04:49:53.237287 12755 net.cpp:408] fc8_softmax -> fc8_softmax
I1007 04:49:53.237334 12755 net.cpp:150] Setting up fc8_softmax
I1007 04:49:53.237340 12755 net.cpp:157] Top shape: 128 31 (3968)
I1007 04:49:53.237344 12755 net.cpp:165] Memory required for data: 957326340
I1007 04:49:53.237346 12755 layer_factory.hpp:77] Creating layer slice_softmax
I1007 04:49:53.237360 12755 net.cpp:100] Creating Layer slice_softmax
I1007 04:49:53.237362 12755 net.cpp:434] slice_softmax <- fc8_softmax
I1007 04:49:53.237367 12755 net.cpp:408] slice_softmax -> source_softmax
I1007 04:49:53.237373 12755 net.cpp:408] slice_softmax -> target_softmax
I1007 04:49:53.237399 12755 net.cpp:150] Setting up slice_softmax
I1007 04:49:53.237404 12755 net.cpp:157] Top shape: 64 31 (1984)
I1007 04:49:53.237408 12755 net.cpp:157] Top shape: 64 31 (1984)
I1007 04:49:53.237411 12755 net.cpp:165] Memory required for data: 957342212
I1007 04:49:53.237414 12755 layer_factory.hpp:77] Creating layer source_softmax_slice_softmax_0_split
I1007 04:49:53.237426 12755 net.cpp:100] Creating Layer source_softmax_slice_softmax_0_split
I1007 04:49:53.237428 12755 net.cpp:434] source_softmax_slice_softmax_0_split <- source_softmax
I1007 04:49:53.237434 12755 net.cpp:408] source_softmax_slice_softmax_0_split -> source_softmax_slice_softmax_0_split_0
I1007 04:49:53.237440 12755 net.cpp:408] source_softmax_slice_softmax_0_split -> source_softmax_slice_softmax_0_split_1
I1007 04:49:53.237478 12755 net.cpp:150] Setting up source_softmax_slice_softmax_0_split
I1007 04:49:53.237485 12755 net.cpp:157] Top shape: 64 31 (1984)
I1007 04:49:53.237489 12755 net.cpp:157] Top shape: 64 31 (1984)
I1007 04:49:53.237493 12755 net.cpp:165] Memory required for data: 957358084
I1007 04:49:53.237495 12755 layer_factory.hpp:77] Creating layer target_softmax_slice_softmax_1_split
I1007 04:49:53.237501 12755 net.cpp:100] Creating Layer target_softmax_slice_softmax_1_split
I1007 04:49:53.237505 12755 net.cpp:434] target_softmax_slice_softmax_1_split <- target_softmax
I1007 04:49:53.237510 12755 net.cpp:408] target_softmax_slice_softmax_1_split -> target_softmax_slice_softmax_1_split_0
I1007 04:49:53.237515 12755 net.cpp:408] target_softmax_slice_softmax_1_split -> target_softmax_slice_softmax_1_split_1
I1007 04:49:53.237540 12755 net.cpp:150] Setting up target_softmax_slice_softmax_1_split
I1007 04:49:53.237546 12755 net.cpp:157] Top shape: 64 31 (1984)
I1007 04:49:53.237550 12755 net.cpp:157] Top shape: 64 31 (1984)
I1007 04:49:53.237553 12755 net.cpp:165] Memory required for data: 957373956
I1007 04:49:53.237556 12755 layer_factory.hpp:77] Creating layer jmmd_loss
I1007 04:49:53.237563 12755 net.cpp:100] Creating Layer jmmd_loss
I1007 04:49:53.237567 12755 net.cpp:434] jmmd_loss <- source_softmax_slice_softmax_0_split_0
I1007 04:49:53.237571 12755 net.cpp:434] jmmd_loss <- target_softmax_slice_softmax_1_split_0
…
I1007 04:49:53.238752 12755 net.cpp:322] The NetState phase (1) differed from the phase (0) specified by a rule in layer silence_loss_value
I1007 04:49:53.238947 12755 net.cpp:58] Initializing net from parameters: 
name: "amazon_to_webcam"
state {
  phase: TEST
}
layer {
  name: "test_data"
  type: "ImageData"
  top: "data"
  top: "label"
  include {
    phase: TEST
  }
  transform_param {
    mirror: false
    crop_size: 227
    mean_file: "./data/ilsvrc12/imagenet_mean.binaryproto"
  }
  image_data_param {
    source: "./data/office/webcam_list.txt"
    batch_size: 1
    shuffle: false
    new_height: 256
    new_width: 256
  }
}
layer {
  name: "conv1"
  type: "Convolution"
  bottom: "data"
  top: "conv1"
  param {
    lr_mult: 0
    decay_mult: 1
  }
  param {
    lr_mult: 0
    decay_mult: 0
  }
  convolution_param {
    num_output: 96
    kernel_size: 11
    stride: 4
    weight_filler {
      type: "gaussian"
      std: 0.01
    }
    bias_filler {
      type: "constant"
      value: 0
    }
  }
}
layer {
  name: "relu1"
  type: "ReLU"
  bottom: "conv1"
  top: "conv1"
}
layer {
  name: "pool1"
  type: "Pooling"
  bottom: "conv1"
  top: "pool1"
  pooling_param {
    pool: MAX
    kernel_size: 3
    stride: 2
  }
}
layer {
  name: "norm1"
  type: "LRN"
  bottom: "pool1"
  top: "norm1"
  lrn_param {
    local_size: 5
    alpha: 0.0001
    beta: 0.75
  }
}
layer {
  name: "conv2"
  type: "Convolution"
  bottom: "norm1"
  top: "conv2"
  param {
    lr_mult: 0
    decay_mult: 1
  }
  param {
    lr_mult: 0
    decay_mult: 0
  }
  convolution_param {
    num_output: 256
    pad: 2
    kernel_size: 5
    group: 2
    weight_filler {
      type: "gaussian"
      std: 0.01
    }
    bias_filler {
      type: "constant"
      value: 1
    }
  }
}
layer {
  name: "relu2"
  type: "ReLU"
  bottom: "conv2"
  top: "conv2"
}
layer {
  name: "pool2"
  type: "Pooling"
  bottom: "conv2"
  top: "pool2"
  pooling_param {
    pool: MAX
    kernel_size: 3
    stride: 2
  }
}
layer {
  name: "norm2"
  type: "LRN"
  bottom: "pool2"
  top: "norm2"
  lrn_param {
    local_size: 5
    alpha: 0.0001
    beta: 0.75
  }
}
layer {
  name: "conv3"
  type: "Convolution"
  bottom: "norm2"
  top: "conv3"
  param {
    lr_mult: 0.1
    decay_mult: 1
  }
  param {
    lr_mult: 0.2
    decay_mult: 0
  }
  convolution_param {
    num_output: 384
    pad: 1
    kernel_size: 3
    weight_filler {
      type: "gaussian"
      std: 0.01
    }
    bias_filler {
      type: "constant"
      value: 0
    }
  }
}
layer {
  name: "relu3"
  type: "ReLU"
  bottom: "conv3"
  top: "conv3"
}
layer {
  name: "conv4"
  type: "Convolution"
  bottom: "conv3"
  top: "conv4"
  param {
    lr_mult: 0.1
    decay_mult: 1
  }
  param {
    lr_mult: 0.2
    decay_mult: 0
  }
  convolution_param {
    num_output: 384
    pad: 1
    kernel_size: 3
    group: 2
    weight_filler {
      type: "gaussian"
      std: 0.01
    }
    bias_filler {
      type: "constant"
      value: 1
    }
  }
}
layer {
  name: "relu4"
  type: "ReLU"
  bottom: "conv4"
  top: "conv4"
}
layer {
  name: "conv5"
  type: "Convolution"
  bottom: "conv4"
  top: "conv5"
  param {
    lr_mult: 0.1
    decay_mult: 1
  }
  param {
    lr_mult: 0.2
    decay_mult: 0
  }
  convolution_param {
    num_output: 256
    pad: 1
    kernel_size: 3
    group: 2
    weight_filler {
      type: "gaussian"
      std: 0.01
    }
    bias_filler {
      type: "constant"
      value: 1
    }
  }
}
layer {
  name: "relu5"
  type: "ReLU"
  bottom: "conv5"
  top: "conv5"
}
layer {
  name: "pool5"
  type: "Pooling"
  bottom: "conv5"
  top: "pool5"
  pooling_param {
    pool: MAX
    kernel_size: 3
    stride: 2
  }
}
layer {
  name: "fc6"
  type: "InnerProduct"
  bottom: "pool5"
  top: "fc6"
  param {
    lr_mult: 0.1
    decay_mult: 1
  }
  param {
    lr_mult: 0.2
    decay_mult: 0
  }
  inner_product_param {
    num_output: 4096
    weight_filler {
      type: "gaussian"
      std: 0.005
    }
    bias_filler {
      type: "constant"
      value: 1
    }
  }
}
layer {
  name: "relu6"
  type: "ReLU"
  bottom: "fc6"
  top: "fc6"
}
layer {
  name: "drop6"
  type: "Dropout"
  bottom: "fc6"
  top: "fc6"
  dropout_param {
    dropout_ratio: 0.5
  }
}
layer {
  name: "fc7"
  type: "InnerProduct"
  bottom: "fc6"
  top: "fc7"
  param {
    lr_mult: 0.1
    decay_mult: 1
  }
  param {
    lr_mult: 0.2
    decay_mult: 0
  }
  inner_product_param {
    num_output: 4096
    weight_filler {
      type: "gaussian"
      std: 0.005
    }
    bias_filler {
      type: "constant"
      value: 1
    }
  }
}
layer {
  name: "relu7"
  type: "ReLU"
  bottom: "fc7"
  top: "fc7"
}
layer {
  name: "drop7"
  type: "Dropout"
  bottom: "fc7"
  top: "fc7"
  dropout_param {
    dropout_ratio: 0.5
  }
}
layer {
  name: "fc8_new"
  type: "InnerProduct"
  bottom: "fc7"
  top: "fc8"
  param {
    lr_mult: 1
    decay_mult: 1
  }
  param {
    lr_mult: 2
    decay_mult: 0
  }
  inner_product_param {
    num_output: 31
    weight_filler {
      type: "gaussian"
      std: 0.01
    }
    bias_filler {
      type: "constant"
      value: 0
    }
  }
}
layer {
  name: "accuracy"
  type: "Accuracy"
  bottom: "fc8"
  bottom: "label"
  top: "accuracy"
  include {
    phase: TEST
  }
}
I1007 04:49:53.239033 12755 layer_factory.hpp:77] Creating layer test_data
I1007 04:49:53.239049 12755 net.cpp:100] Creating Layer test_data
I1007 04:49:53.239054 12755 net.cpp:408] test_data -> data
I1007 04:49:53.239063 12755 net.cpp:408] test_data -> label
I1007 04:49:53.239069 12755 data_transformer.cpp:25] Loading mean file from: ./data/ilsvrc12/imagenet_mean.binaryproto
I1007 04:49:53.241603 12755 image_data_layer.cpp:38] Opening file ./data/office/webcam_list.txt
I1007 04:49:53.241824 12755 image_data_layer.cpp:58] A total of 795 images.
I1007 04:49:53.244370 12755 image_data_layer.cpp:85] output data size: 1,3,227,227
I1007 04:49:53.246716 12755 net.cpp:150] Setting up test_data
I1007 04:49:53.246731 12755 net.cpp:157] Top shape: 1 3 227 227 (154587)
I1007 04:49:53.246737 12755 net.cpp:157] Top shape: 1 (1)
I1007 04:49:53.246740 12755 net.cpp:165] Memory required for data: 618352
I1007 04:49:53.246744 12755 layer_factory.hpp:77] Creating layer conv1
I1007 04:49:53.246754 12755 net.cpp:100] Creating Layer conv1
I1007 04:49:53.246758 12755 net.cpp:434] conv1 <- data
I1007 04:49:53.246765 12755 net.cpp:408] conv1 -> conv1
I1007 04:49:53.247787 12755 net.cpp:150] Setting up conv1
I1007 04:49:53.247798 12755 net.cpp:157] Top shape: 1 96 55 55 (290400)
I1007 04:49:53.247802 12755 net.cpp:165] Memory required for data: 1779952
I1007 04:49:53.247812 12755 layer_factory.hpp:77] Creating layer relu1
I1007 04:49:53.247817 12755 net.cpp:100] Creating Layer relu1
I1007 04:49:53.247822 12755 net.cpp:434] relu1 <- conv1
I1007 04:49:53.247826 12755 net.cpp:395] relu1 -> conv1 (in-place)
I1007 04:49:53.247833 12755 net.cpp:150] Setting up relu1
I1007 04:49:53.247838 12755 net.cpp:157] Top shape: 1 96 55 55 (290400)
I1007 04:49:53.247839 12755 net.cpp:165] Memory required for data: 2941552
I1007 04:49:53.247843 12755 layer_factory.hpp:77] Creating layer pool1
I1007 04:49:53.247849 12755 net.cpp:100] Creating Layer pool1
I1007 04:49:53.247853 12755 net.cpp:434] pool1 <- conv1
I1007 04:49:53.247856 12755 net.cpp:408] pool1 -> pool1
I1007 04:49:53.247886 12755 net.cpp:150] Setting up pool1
I1007 04:49:53.247892 12755 net.cpp:157] Top shape: 1 96 27 27 (69984)
I1007 04:49:53.247895 12755 net.cpp:165] Memory required for data: 3221488
I1007 04:49:53.247898 12755 layer_factory.hpp:77] Creating layer norm1
I1007 04:49:53.247905 12755 net.cpp:100] Creating Layer norm1
I1007 04:49:53.247908 12755 net.cpp:434] norm1 <- pool1
I1007 04:49:53.247913 12755 net.cpp:408] norm1 -> norm1
I1007 04:49:53.247938 12755 net.cpp:150] Setting up norm1
I1007 04:49:53.247944 12755 net.cpp:157] Top shape: 1 96 27 27 (69984)
I1007 04:49:53.247947 12755 net.cpp:165] Memory required for data: 3501424
I1007 04:49:53.247951 12755 layer_factory.hpp:77] Creating layer conv2
I1007 04:49:53.247957 12755 net.cpp:100] Creating Layer conv2
I1007 04:49:53.247961 12755 net.cpp:434] conv2 <- norm1
I1007 04:49:53.247967 12755 net.cpp:408] conv2 -> conv2
I1007 04:49:53.254423 12755 net.cpp:150] Setting up conv2
I1007 04:49:53.254436 12755 net.cpp:157] Top shape: 1 256 27 27 (186624)
I1007 04:49:53.254438 12755 net.cpp:165] Memory required for data: 4247920
I1007 04:49:53.254457 12755 layer_factory.hpp:77] Creating layer relu2
I1007 04:49:53.254472 12755 net.cpp:100] Creating Layer relu2
I1007 04:49:53.254477 12755 net.cpp:434] relu2 <- conv2
I1007 04:49:53.254482 12755 net.cpp:395] relu2 -> conv2 (in-place)
I1007 04:49:53.254487 12755 net.cpp:150] Setting up relu2
I1007 04:49:53.254492 12755 net.cpp:157] Top shape: 1 256 27 27 (186624)
I1007 04:49:53.254495 12755 net.cpp:165] Memory required for data: 4994416
I1007 04:49:53.254498 12755 layer_factory.hpp:77] Creating layer pool2
I1007 04:49:53.254503 12755 net.cpp:100] Creating Layer pool2
I1007 04:49:53.254506 12755 net.cpp:434] pool2 <- conv2
I1007 04:49:53.254510 12755 net.cpp:408] pool2 -> pool2
I1007 04:49:53.254540 12755 net.cpp:150] Setting up pool2
I1007 04:49:53.254546 12755 net.cpp:157] Top shape: 1 256 13 13 (43264)
I1007 04:49:53.254549 12755 net.cpp:165] Memory required for data: 5167472
I1007 04:49:53.254552 12755 layer_factory.hpp:77] Creating layer norm2
I1007 04:49:53.254559 12755 net.cpp:100] Creating Layer norm2
I1007 04:49:53.254562 12755 net.cpp:434] norm2 <- pool2
I1007 04:49:53.254567 12755 net.cpp:408] norm2 -> norm2
I1007 04:49:53.254591 12755 net.cpp:150] Setting up norm2
I1007 04:49:53.254596 12755 net.cpp:157] Top shape: 1 256 13 13 (43264)
I1007 04:49:53.254601 12755 net.cpp:165] Memory required for data: 5340528
I1007 04:49:53.254603 12755 layer_factory.hpp:77] Creating layer conv3
I1007 04:49:53.254609 12755 net.cpp:100] Creating Layer conv3
I1007 04:49:53.254613 12755 net.cpp:434] conv3 <- norm2
I1007 04:49:53.254619 12755 net.cpp:408] conv3 -> conv3
I1007 04:49:53.274468 12755 net.cpp:150] Setting up conv3
I1007 04:49:53.274487 12755 net.cpp:157] Top shape: 1 384 13 13 (64896)
I1007 04:49:53.274492 12755 net.cpp:165] Memory required for data: 5600112
I1007 04:49:53.274502 12755 layer_factory.hpp:77] Creating layer relu3
I1007 04:49:53.274509 12755 net.cpp:100] Creating Layer relu3
I1007 04:49:53.274513 12755 net.cpp:434] relu3 <- conv3
I1007 04:49:53.274518 12755 net.cpp:395] relu3 -> conv3 (in-place)
I1007 04:49:53.274526 12755 net.cpp:150] Setting up relu3
I1007 04:49:53.274531 12755 net.cpp:157] Top shape: 1 384 13 13 (64896)
I1007 04:49:53.274534 12755 net.cpp:165] Memory required for data: 5859696
I1007 04:49:53.274538 12755 layer_factory.hpp:77] Creating layer conv4
I1007 04:49:53.274546 12755 net.cpp:100] Creating Layer conv4
I1007 04:49:53.274550 12755 net.cpp:434] conv4 <- conv3
I1007 04:49:53.274556 12755 net.cpp:408] conv4 -> conv4
I1007 04:49:53.289672 12755 net.cpp:150] Setting up conv4
I1007 04:49:53.289688 12755 net.cpp:157] Top shape: 1 384 13 13 (64896)
I1007 04:49:53.289691 12755 net.cpp:165] Memory required for data: 6119280
I1007 04:49:53.289697 12755 layer_factory.hpp:77] Creating layer relu4
I1007 04:49:53.289705 12755 net.cpp:100] Creating Layer relu4
I1007 04:49:53.289708 12755 net.cpp:434] relu4 <- conv4
I1007 04:49:53.289716 12755 net.cpp:395] relu4 -> conv4 (in-place)
I1007 04:49:53.289721 12755 net.cpp:150] Setting up relu4
I1007 04:49:53.289726 12755 net.cpp:157] Top shape: 1 384 13 13 (64896)
I1007 04:49:53.289729 12755 net.cpp:165] Memory required for data: 6378864
I1007 04:49:53.289732 12755 layer_factory.hpp:77] Creating layer conv5
I1007 04:49:53.289742 12755 net.cpp:100] Creating Layer conv5
I1007 04:49:53.289746 12755 net.cpp:434] conv5 <- conv4
I1007 04:49:53.289752 12755 net.cpp:408] conv5 -> conv5
I1007 04:49:53.300168 12755 net.cpp:150] Setting up conv5
I1007 04:49:53.300182 12755 net.cpp:157] Top shape: 1 256 13 13 (43264)
I1007 04:49:53.300186 12755 net.cpp:165] Memory required for data: 6551920
I1007 04:49:53.300196 12755 layer_factory.hpp:77] Creating layer relu5
I1007 04:49:53.300204 12755 net.cpp:100] Creating Layer relu5
I1007 04:49:53.300209 12755 net.cpp:434] relu5 <- conv5
I1007 04:49:53.300215 12755 net.cpp:395] relu5 -> conv5 (in-place)
I1007 04:49:53.300221 12755 net.cpp:150] Setting up relu5
I1007 04:49:53.300225 12755 net.cpp:157] Top shape: 1 256 13 13 (43264)
I1007 04:49:53.300228 12755 net.cpp:165] Memory required for data: 6724976
I1007 04:49:53.300246 12755 layer_factory.hpp:77] Creating layer pool5
I1007 04:49:53.300264 12755 net.cpp:100] Creating Layer pool5
I1007 04:49:53.300268 12755 net.cpp:434] pool5 <- conv5
I1007 04:49:53.300274 12755 net.cpp:408] pool5 -> pool5
I1007 04:49:53.300307 12755 net.cpp:150] Setting up pool5
I1007 04:49:53.300313 12755 net.cpp:157] Top shape: 1 256 6 6 (9216)
I1007 04:49:53.300318 12755 net.cpp:165] Memory required for data: 6761840
I1007 04:49:53.300320 12755 layer_factory.hpp:77] Creating layer fc6
I1007 04:49:53.300329 12755 net.cpp:100] Creating Layer fc6
I1007 04:49:53.300334 12755 net.cpp:434] fc6 <- pool5
I1007 04:49:53.300339 12755 net.cpp:408] fc6 -> fc6
I1007 04:49:54.148685 12755 net.cpp:150] Setting up fc6
I1007 04:49:54.148725 12755 net.cpp:157] Top shape: 1 4096 (4096)
I1007 04:49:54.148730 12755 net.cpp:165] Memory required for data: 6778224
I1007 04:49:54.148738 12755 layer_factory.hpp:77] Creating layer relu6
I1007 04:49:54.148751 12755 net.cpp:100] Creating Layer relu6
I1007 04:49:54.148756 12755 net.cpp:434] relu6 <- fc6
I1007 04:49:54.148764 12755 net.cpp:395] relu6 -> fc6 (in-place)
I1007 04:49:54.148774 12755 net.cpp:150] Setting up relu6
I1007 04:49:54.148778 12755 net.cpp:157] Top shape: 1 4096 (4096)
I1007 04:49:54.148782 12755 net.cpp:165] Memory required for data: 6794608
I1007 04:49:54.148785 12755 layer_factory.hpp:77] Creating layer drop6
I1007 04:49:54.148793 12755 net.cpp:100] Creating Layer drop6
I1007 04:49:54.148797 12755 net.cpp:434] drop6 <- fc6
I1007 04:49:54.148802 12755 net.cpp:395] drop6 -> fc6 (in-place)
I1007 04:49:54.148823 12755 net.cpp:150] Setting up drop6
I1007 04:49:54.148829 12755 net.cpp:157] Top shape: 1 4096 (4096)
I1007 04:49:54.148833 12755 net.cpp:165] Memory required for data: 6810992
I1007 04:49:54.148835 12755 layer_factory.hpp:77] Creating layer fc7
I1007 04:49:54.148845 12755 net.cpp:100] Creating Layer fc7
I1007 04:49:54.148849 12755 net.cpp:434] fc7 <- fc6
I1007 04:49:54.148854 12755 net.cpp:408] fc7 -> fc7
I1007 04:49:54.527488 12755 net.cpp:150] Setting up fc7
I1007 04:49:54.527526 12755 net.cpp:157] Top shape: 1 4096 (4096)
I1007 04:49:54.527530 12755 net.cpp:165] Memory required for data: 6827376
I1007 04:49:54.527539 12755 layer_factory.hpp:77] Creating layer relu7
I1007 04:49:54.527550 12755 net.cpp:100] Creating Layer relu7
I1007 04:49:54.527556 12755 net.cpp:434] relu7 <- fc7
I1007 04:49:54.527564 12755 net.cpp:395] relu7 -> fc7 (in-place)
I1007 04:49:54.527573 12755 net.cpp:150] Setting up relu7
I1007 04:49:54.527578 12755 net.cpp:157] Top shape: 1 4096 (4096)
I1007 04:49:54.527581 12755 net.cpp:165] Memory required for data: 6843760
I1007 04:49:54.527585 12755 layer_factory.hpp:77] Creating layer drop7
I1007 04:49:54.527592 12755 net.cpp:100] Creating Layer drop7
I1007 04:49:54.527596 12755 net.cpp:434] drop7 <- fc7
I1007 04:49:54.527602 12755 net.cpp:395] drop7 -> fc7 (in-place)
I1007 04:49:54.527623 12755 net.cpp:150] Setting up drop7
I1007 04:49:54.527629 12755 net.cpp:157] Top shape: 1 4096 (4096)
I1007 04:49:54.527632 12755 net.cpp:165] Memory required for data: 6860144
I1007 04:49:54.527637 12755 layer_factory.hpp:77] Creating layer fc8_new
I1007 04:49:54.527644 12755 net.cpp:100] Creating Layer fc8_new
I1007 04:49:54.527648 12755 net.cpp:434] fc8_new <- fc7
I1007 04:49:54.527654 12755 net.cpp:408] fc8_new -> fc8
I1007 04:49:54.530412 12755 net.cpp:150] Setting up fc8_new
I1007 04:49:54.530421 12755 net.cpp:157] Top shape: 1 31 (31)
I1007 04:49:54.530423 12755 net.cpp:165] Memory required for data: 6860268
I1007 04:49:54.530428 12755 layer_factory.hpp:77] Creating layer accuracy
I1007 04:49:54.530437 12755 net.cpp:100] Creating Layer accuracy
I1007 04:49:54.530441 12755 net.cpp:434] accuracy <- fc8
I1007 04:49:54.530445 12755 net.cpp:434] accuracy <- label
I1007 04:49:54.530452 12755 net.cpp:408] accuracy -> accuracy
…
