…
    mean_file: "./data/ilsvrc12/imagenet_mean.binaryproto"
  }
  image_data_param {
    source: "./data/office/webcam_list.txt"
    batch_size: 64
    shuffle: true
    new_height: 256
    new_width: 256
  }
}
layer {
  name: "target_data"
  type: "ImageData"
  top: "target_data"
  top: "target_label"
  include {
    phase: TRAIN
  }
  transform_param {
    mirror: true
    crop_size: 227
    mean_file: "./data/ilsvrc12/imagenet_mean.binaryproto"
  }
  image_data_param {
    source: "./data/office/amazon_list.txt"
    batch_size: 64
    shuffle: true
    new_height: 256
    new_width: 256
  }
}
layer {
  name: "target_label_silence"
  type: "Silence"
  bottom: "target_label"
  include {
    phase: TRAIN
  }
}
layer {
  name: "data"
  type: "Concat"
  bottom: "source_data"
  bottom: "target_data"
  top: "data"
  include {
    phase: TRAIN
  }
  concat_param {
    axis: 0
  }
}
layer {
  name: "conv1"
  type: "Convolution"
  bottom: "data"
  top: "conv1"
  param {
    lr_mult: 0
    decay_mult: 1
  }
  param {
    lr_mult: 0
    decay_mult: 0
  }
  convolution_param {
    num_output: 96
    kernel_size: 11
    stride: 4
    weight_filler {
      type: "gaussian"
      std: 0.01
    }
    bias_filler {
      type: "constant"
      value: 0
    }
  }
}
layer {
  name: "relu1"
  type: "ReLU"
  bottom: "conv1"
  top: "conv1"
}
layer {
  name: "pool1"
  type: "Pooling"
  bottom: "conv1"
  top: "pool1"
  pooling_param {
    pool: MAX
    kernel_size: 3
    stride: 2
  }
}
layer {
  name: "norm1"
  type: "LRN"
  bottom: "pool1"
  top: "norm1"
  lrn_param {
    local_size: 5
    alpha: 0.0001
    beta: 0.75
  }
}
layer {
  name: "conv2"
  type: "Convolution"
  bottom: "norm1"
  top: "conv2"
  param {
    lr_mult: 0
    decay_mult: 1
  }
  param {
    lr_mult: 0
    decay_mult: 0
  }
  convolution_param {
    num_output: 256
    pad: 2
    kernel_size: 5
    group: 2
    weight_filler {
      type: "gaussian"
      std: 0.01
    }
    bias_filler {
      type: "constant"
      value: 1
    }
  }
}
layer {
  name: "relu2"
  type: "ReLU"
  bottom: "conv2"
  top: "conv2"
}
layer {
  name: "pool2"
  type: "Pooling"
  bottom: "conv2"
  top: "pool2"
  pooling_param {
    pool: MAX
    kernel_size: 3
    stride: 2
  }
}
layer {
  name: "norm2"
  type: "LRN"
  bottom: "pool2"
  top: "norm2"
  lrn_param {
    local_size: 5
    alpha: 0.0001
    beta: 0.75
  }
}
layer {
  name: "conv3"
  type: "Convolution"
  bottom: "norm2"
  top: "conv3"
  param {
    lr_mult: 0.1
    decay_mult: 1
  }
  param {
    lr_mult: 0.2
    decay_mult: 0
  }
  convolution_param {
    num_output: 384
    pad: 1
    kernel_size: 3
    weight_filler {
      type: "gaussian"
      std: 0.01
    }
    bias_filler {
      type: "constant"
      value: 0
    }
  }
}
layer {
  name: "relu3"
  type: "ReLU"
  bottom: "conv3"
  top: "conv3"
}
layer {
  name: "conv4"
  type: "Convolution"
  bottom: "conv3"
  top: "conv4"
  param {
    lr_mult: 0.1
    decay_mult: 1
  }
  param {
    lr_mult: 0.2
    decay_mult: 0
  }
  convolution_param {
    num_output: 384
    pad: 1
    kernel_size: 3
    group: 2
    weight_filler {
      type: "gaussian"
      std: 0.01
    }
    bias_filler {
      type: "constant"
      value: 1
    }
  }
}
layer {
  name: "relu4"
  type: "ReLU"
  bottom: "conv4"
  top: "conv4"
}
layer {
  name: "conv5"
  type: "Convolution"
  bottom: "conv4"
  top: "conv5"
  param {
    lr_mult: 0.1
    decay_mult: 1
  }
  param {
    lr_mult: 0.2
    decay_mult: 0
  }
  convolution_param {
    num_output: 256
    pad: 1
    kernel_size: 3
    group: 2
    weight_filler {
      type: "gaussian"
      std: 0.01
    }
    bias_filler {
      type: "constant"
      value: 1
    }
  }
}
layer {
  name: "relu5"
  type: "ReLU"
  bottom: "conv5"
  top: "conv5"
}
layer {
  name: "pool5"
  type: "Pooling"
  bottom: "conv5"
  top: "pool5"
  pooling_param {
    pool: MAX
    kernel_size: 3
    stride: 2
  }
}
layer {
  name: "fc6"
  type: "InnerProduct"
  bottom: "pool5"
  top: "fc6"
  param {
    lr_mult: 0.1
    decay_mult: 1
  }
  param {
    lr_mult: 0.2
    decay_mult: 0
  }
  inner_product_param {
    num_output: 4096
    weight_filler {
      type: "gaussian"
      std: 0.005
    }
    bias_filler {
      type: "constant"
      value: 1
    }
  }
}
layer {
  name: "relu6"
  type: "ReLU"
  bottom: "fc6"
  top: "fc6"
}
layer {
  name: "drop6"
  type: "Dropout"
  bottom: "fc6"
  top: "fc6"
  dropout_param {
    dropout_ratio: 0.5
  }
}
layer {
  name: "fc7"
  type: "InnerProduct"
  bottom: "fc6"
  top: "fc7"
  param {
    lr_mult: 0.1
    decay_mult: 1
  }
  param {
    lr_mult: 0.2
    decay_mult: 0
  }
  inner_product_param {
    num_output: 4096
    weight_filler {
      type: "gaussian"
      std: 0.005
    }
    bias_filler {
      type: "constant"
      value: 1
    }
  }
}
layer {
  name: "relu7"
  type: "ReLU"
  bottom: "fc7"
  top: "fc7"
}
layer {
  name: "drop7"
  type: "Dropout"
  bottom: "fc7"
  top: "fc7"
  dropout_param {
    dropout_ratio: 0.5
  }
}
layer {
  name: "fc8_new"
  type: "InnerProduct"
  bottom: "fc7"
  top: "fc8"
  param {
    lr_mult: 1
    decay_mult: 1
  }
  param {
    lr_mult: 2
    decay_mult: 0
  }
  inner_product_param {
    num_output: 31
    weight_filler {
      type: "gaussian"
      std: 0.01
    }
    bias_filler {
      type: "constant"
      value: 0
    }
  }
}
layer {
  name: "slice_fc8"
  type: "Slice"
  bottom: "fc8"
  top: "fc8_source"
  top: "fc8_target"
  include {
    phase: TRAIN
  }
  slice_param {
    slice_dim: 0
  }
}
layer {
  name: "softmax_loss"
  type: "SoftmaxWithLoss"
  bottom: "fc8_source"
  bottom: "source_label"
  top: "softmax_loss"
  include {
    phase: TRAIN
  }
}
layer {
  name: "silence_fc8_target"
  type: "Silence"
  bottom: "fc8_target"
  include {
    phase: TRAIN
  }
}
layer {
  name: "fc8_softmax"
  type: "Softmax"
  bottom: "fc8"
  top: "fc8_softmax"
  include {
    phase: TRAIN
  }
}
layer {
  name: "slice_softmax"
  type: "Slice"
  bottom: "fc8_softmax"
  top: "source_softmax"
  top: "target_softmax"
  include {
    phase: TRAIN
  }
  slice_param {
    slice_dim: 0
  }
}
layer {
  name: "jmmd_loss"
  type: "JMMDLoss"
  bottom: "source_softmax"
  bottom: "target_softmax"
  bottom: "source_softmax"
  bottom: "target_softmax"
  top: "jmmd_loss"
  loss_weight: 0.3
  include {
    phase: TRAIN
  }
}
layer {
  name: "silence_jmmd_loss"
  type: "Silence"
  bottom: "jmmd_loss"
  include {
    phase: TRAIN
  }
}
I1008 14:28:00.224380  1489 layer_factory.hpp:77] Creating layer source_data
I1008 14:28:00.224423  1489 net.cpp:100] Creating Layer source_data
I1008 14:28:00.224433  1489 net.cpp:408] source_data -> source_data
I1008 14:28:00.224463  1489 net.cpp:408] source_data -> source_label
I1008 14:28:00.224479  1489 data_transformer.cpp:25] Loading mean file from: ./data/ilsvrc12/imagenet_mean.binaryproto
I1008 14:28:00.255234  1489 image_data_layer.cpp:38] Opening file ./data/office/webcam_list.txt
I1008 14:28:00.255533  1489 image_data_layer.cpp:53] Shuffling data
I1008 14:28:00.255609  1489 image_data_layer.cpp:58] A total of 795 images.
I1008 14:28:00.735577  1489 image_data_layer.cpp:85] output data size: 64,3,227,227
I1008 14:28:00.827963  1489 net.cpp:150] Setting up source_data
I1008 14:28:00.828016  1489 net.cpp:157] Top shape: 64 3 227 227 (9893568)
I1008 14:28:00.828064  1489 net.cpp:157] Top shape: 64 (64)
I1008 14:28:00.828071  1489 net.cpp:165] Memory required for data: 39574528
I1008 14:28:00.828135  1489 layer_factory.hpp:77] Creating layer target_data
I1008 14:28:00.828210  1489 net.cpp:100] Creating Layer target_data
I1008 14:28:00.828222  1489 net.cpp:408] target_data -> target_data
I1008 14:28:00.828238  1489 net.cpp:408] target_data -> target_label
I1008 14:28:00.828258  1489 data_transformer.cpp:25] Loading mean file from: ./data/ilsvrc12/imagenet_mean.binaryproto
I1008 14:28:00.829779  1489 image_data_layer.cpp:38] Opening file ./data/office/amazon_list.txt
I1008 14:28:00.830646  1489 image_data_layer.cpp:53] Shuffling data
I1008 14:28:00.830852  1489 image_data_layer.cpp:58] A total of 2817 images.
I1008 14:28:00.832358  1489 image_data_layer.cpp:85] output data size: 64,3,227,227
I1008 14:28:00.924185  1489 net.cpp:150] Setting up target_data
I1008 14:28:00.924232  1489 net.cpp:157] Top shape: 64 3 227 227 (9893568)
I1008 14:28:00.924238  1489 net.cpp:157] Top shape: 64 (64)
I1008 14:28:00.924242  1489 net.cpp:165] Memory required for data: 79149056
I1008 14:28:00.924271  1489 layer_factory.hpp:77] Creating layer target_label_silence
I1008 14:28:00.924293  1489 net.cpp:100] Creating Layer target_label_silence
I1008 14:28:00.924310  1489 net.cpp:434] target_label_silence <- target_label
I1008 14:28:00.924376  1489 net.cpp:150] Setting up target_label_silence
I1008 14:28:00.924384  1489 net.cpp:165] Memory required for data: 79149056
I1008 14:28:00.924389  1489 layer_factory.hpp:77] Creating layer data
I1008 14:28:00.924446  1489 net.cpp:100] Creating Layer data
I1008 14:28:00.924453  1489 net.cpp:434] data <- source_data
I1008 14:28:00.924459  1489 net.cpp:434] data <- target_data
I1008 14:28:00.924466  1489 net.cpp:408] data -> data
I1008 14:28:00.924525  1489 net.cpp:150] Setting up data
I1008 14:28:00.924533  1489 net.cpp:157] Top shape: 128 3 227 227 (19787136)
I1008 14:28:00.924538  1489 net.cpp:165] Memory required for data: 158297600
I1008 14:28:00.924543  1489 layer_factory.hpp:77] Creating layer conv1
I1008 14:28:00.924567  1489 net.cpp:100] Creating Layer conv1
I1008 14:28:00.924572  1489 net.cpp:434] conv1 <- data
I1008 14:28:00.924582  1489 net.cpp:408] conv1 -> conv1
I1008 14:28:00.929066  1489 net.cpp:150] Setting up conv1
I1008 14:28:00.929086  1489 net.cpp:157] Top shape: 128 96 55 55 (37171200)
I1008 14:28:00.929091  1489 net.cpp:165] Memory required for data: 306982400
I1008 14:28:00.929107  1489 layer_factory.hpp:77] Creating layer relu1
I1008 14:28:00.929133  1489 net.cpp:100] Creating Layer relu1
I1008 14:28:00.929139  1489 net.cpp:434] relu1 <- conv1
I1008 14:28:00.929147  1489 net.cpp:395] relu1 -> conv1 (in-place)
I1008 14:28:00.929157  1489 net.cpp:150] Setting up relu1
I1008 14:28:00.929163  1489 net.cpp:157] Top shape: 128 96 55 55 (37171200)
I1008 14:28:00.929167  1489 net.cpp:165] Memory required for data: 455667200
I1008 14:28:00.929172  1489 layer_factory.hpp:77] Creating layer pool1
I1008 14:28:00.929180  1489 net.cpp:100] Creating Layer pool1
I1008 14:28:00.929184  1489 net.cpp:434] pool1 <- conv1
I1008 14:28:00.929191  1489 net.cpp:408] pool1 -> pool1
I1008 14:28:00.929253  1489 net.cpp:150] Setting up pool1
I1008 14:28:00.929263  1489 net.cpp:157] Top shape: 128 96 27 27 (8957952)
I1008 14:28:00.929267  1489 net.cpp:165] Memory required for data: 491499008
I1008 14:28:00.929280  1489 layer_factory.hpp:77] Creating layer norm1
I1008 14:28:00.929291  1489 net.cpp:100] Creating Layer norm1
I1008 14:28:00.929296  1489 net.cpp:434] norm1 <- pool1
I1008 14:28:00.929302  1489 net.cpp:408] norm1 -> norm1
I1008 14:28:00.929340  1489 net.cpp:150] Setting up norm1
I1008 14:28:00.929371  1489 net.cpp:157] Top shape: 128 96 27 27 (8957952)
I1008 14:28:00.929395  1489 net.cpp:165] Memory required for data: 527330816
I1008 14:28:00.929400  1489 layer_factory.hpp:77] Creating layer conv2
I1008 14:28:00.929421  1489 net.cpp:100] Creating Layer conv2
I1008 14:28:00.929426  1489 net.cpp:434] conv2 <- norm1
I1008 14:28:00.929435  1489 net.cpp:408] conv2 -> conv2
I1008 14:28:00.940649  1489 net.cpp:150] Setting up conv2
I1008 14:28:00.940672  1489 net.cpp:157] Top shape: 128 256 27 27 (23887872)
I1008 14:28:00.940676  1489 net.cpp:165] Memory required for data: 622882304
I1008 14:28:00.940688  1489 layer_factory.hpp:77] Creating layer relu2
I1008 14:28:00.940698  1489 net.cpp:100] Creating Layer relu2
I1008 14:28:00.940703  1489 net.cpp:434] relu2 <- conv2
I1008 14:28:00.940711  1489 net.cpp:395] relu2 -> conv2 (in-place)
I1008 14:28:00.940719  1489 net.cpp:150] Setting up relu2
I1008 14:28:00.940726  1489 net.cpp:157] Top shape: 128 256 27 27 (23887872)
I1008 14:28:00.940728  1489 net.cpp:165] Memory required for data: 718433792
I1008 14:28:00.940732  1489 layer_factory.hpp:77] Creating layer pool2
I1008 14:28:00.940742  1489 net.cpp:100] Creating Layer pool2
I1008 14:28:00.940745  1489 net.cpp:434] pool2 <- conv2
I1008 14:28:00.940752  1489 net.cpp:408] pool2 -> pool2
I1008 14:28:00.940793  1489 net.cpp:150] Setting up pool2
I1008 14:28:00.940801  1489 net.cpp:157] Top shape: 128 256 13 13 (5537792)
I1008 14:28:00.940805  1489 net.cpp:165] Memory required for data: 740584960
I1008 14:28:00.940822  1489 layer_factory.hpp:77] Creating layer norm2
I1008 14:28:00.940831  1489 net.cpp:100] Creating Layer norm2
I1008 14:28:00.940836  1489 net.cpp:434] norm2 <- pool2
I1008 14:28:00.940842  1489 net.cpp:408] norm2 -> norm2
I1008 14:28:00.940876  1489 net.cpp:150] Setting up norm2
I1008 14:28:00.940883  1489 net.cpp:157] Top shape: 128 256 13 13 (5537792)
I1008 14:28:00.940888  1489 net.cpp:165] Memory required for data: 762736128
I1008 14:28:00.940891  1489 layer_factory.hpp:77] Creating layer conv3
I1008 14:28:00.940910  1489 net.cpp:100] Creating Layer conv3
I1008 14:28:00.940915  1489 net.cpp:434] conv3 <- norm2
I1008 14:28:00.940923  1489 net.cpp:408] conv3 -> conv3
I1008 14:28:00.965728  1489 net.cpp:150] Setting up conv3
I1008 14:28:00.965747  1489 net.cpp:157] Top shape: 128 384 13 13 (8306688)
I1008 14:28:00.965752  1489 net.cpp:165] Memory required for data: 795962880
I1008 14:28:00.965765  1489 layer_factory.hpp:77] Creating layer relu3
I1008 14:28:00.965773  1489 net.cpp:100] Creating Layer relu3
I1008 14:28:00.965778  1489 net.cpp:434] relu3 <- conv3
I1008 14:28:00.965785  1489 net.cpp:395] relu3 -> conv3 (in-place)
I1008 14:28:00.965795  1489 net.cpp:150] Setting up relu3
I1008 14:28:00.965800  1489 net.cpp:157] Top shape: 128 384 13 13 (8306688)
I1008 14:28:00.965803  1489 net.cpp:165] Memory required for data: 829189632
I1008 14:28:00.965807  1489 layer_factory.hpp:77] Creating layer conv4
I1008 14:28:00.965836  1489 net.cpp:100] Creating Layer conv4
I1008 14:28:00.965840  1489 net.cpp:434] conv4 <- conv3
I1008 14:28:00.965847  1489 net.cpp:408] conv4 -> conv4
I1008 14:28:00.984663  1489 net.cpp:150] Setting up conv4
I1008 14:28:00.984683  1489 net.cpp:157] Top shape: 128 384 13 13 (8306688)
I1008 14:28:00.984688  1489 net.cpp:165] Memory required for data: 862416384
I1008 14:28:00.984696  1489 layer_factory.hpp:77] Creating layer relu4
I1008 14:28:00.984704  1489 net.cpp:100] Creating Layer relu4
I1008 14:28:00.984710  1489 net.cpp:434] relu4 <- conv4
I1008 14:28:00.984717  1489 net.cpp:395] relu4 -> conv4 (in-place)
I1008 14:28:00.984725  1489 net.cpp:150] Setting up relu4
I1008 14:28:00.984730  1489 net.cpp:157] Top shape: 128 384 13 13 (8306688)
I1008 14:28:00.984735  1489 net.cpp:165] Memory required for data: 895643136
I1008 14:28:00.984740  1489 layer_factory.hpp:77] Creating layer conv5
I1008 14:28:00.984750  1489 net.cpp:100] Creating Layer conv5
I1008 14:28:00.984755  1489 net.cpp:434] conv5 <- conv4
I1008 14:28:00.984763  1489 net.cpp:408] conv5 -> conv5
I1008 14:28:00.997694  1489 net.cpp:150] Setting up conv5
I1008 14:28:00.997727  1489 net.cpp:157] Top shape: 128 256 13 13 (5537792)
I1008 14:28:00.997732  1489 net.cpp:165] Memory required for data: 917794304
I1008 14:28:00.997745  1489 layer_factory.hpp:77] Creating layer relu5
I1008 14:28:00.997752  1489 net.cpp:100] Creating Layer relu5
I1008 14:28:00.997761  1489 net.cpp:434] relu5 <- conv5
I1008 14:28:00.997768  1489 net.cpp:395] relu5 -> conv5 (in-place)
I1008 14:28:00.997777  1489 net.cpp:150] Setting up relu5
I1008 14:28:00.997782  1489 net.cpp:157] Top shape: 128 256 13 13 (5537792)
I1008 14:28:00.997787  1489 net.cpp:165] Memory required for data: 939945472
I1008 14:28:00.997804  1489 layer_factory.hpp:77] Creating layer pool5
I1008 14:28:00.997822  1489 net.cpp:100] Creating Layer pool5
I1008 14:28:00.997828  1489 net.cpp:434] pool5 <- conv5
I1008 14:28:00.997834  1489 net.cpp:408] pool5 -> pool5
I1008 14:28:00.997875  1489 net.cpp:150] Setting up pool5
I1008 14:28:00.997884  1489 net.cpp:157] Top shape: 128 256 6 6 (1179648)
I1008 14:28:00.997889  1489 net.cpp:165] Memory required for data: 944664064
I1008 14:28:00.997892  1489 layer_factory.hpp:77] Creating layer fc6
I1008 14:28:00.997901  1489 net.cpp:100] Creating Layer fc6
I1008 14:28:00.997906  1489 net.cpp:434] fc6 <- pool5
I1008 14:28:00.997913  1489 net.cpp:408] fc6 -> fc6
I1008 14:28:02.058650  1489 net.cpp:150] Setting up fc6
I1008 14:28:02.058715  1489 net.cpp:157] Top shape: 128 4096 (524288)
I1008 14:28:02.058723  1489 net.cpp:165] Memory required for data: 946761216
I1008 14:28:02.058737  1489 layer_factory.hpp:77] Creating layer relu6
I1008 14:28:02.058756  1489 net.cpp:100] Creating Layer relu6
I1008 14:28:02.058764  1489 net.cpp:434] relu6 <- fc6
I1008 14:28:02.058776  1489 net.cpp:395] relu6 -> fc6 (in-place)
I1008 14:28:02.058791  1489 net.cpp:150] Setting up relu6
I1008 14:28:02.058796  1489 net.cpp:157] Top shape: 128 4096 (524288)
I1008 14:28:02.058801  1489 net.cpp:165] Memory required for data: 948858368
I1008 14:28:02.058806  1489 layer_factory.hpp:77] Creating layer drop6
I1008 14:28:02.058820  1489 net.cpp:100] Creating Layer drop6
I1008 14:28:02.058825  1489 net.cpp:434] drop6 <- fc6
I1008 14:28:02.058831  1489 net.cpp:395] drop6 -> fc6 (in-place)
I1008 14:28:02.058863  1489 net.cpp:150] Setting up drop6
I1008 14:28:02.058871  1489 net.cpp:157] Top shape: 128 4096 (524288)
I1008 14:28:02.058876  1489 net.cpp:165] Memory required for data: 950955520
I1008 14:28:02.058882  1489 layer_factory.hpp:77] Creating layer fc7
I1008 14:28:02.058895  1489 net.cpp:100] Creating Layer fc7
I1008 14:28:02.058900  1489 net.cpp:434] fc7 <- fc6
I1008 14:28:02.058909  1489 net.cpp:408] fc7 -> fc7
I1008 14:28:02.448282  1489 net.cpp:150] Setting up fc7
I1008 14:28:02.448343  1489 net.cpp:157] Top shape: 128 4096 (524288)
I1008 14:28:02.448348  1489 net.cpp:165] Memory required for data: 953052672
I1008 14:28:02.448359  1489 layer_factory.hpp:77] Creating layer relu7
I1008 14:28:02.448375  1489 net.cpp:100] Creating Layer relu7
I1008 14:28:02.448382  1489 net.cpp:434] relu7 <- fc7
I1008 14:28:02.448391  1489 net.cpp:395] relu7 -> fc7 (in-place)
I1008 14:28:02.448405  1489 net.cpp:150] Setting up relu7
I1008 14:28:02.448408  1489 net.cpp:157] Top shape: 128 4096 (524288)
I1008 14:28:02.448412  1489 net.cpp:165] Memory required for data: 955149824
I1008 14:28:02.448416  1489 layer_factory.hpp:77] Creating layer drop7
I1008 14:28:02.448427  1489 net.cpp:100] Creating Layer drop7
I1008 14:28:02.448431  1489 net.cpp:434] drop7 <- fc7
I1008 14:28:02.448437  1489 net.cpp:395] drop7 -> fc7 (in-place)
I1008 14:28:02.448456  1489 net.cpp:150] Setting up drop7
I1008 14:28:02.448462  1489 net.cpp:157] Top shape: 128 4096 (524288)
I1008 14:28:02.448464  1489 net.cpp:165] Memory required for data: 957246976
I1008 14:28:02.448469  1489 layer_factory.hpp:77] Creating layer fc8_new
I1008 14:28:02.448479  1489 net.cpp:100] Creating Layer fc8_new
I1008 14:28:02.448482  1489 net.cpp:434] fc8_new <- fc7
I1008 14:28:02.448490  1489 net.cpp:408] fc8_new -> fc8
I1008 14:28:02.451093  1489 net.cpp:150] Setting up fc8_new
I1008 14:28:02.451124  1489 net.cpp:157] Top shape: 128 31 (3968)
I1008 14:28:02.451128  1489 net.cpp:165] Memory required for data: 957262848
I1008 14:28:02.451134  1489 layer_factory.hpp:77] Creating layer fc8_fc8_new_0_split
I1008 14:28:02.451143  1489 net.cpp:100] Creating Layer fc8_fc8_new_0_split
I1008 14:28:02.451151  1489 net.cpp:434] fc8_fc8_new_0_split <- fc8
I1008 14:28:02.451159  1489 net.cpp:408] fc8_fc8_new_0_split -> fc8_fc8_new_0_split_0
I1008 14:28:02.451166  1489 net.cpp:408] fc8_fc8_new_0_split -> fc8_fc8_new_0_split_1
I1008 14:28:02.451195  1489 net.cpp:150] Setting up fc8_fc8_new_0_split
I1008 14:28:02.451201  1489 net.cpp:157] Top shape: 128 31 (3968)
I1008 14:28:02.451206  1489 net.cpp:157] Top shape: 128 31 (3968)
I1008 14:28:02.451210  1489 net.cpp:165] Memory required for data: 957294592
I1008 14:28:02.451212  1489 layer_factory.hpp:77] Creating layer slice_fc8
I1008 14:28:02.451225  1489 net.cpp:100] Creating Layer slice_fc8
I1008 14:28:02.451227  1489 net.cpp:434] slice_fc8 <- fc8_fc8_new_0_split_0
I1008 14:28:02.451233  1489 net.cpp:408] slice_fc8 -> fc8_source
I1008 14:28:02.451249  1489 net.cpp:408] slice_fc8 -> fc8_target
I1008 14:28:02.451280  1489 net.cpp:150] Setting up slice_fc8
I1008 14:28:02.451287  1489 net.cpp:157] Top shape: 64 31 (1984)
I1008 14:28:02.451292  1489 net.cpp:157] Top shape: 64 31 (1984)
I1008 14:28:02.451294  1489 net.cpp:165] Memory required for data: 957310464
I1008 14:28:02.451298  1489 layer_factory.hpp:77] Creating layer softmax_loss
I1008 14:28:02.451305  1489 net.cpp:100] Creating Layer softmax_loss
I1008 14:28:02.451309  1489 net.cpp:434] softmax_loss <- fc8_source
I1008 14:28:02.451314  1489 net.cpp:434] softmax_loss <- source_label
I1008 14:28:02.451320  1489 net.cpp:408] softmax_loss -> softmax_loss
…
I1008 14:28:02.451464  1489 net.cpp:434] silence_fc8_target <- fc8_target
I1008 14:28:02.451469  1489 net.cpp:150] Setting up silence_fc8_target
I1008 14:28:02.451472  1489 net.cpp:165] Memory required for data: 957310468
I1008 14:28:02.451477  1489 layer_factory.hpp:77] Creating layer fc8_softmax
I1008 14:28:02.451484  1489 net.cpp:100] Creating Layer fc8_softmax
I1008 14:28:02.451488  1489 net.cpp:434] fc8_softmax <- fc8_fc8_new_0_split_1
I1008 14:28:02.451493  1489 net.cpp:408] fc8_softmax -> fc8_softmax
I1008 14:28:02.451539  1489 net.cpp:150] Setting up fc8_softmax
I1008 14:28:02.451547  1489 net.cpp:157] Top shape: 128 31 (3968)
I1008 14:28:02.451550  1489 net.cpp:165] Memory required for data: 957326340
I1008 14:28:02.451555  1489 layer_factory.hpp:77] Creating layer slice_softmax
I1008 14:28:02.451565  1489 net.cpp:100] Creating Layer slice_softmax
I1008 14:28:02.451568  1489 net.cpp:434] slice_softmax <- fc8_softmax
I1008 14:28:02.451575  1489 net.cpp:408] slice_softmax -> source_softmax
I1008 14:28:02.451581  1489 net.cpp:408] slice_softmax -> target_softmax
I1008 14:28:02.451608  1489 net.cpp:150] Setting up slice_softmax
I1008 14:28:02.451614  1489 net.cpp:157] Top shape: 64 31 (1984)
I1008 14:28:02.451618  1489 net.cpp:157] Top shape: 64 31 (1984)
I1008 14:28:02.451622  1489 net.cpp:165] Memory required for data: 957342212
I1008 14:28:02.451625  1489 layer_factory.hpp:77] Creating layer source_softmax_slice_softmax_0_split
I1008 14:28:02.451637  1489 net.cpp:100] Creating Layer source_softmax_slice_softmax_0_split
I1008 14:28:02.451640  1489 net.cpp:434] source_softmax_slice_softmax_0_split <- source_softmax
I1008 14:28:02.451647  1489 net.cpp:408] source_softmax_slice_softmax_0_split -> source_softmax_slice_softmax_0_split_0
I1008 14:28:02.451660  1489 net.cpp:408] source_softmax_slice_softmax_0_split -> source_softmax_slice_softmax_0_split_1
I1008 14:28:02.451696  1489 net.cpp:150] Setting up source_softmax_slice_softmax_0_split
I1008 14:28:02.451704  1489 net.cpp:157] Top shape: 64 31 (1984)
I1008 14:28:02.451707  1489 net.cpp:157] Top shape: 64 31 (1984)
I1008 14:28:02.451710  1489 net.cpp:165] Memory required for data: 957358084
I1008 14:28:02.451714  1489 layer_factory.hpp:77] Creating layer target_softmax_slice_softmax_1_split
I1008 14:28:02.451720  1489 net.cpp:100] Creating Layer target_softmax_slice_softmax_1_split
I1008 14:28:02.451725  1489 net.cpp:434] target_softmax_slice_softmax_1_split <- target_softmax
I1008 14:28:02.451731  1489 net.cpp:408] target_softmax_slice_softmax_1_split -> target_softmax_slice_softmax_1_split_0
I1008 14:28:02.451737  1489 net.cpp:408] target_softmax_slice_softmax_1_split -> target_softmax_slice_softmax_1_split_1
I1008 14:28:02.451761  1489 net.cpp:150] Setting up target_softmax_slice_softmax_1_split
I1008 14:28:02.451767  1489 net.cpp:157] Top shape: 64 31 (1984)
I1008 14:28:02.451772  1489 net.cpp:157] Top shape: 64 31 (1984)
I1008 14:28:02.451776  1489 net.cpp:165] Memory required for data: 957373956
I1008 14:28:02.451778  1489 layer_factory.hpp:77] Creating layer jmmd_loss
I1008 14:28:02.451788  1489 net.cpp:100] Creating Layer jmmd_loss
I1008 14:28:02.451792  1489 net.cpp:434] jmmd_loss <- source_softmax_slice_softmax_0_split_0
I1008 14:28:02.451797  1489 net.cpp:434] jmmd_loss <- target_softmax_slice_softmax_1_split_0
…
I1008 14:28:02.453014  1489 net.cpp:322] The NetState phase (1) differed from the phase (0) specified by a rule in layer silence_jmmd_loss
I1008 14:28:02.453236  1489 net.cpp:58] Initializing net from parameters: 
name: "webcam_to_amazon"
state {
  phase: TEST
}
layer {
  name: "test_data"
  type: "ImageData"
  top: "data"
  top: "label"
  include {
    phase: TEST
  }
  transform_param {
    mirror: false
    crop_size: 227
    mean_file: "./data/ilsvrc12/imagenet_mean.binaryproto"
  }
  image_data_param {
    source: "./data/office/amazon_list.txt"
    batch_size: 1
    shuffle: false
    new_height: 256
    new_width: 256
  }
}
layer {
  name: "conv1"
  type: "Convolution"
  bottom: "data"
  top: "conv1"
  param {
    lr_mult: 0
    decay_mult: 1
  }
  param {
    lr_mult: 0
    decay_mult: 0
  }
  convolution_param {
    num_output: 96
    kernel_size: 11
    stride: 4
    weight_filler {
      type: "gaussian"
      std: 0.01
    }
    bias_filler {
      type: "constant"
      value: 0
    }
  }
}
layer {
  name: "relu1"
  type: "ReLU"
  bottom: "conv1"
  top: "conv1"
}
layer {
  name: "pool1"
  type: "Pooling"
  bottom: "conv1"
  top: "pool1"
  pooling_param {
    pool: MAX
    kernel_size: 3
    stride: 2
  }
}
layer {
  name: "norm1"
  type: "LRN"
  bottom: "pool1"
  top: "norm1"
  lrn_param {
    local_size: 5
    alpha: 0.0001
    beta: 0.75
  }
}
layer {
  name: "conv2"
  type: "Convolution"
  bottom: "norm1"
  top: "conv2"
  param {
    lr_mult: 0
    decay_mult: 1
  }
  param {
    lr_mult: 0
    decay_mult: 0
  }
  convolution_param {
    num_output: 256
    pad: 2
    kernel_size: 5
    group: 2
    weight_filler {
      type: "gaussian"
      std: 0.01
    }
    bias_filler {
      type: "constant"
      value: 1
    }
  }
}
layer {
  name: "relu2"
  type: "ReLU"
  bottom: "conv2"
  top: "conv2"
}
layer {
  name: "pool2"
  type: "Pooling"
  bottom: "conv2"
  top: "pool2"
  pooling_param {
    pool: MAX
    kernel_size: 3
    stride: 2
  }
}
layer {
  name: "norm2"
  type: "LRN"
  bottom: "pool2"
  top: "norm2"
  lrn_param {
    local_size: 5
    alpha: 0.0001
    beta: 0.75
  }
}
layer {
  name: "conv3"
  type: "Convolution"
  bottom: "norm2"
  top: "conv3"
  param {
    lr_mult: 0.1
    decay_mult: 1
  }
  param {
    lr_mult: 0.2
    decay_mult: 0
  }
  convolution_param {
    num_output: 384
    pad: 1
    kernel_size: 3
    weight_filler {
      type: "gaussian"
      std: 0.01
    }
    bias_filler {
      type: "constant"
      value: 0
    }
  }
}
layer {
  name: "relu3"
  type: "ReLU"
  bottom: "conv3"
  top: "conv3"
}
layer {
  name: "conv4"
  type: "Convolution"
  bottom: "conv3"
  top: "conv4"
  param {
    lr_mult: 0.1
    decay_mult: 1
  }
  param {
    lr_mult: 0.2
    decay_mult: 0
  }
  convolution_param {
    num_output: 384
    pad: 1
    kernel_size: 3
    group: 2
    weight_filler {
      type: "gaussian"
      std: 0.01
    }
    bias_filler {
      type: "constant"
      value: 1
    }
  }
}
layer {
  name: "relu4"
  type: "ReLU"
  bottom: "conv4"
  top: "conv4"
}
layer {
  name: "conv5"
  type: "Convolution"
  bottom: "conv4"
  top: "conv5"
  param {
    lr_mult: 0.1
    decay_mult: 1
  }
  param {
    lr_mult: 0.2
    decay_mult: 0
  }
  convolution_param {
    num_output: 256
    pad: 1
    kernel_size: 3
    group: 2
    weight_filler {
      type: "gaussian"
      std: 0.01
    }
    bias_filler {
      type: "constant"
      value: 1
    }
  }
}
layer {
  name: "relu5"
  type: "ReLU"
  bottom: "conv5"
  top: "conv5"
}
layer {
  name: "pool5"
  type: "Pooling"
  bottom: "conv5"
  top: "pool5"
  pooling_param {
    pool: MAX
    kernel_size: 3
    stride: 2
  }
}
layer {
  name: "fc6"
  type: "InnerProduct"
  bottom: "pool5"
  top: "fc6"
  param {
    lr_mult: 0.1
    decay_mult: 1
  }
  param {
    lr_mult: 0.2
    decay_mult: 0
  }
  inner_product_param {
    num_output: 4096
    weight_filler {
      type: "gaussian"
      std: 0.005
    }
    bias_filler {
      type: "constant"
      value: 1
    }
  }
}
layer {
  name: "relu6"
  type: "ReLU"
  bottom: "fc6"
  top: "fc6"
}
layer {
  name: "drop6"
  type: "Dropout"
  bottom: "fc6"
  top: "fc6"
  dropout_param {
    dropout_ratio: 0.5
  }
}
layer {
  name: "fc7"
  type: "InnerProduct"
  bottom: "fc6"
  top: "fc7"
  param {
    lr_mult: 0.1
    decay_mult: 1
  }
  param {
    lr_mult: 0.2
    decay_mult: 0
  }
  inner_product_param {
    num_output: 4096
    weight_filler {
      type: "gaussian"
      std: 0.005
    }
    bias_filler {
      type: "constant"
      value: 1
    }
  }
}
layer {
  name: "relu7"
  type: "ReLU"
  bottom: "fc7"
  top: "fc7"
}
layer {
  name: "drop7"
  type: "Dropout"
  bottom: "fc7"
  top: "fc7"
  dropout_param {
    dropout_ratio: 0.5
  }
}
layer {
  name: "fc8_new"
  type: "InnerProduct"
  bottom: "fc7"
  top: "fc8"
  param {
    lr_mult: 1
    decay_mult: 1
  }
  param {
    lr_mult: 2
    decay_mult: 0
  }
  inner_product_param {
    num_output: 31
    weight_filler {
      type: "gaussian"
      std: 0.01
    }
    bias_filler {
      type: "constant"
      value: 0
    }
  }
}
layer {
  name: "accuracy"
  type: "Accuracy"
  bottom: "fc8"
  bottom: "label"
  top: "accuracy"
  include {
    phase: TEST
  }
}
I1008 14:28:02.453317  1489 layer_factory.hpp:77] Creating layer test_data
I1008 14:28:02.453335  1489 net.cpp:100] Creating Layer test_data
I1008 14:28:02.453341  1489 net.cpp:408] test_data -> data
I1008 14:28:02.453348  1489 net.cpp:408] test_data -> label
I1008 14:28:02.453356  1489 data_transformer.cpp:25] Loading mean file from: ./data/ilsvrc12/imagenet_mean.binaryproto
I1008 14:28:02.455935  1489 image_data_layer.cpp:38] Opening file ./data/office/amazon_list.txt
I1008 14:28:02.456588  1489 image_data_layer.cpp:58] A total of 2817 images.
I1008 14:28:02.457732  1489 image_data_layer.cpp:85] output data size: 1,3,227,227
I1008 14:28:02.460263  1489 net.cpp:150] Setting up test_data
I1008 14:28:02.460278  1489 net.cpp:157] Top shape: 1 3 227 227 (154587)
I1008 14:28:02.460283  1489 net.cpp:157] Top shape: 1 (1)
I1008 14:28:02.460286  1489 net.cpp:165] Memory required for data: 618352
I1008 14:28:02.460290  1489 layer_factory.hpp:77] Creating layer conv1
I1008 14:28:02.460300  1489 net.cpp:100] Creating Layer conv1
I1008 14:28:02.460304  1489 net.cpp:434] conv1 <- data
I1008 14:28:02.460311  1489 net.cpp:408] conv1 -> conv1
I1008 14:28:02.461349  1489 net.cpp:150] Setting up conv1
I1008 14:28:02.461359  1489 net.cpp:157] Top shape: 1 96 55 55 (290400)
I1008 14:28:02.461362  1489 net.cpp:165] Memory required for data: 1779952
I1008 14:28:02.461371  1489 layer_factory.hpp:77] Creating layer relu1
I1008 14:28:02.461377  1489 net.cpp:100] Creating Layer relu1
I1008 14:28:02.461381  1489 net.cpp:434] relu1 <- conv1
I1008 14:28:02.461385  1489 net.cpp:395] relu1 -> conv1 (in-place)
I1008 14:28:02.461392  1489 net.cpp:150] Setting up relu1
I1008 14:28:02.461396  1489 net.cpp:157] Top shape: 1 96 55 55 (290400)
I1008 14:28:02.461400  1489 net.cpp:165] Memory required for data: 2941552
I1008 14:28:02.461402  1489 layer_factory.hpp:77] Creating layer pool1
I1008 14:28:02.461407  1489 net.cpp:100] Creating Layer pool1
I1008 14:28:02.461411  1489 net.cpp:434] pool1 <- conv1
I1008 14:28:02.461416  1489 net.cpp:408] pool1 -> pool1
I1008 14:28:02.461446  1489 net.cpp:150] Setting up pool1
I1008 14:28:02.461452  1489 net.cpp:157] Top shape: 1 96 27 27 (69984)
I1008 14:28:02.461455  1489 net.cpp:165] Memory required for data: 3221488
I1008 14:28:02.461458  1489 layer_factory.hpp:77] Creating layer norm1
I1008 14:28:02.461464  1489 net.cpp:100] Creating Layer norm1
I1008 14:28:02.461468  1489 net.cpp:434] norm1 <- pool1
I1008 14:28:02.461472  1489 net.cpp:408] norm1 -> norm1
I1008 14:28:02.461498  1489 net.cpp:150] Setting up norm1
I1008 14:28:02.461504  1489 net.cpp:157] Top shape: 1 96 27 27 (69984)
I1008 14:28:02.461508  1489 net.cpp:165] Memory required for data: 3501424
I1008 14:28:02.461511  1489 layer_factory.hpp:77] Creating layer conv2
I1008 14:28:02.461519  1489 net.cpp:100] Creating Layer conv2
I1008 14:28:02.461522  1489 net.cpp:434] conv2 <- norm1
I1008 14:28:02.461527  1489 net.cpp:408] conv2 -> conv2
I1008 14:28:02.467514  1489 net.cpp:150] Setting up conv2
I1008 14:28:02.467525  1489 net.cpp:157] Top shape: 1 256 27 27 (186624)
I1008 14:28:02.467537  1489 net.cpp:165] Memory required for data: 4247920
I1008 14:28:02.467553  1489 layer_factory.hpp:77] Creating layer relu2
I1008 14:28:02.467559  1489 net.cpp:100] Creating Layer relu2
I1008 14:28:02.467563  1489 net.cpp:434] relu2 <- conv2
I1008 14:28:02.467567  1489 net.cpp:395] relu2 -> conv2 (in-place)
I1008 14:28:02.467574  1489 net.cpp:150] Setting up relu2
I1008 14:28:02.467578  1489 net.cpp:157] Top shape: 1 256 27 27 (186624)
I1008 14:28:02.467581  1489 net.cpp:165] Memory required for data: 4994416
I1008 14:28:02.467584  1489 layer_factory.hpp:77] Creating layer pool2
I1008 14:28:02.467589  1489 net.cpp:100] Creating Layer pool2
I1008 14:28:02.467593  1489 net.cpp:434] pool2 <- conv2
I1008 14:28:02.467597  1489 net.cpp:408] pool2 -> pool2
I1008 14:28:02.467627  1489 net.cpp:150] Setting up pool2
I1008 14:28:02.467633  1489 net.cpp:157] Top shape: 1 256 13 13 (43264)
I1008 14:28:02.467636  1489 net.cpp:165] Memory required for data: 5167472
I1008 14:28:02.467639  1489 layer_factory.hpp:77] Creating layer norm2
I1008 14:28:02.467645  1489 net.cpp:100] Creating Layer norm2
I1008 14:28:02.467649  1489 net.cpp:434] norm2 <- pool2
I1008 14:28:02.467653  1489 net.cpp:408] norm2 -> norm2
I1008 14:28:02.467679  1489 net.cpp:150] Setting up norm2
I1008 14:28:02.467684  1489 net.cpp:157] Top shape: 1 256 13 13 (43264)
I1008 14:28:02.467687  1489 net.cpp:165] Memory required for data: 5340528
I1008 14:28:02.467690  1489 layer_factory.hpp:77] Creating layer conv3
I1008 14:28:02.467697  1489 net.cpp:100] Creating Layer conv3
I1008 14:28:02.467701  1489 net.cpp:434] conv3 <- norm2
I1008 14:28:02.467706  1489 net.cpp:408] conv3 -> conv3
I1008 14:28:02.486290  1489 net.cpp:150] Setting up conv3
I1008 14:28:02.486306  1489 net.cpp:157] Top shape: 1 384 13 13 (64896)
I1008 14:28:02.486310  1489 net.cpp:165] Memory required for data: 5600112
I1008 14:28:02.486318  1489 layer_factory.hpp:77] Creating layer relu3
I1008 14:28:02.486325  1489 net.cpp:100] Creating Layer relu3
I1008 14:28:02.486328  1489 net.cpp:434] relu3 <- conv3
I1008 14:28:02.486332  1489 net.cpp:395] relu3 -> conv3 (in-place)
I1008 14:28:02.486340  1489 net.cpp:150] Setting up relu3
I1008 14:28:02.486343  1489 net.cpp:157] Top shape: 1 384 13 13 (64896)
I1008 14:28:02.486346  1489 net.cpp:165] Memory required for data: 5859696
I1008 14:28:02.486349  1489 layer_factory.hpp:77] Creating layer conv4
I1008 14:28:02.486357  1489 net.cpp:100] Creating Layer conv4
I1008 14:28:02.486361  1489 net.cpp:434] conv4 <- conv3
I1008 14:28:02.486366  1489 net.cpp:408] conv4 -> conv4
I1008 14:28:02.500533  1489 net.cpp:150] Setting up conv4
I1008 14:28:02.500548  1489 net.cpp:157] Top shape: 1 384 13 13 (64896)
I1008 14:28:02.500552  1489 net.cpp:165] Memory required for data: 6119280
I1008 14:28:02.500558  1489 layer_factory.hpp:77] Creating layer relu4
I1008 14:28:02.500564  1489 net.cpp:100] Creating Layer relu4
I1008 14:28:02.500568  1489 net.cpp:434] relu4 <- conv4
I1008 14:28:02.500573  1489 net.cpp:395] relu4 -> conv4 (in-place)
I1008 14:28:02.500579  1489 net.cpp:150] Setting up relu4
I1008 14:28:02.500583  1489 net.cpp:157] Top shape: 1 384 13 13 (64896)
I1008 14:28:02.500586  1489 net.cpp:165] Memory required for data: 6378864
I1008 14:28:02.500591  1489 layer_factory.hpp:77] Creating layer conv5
I1008 14:28:02.500597  1489 net.cpp:100] Creating Layer conv5
I1008 14:28:02.500600  1489 net.cpp:434] conv5 <- conv4
I1008 14:28:02.500607  1489 net.cpp:408] conv5 -> conv5
I1008 14:28:02.510381  1489 net.cpp:150] Setting up conv5
I1008 14:28:02.510396  1489 net.cpp:157] Top shape: 1 256 13 13 (43264)
I1008 14:28:02.510399  1489 net.cpp:165] Memory required for data: 6551920
I1008 14:28:02.510408  1489 layer_factory.hpp:77] Creating layer relu5
I1008 14:28:02.510414  1489 net.cpp:100] Creating Layer relu5
I1008 14:28:02.510417  1489 net.cpp:434] relu5 <- conv5
I1008 14:28:02.510422  1489 net.cpp:395] relu5 -> conv5 (in-place)
I1008 14:28:02.510429  1489 net.cpp:150] Setting up relu5
I1008 14:28:02.510433  1489 net.cpp:157] Top shape: 1 256 13 13 (43264)
I1008 14:28:02.510443  1489 net.cpp:165] Memory required for data: 6724976
I1008 14:28:02.510454  1489 layer_factory.hpp:77] Creating layer pool5
I1008 14:28:02.510460  1489 net.cpp:100] Creating Layer pool5
I1008 14:28:02.510464  1489 net.cpp:434] pool5 <- conv5
I1008 14:28:02.510468  1489 net.cpp:408] pool5 -> pool5
I1008 14:28:02.510499  1489 net.cpp:150] Setting up pool5
I1008 14:28:02.510506  1489 net.cpp:157] Top shape: 1 256 6 6 (9216)
I1008 14:28:02.510509  1489 net.cpp:165] Memory required for data: 6761840
I1008 14:28:02.510512  1489 layer_factory.hpp:77] Creating layer fc6
I1008 14:28:02.510519  1489 net.cpp:100] Creating Layer fc6
I1008 14:28:02.510524  1489 net.cpp:434] fc6 <- pool5
I1008 14:28:02.510529  1489 net.cpp:408] fc6 -> fc6
I1008 14:28:03.294999  1489 net.cpp:150] Setting up fc6
I1008 14:28:03.295055  1489 net.cpp:157] Top shape: 1 4096 (4096)
I1008 14:28:03.295060  1489 net.cpp:165] Memory required for data: 6778224
I1008 14:28:03.295071  1489 layer_factory.hpp:77] Creating layer relu6
I1008 14:28:03.295084  1489 net.cpp:100] Creating Layer relu6
I1008 14:28:03.295090  1489 net.cpp:434] relu6 <- fc6
I1008 14:28:03.295100  1489 net.cpp:395] relu6 -> fc6 (in-place)
I1008 14:28:03.295111  1489 net.cpp:150] Setting up relu6
I1008 14:28:03.295115  1489 net.cpp:157] Top shape: 1 4096 (4096)
I1008 14:28:03.295120  1489 net.cpp:165] Memory required for data: 6794608
I1008 14:28:03.295122  1489 layer_factory.hpp:77] Creating layer drop6
I1008 14:28:03.295132  1489 net.cpp:100] Creating Layer drop6
I1008 14:28:03.295135  1489 net.cpp:434] drop6 <- fc6
I1008 14:28:03.295140  1489 net.cpp:395] drop6 -> fc6 (in-place)
I1008 14:28:03.295169  1489 net.cpp:150] Setting up drop6
I1008 14:28:03.295177  1489 net.cpp:157] Top shape: 1 4096 (4096)
I1008 14:28:03.295181  1489 net.cpp:165] Memory required for data: 6810992
I1008 14:28:03.295184  1489 layer_factory.hpp:77] Creating layer fc7
I1008 14:28:03.295195  1489 net.cpp:100] Creating Layer fc7
I1008 14:28:03.295199  1489 net.cpp:434] fc7 <- fc6
I1008 14:28:03.295207  1489 net.cpp:408] fc7 -> fc7
I1008 14:28:03.644207  1489 net.cpp:150] Setting up fc7
I1008 14:28:03.644265  1489 net.cpp:157] Top shape: 1 4096 (4096)
I1008 14:28:03.644269  1489 net.cpp:165] Memory required for data: 6827376
I1008 14:28:03.644281  1489 layer_factory.hpp:77] Creating layer relu7
I1008 14:28:03.644294  1489 net.cpp:100] Creating Layer relu7
I1008 14:28:03.644300  1489 net.cpp:434] relu7 <- fc7
I1008 14:28:03.644309  1489 net.cpp:395] relu7 -> fc7 (in-place)
I1008 14:28:03.644321  1489 net.cpp:150] Setting up relu7
I1008 14:28:03.644326  1489 net.cpp:157] Top shape: 1 4096 (4096)
I1008 14:28:03.644330  1489 net.cpp:165] Memory required for data: 6843760
I1008 14:28:03.644333  1489 layer_factory.hpp:77] Creating layer drop7
I1008 14:28:03.644342  1489 net.cpp:100] Creating Layer drop7
I1008 14:28:03.644345  1489 net.cpp:434] drop7 <- fc7
I1008 14:28:03.644351  1489 net.cpp:395] drop7 -> fc7 (in-place)
I1008 14:28:03.644376  1489 net.cpp:150] Setting up drop7
I1008 14:28:03.644383  1489 net.cpp:157] Top shape: 1 4096 (4096)
I1008 14:28:03.644387  1489 net.cpp:165] Memory required for data: 6860144
I1008 14:28:03.644390  1489 layer_factory.hpp:77] Creating layer fc8_new
I1008 14:28:03.644400  1489 net.cpp:100] Creating Layer fc8_new
I1008 14:28:03.644403  1489 net.cpp:434] fc8_new <- fc7
I1008 14:28:03.644409  1489 net.cpp:408] fc8_new -> fc8
I1008 14:28:03.646958  1489 net.cpp:150] Setting up fc8_new
I1008 14:28:03.646967  1489 net.cpp:157] Top shape: 1 31 (31)
I1008 14:28:03.646970  1489 net.cpp:165] Memory required for data: 6860268
I1008 14:28:03.646976  1489 layer_factory.hpp:77] Creating layer accuracy
I1008 14:28:03.646986  1489 net.cpp:100] Creating Layer accuracy
I1008 14:28:03.646989  1489 net.cpp:434] accuracy <- fc8
I1008 14:28:03.646993  1489 net.cpp:434] accuracy <- label
I1008 14:28:03.647001  1489 net.cpp:408] accuracy -> accuracy
…
