…
    mean_file: "./data/ilsvrc12/imagenet_mean.binaryproto"
  }
  image_data_param {
    source: "./data/office/dslr_list.txt"
    batch_size: 64
    shuffle: true
    new_height: 256
    new_width: 256
  }
}
layer {
  name: "target_data"
  type: "ImageData"
  top: "target_data"
  top: "target_label"
  include {
    phase: TRAIN
  }
  transform_param {
    mirror: true
    crop_size: 227
    mean_file: "./data/ilsvrc12/imagenet_mean.binaryproto"
  }
  image_data_param {
    source: "./data/office/amazon_list.txt"
    batch_size: 64
    shuffle: true
    new_height: 256
    new_width: 256
  }
}
layer {
  name: "target_label_silence"
  type: "Silence"
  bottom: "target_label"
  include {
    phase: TRAIN
  }
}
layer {
  name: "data"
  type: "Concat"
  bottom: "source_data"
  bottom: "target_data"
  top: "data"
  include {
    phase: TRAIN
  }
  concat_param {
    axis: 0
  }
}
layer {
  name: "conv1"
  type: "Convolution"
  bottom: "data"
  top: "conv1"
  param {
    lr_mult: 0
    decay_mult: 1
  }
  param {
    lr_mult: 0
    decay_mult: 0
  }
  convolution_param {
    num_output: 96
    kernel_size: 11
    stride: 4
    weight_filler {
      type: "gaussian"
      std: 0.01
    }
    bias_filler {
      type: "constant"
      value: 0
    }
  }
}
layer {
  name: "relu1"
  type: "ReLU"
  bottom: "conv1"
  top: "conv1"
}
layer {
  name: "pool1"
  type: "Pooling"
  bottom: "conv1"
  top: "pool1"
  pooling_param {
    pool: MAX
    kernel_size: 3
    stride: 2
  }
}
layer {
  name: "norm1"
  type: "LRN"
  bottom: "pool1"
  top: "norm1"
  lrn_param {
    local_size: 5
    alpha: 0.0001
    beta: 0.75
  }
}
layer {
  name: "conv2"
  type: "Convolution"
  bottom: "norm1"
  top: "conv2"
  param {
    lr_mult: 0
    decay_mult: 1
  }
  param {
    lr_mult: 0
    decay_mult: 0
  }
  convolution_param {
    num_output: 256
    pad: 2
    kernel_size: 5
    group: 2
    weight_filler {
      type: "gaussian"
      std: 0.01
    }
    bias_filler {
      type: "constant"
      value: 1
    }
  }
}
layer {
  name: "relu2"
  type: "ReLU"
  bottom: "conv2"
  top: "conv2"
}
layer {
  name: "pool2"
  type: "Pooling"
  bottom: "conv2"
  top: "pool2"
  pooling_param {
    pool: MAX
    kernel_size: 3
    stride: 2
  }
}
layer {
  name: "norm2"
  type: "LRN"
  bottom: "pool2"
  top: "norm2"
  lrn_param {
    local_size: 5
    alpha: 0.0001
    beta: 0.75
  }
}
layer {
  name: "conv3"
  type: "Convolution"
  bottom: "norm2"
  top: "conv3"
  param {
    lr_mult: 0.1
    decay_mult: 1
  }
  param {
    lr_mult: 0.2
    decay_mult: 0
  }
  convolution_param {
    num_output: 384
    pad: 1
    kernel_size: 3
    weight_filler {
      type: "gaussian"
      std: 0.01
    }
    bias_filler {
      type: "constant"
      value: 0
    }
  }
}
layer {
  name: "relu3"
  type: "ReLU"
  bottom: "conv3"
  top: "conv3"
}
layer {
  name: "conv4"
  type: "Convolution"
  bottom: "conv3"
  top: "conv4"
  param {
    lr_mult: 0.1
    decay_mult: 1
  }
  param {
    lr_mult: 0.2
    decay_mult: 0
  }
  convolution_param {
    num_output: 384
    pad: 1
    kernel_size: 3
    group: 2
    weight_filler {
      type: "gaussian"
      std: 0.01
    }
    bias_filler {
      type: "constant"
      value: 1
    }
  }
}
layer {
  name: "relu4"
  type: "ReLU"
  bottom: "conv4"
  top: "conv4"
}
layer {
  name: "conv5"
  type: "Convolution"
  bottom: "conv4"
  top: "conv5"
  param {
    lr_mult: 0.1
    decay_mult: 1
  }
  param {
    lr_mult: 0.2
    decay_mult: 0
  }
  convolution_param {
    num_output: 256
    pad: 1
    kernel_size: 3
    group: 2
    weight_filler {
      type: "gaussian"
      std: 0.01
    }
    bias_filler {
      type: "constant"
      value: 1
    }
  }
}
layer {
  name: "relu5"
  type: "ReLU"
  bottom: "conv5"
  top: "conv5"
}
layer {
  name: "pool5"
  type: "Pooling"
  bottom: "conv5"
  top: "pool5"
  pooling_param {
    pool: MAX
    kernel_size: 3
    stride: 2
  }
}
layer {
  name: "fc6"
  type: "InnerProduct"
  bottom: "pool5"
  top: "fc6"
  param {
    lr_mult: 0.1
    decay_mult: 1
  }
  param {
    lr_mult: 0.2
    decay_mult: 0
  }
  inner_product_param {
    num_output: 4096
    weight_filler {
      type: "gaussian"
      std: 0.005
    }
    bias_filler {
      type: "constant"
      value: 1
    }
  }
}
layer {
  name: "relu6"
  type: "ReLU"
  bottom: "fc6"
  top: "fc6"
}
layer {
  name: "drop6"
  type: "Dropout"
  bottom: "fc6"
  top: "fc6"
  dropout_param {
    dropout_ratio: 0.5
  }
}
layer {
  name: "fc7"
  type: "InnerProduct"
  bottom: "fc6"
  top: "fc7"
  param {
    lr_mult: 0.1
    decay_mult: 1
  }
  param {
    lr_mult: 0.2
    decay_mult: 0
  }
  inner_product_param {
    num_output: 4096
    weight_filler {
      type: "gaussian"
      std: 0.005
    }
    bias_filler {
      type: "constant"
      value: 1
    }
  }
}
layer {
  name: "relu7"
  type: "ReLU"
  bottom: "fc7"
  top: "fc7"
}
layer {
  name: "drop7"
  type: "Dropout"
  bottom: "fc7"
  top: "fc7"
  dropout_param {
    dropout_ratio: 0.5
  }
}
layer {
  name: "fc8_new"
  type: "InnerProduct"
  bottom: "fc7"
  top: "fc8"
  param {
    lr_mult: 1
    decay_mult: 1
  }
  param {
    lr_mult: 2
    decay_mult: 0
  }
  inner_product_param {
    num_output: 31
    weight_filler {
      type: "gaussian"
      std: 0.01
    }
    bias_filler {
      type: "constant"
      value: 0
    }
  }
}
layer {
  name: "slice_fc8"
  type: "Slice"
  bottom: "fc8"
  top: "fc8_source"
  top: "fc8_target"
  include {
    phase: TRAIN
  }
  slice_param {
    slice_dim: 0
  }
}
layer {
  name: "silence"
  type: "Silence"
  bottom: "fc8_target"
  include {
    phase: TRAIN
  }
}
layer {
  name: "softmax_loss"
  type: "SoftmaxWithLoss"
  bottom: "fc8_source"
  bottom: "source_label"
  top: "softmax_loss"
  include {
    phase: TRAIN
  }
}
layer {
  name: "fc8_softmax"
  type: "Softmax"
  bottom: "fc8"
  top: "fc8_softmax"
  include {
    phase: TRAIN
  }
}
layer {
  name: "slice_softmax"
  type: "Slice"
  bottom: "fc8_softmax"
  top: "source_softmax"
  top: "target_softmax"
  include {
    phase: TRAIN
  }
  slice_param {
    slice_dim: 0
  }
}
layer {
  name: "jmmd_loss"
  type: "JMMDLoss"
  bottom: "source_softmax"
  bottom: "target_softmax"
  bottom: "source_softmax"
  bottom: "target_softmax"
  top: "jmmd_loss"
  loss_weight: 0.3
  include {
    phase: TRAIN
  }
}
layer {
  name: "silence_loss_value"
  type: "Silence"
  bottom: "jmmd_loss"
  include {
    phase: TRAIN
  }
}
I1007 05:14:56.449944 13601 layer_factory.hpp:77] Creating layer source_data
I1007 05:14:56.450006 13601 net.cpp:100] Creating Layer source_data
I1007 05:14:56.450024 13601 net.cpp:408] source_data -> source_data
I1007 05:14:56.450064 13601 net.cpp:408] source_data -> source_label
I1007 05:14:56.450086 13601 data_transformer.cpp:25] Loading mean file from: ./data/ilsvrc12/imagenet_mean.binaryproto
I1007 05:14:56.492246 13601 image_data_layer.cpp:38] Opening file ./data/office/dslr_list.txt
I1007 05:14:56.492568 13601 image_data_layer.cpp:53] Shuffling data
I1007 05:14:56.492652 13601 image_data_layer.cpp:58] A total of 498 images.
I1007 05:14:57.051829 13601 image_data_layer.cpp:85] output data size: 64,3,227,227
I1007 05:14:57.137434 13601 net.cpp:150] Setting up source_data
I1007 05:14:57.137475 13601 net.cpp:157] Top shape: 64 3 227 227 (9893568)
I1007 05:14:57.137481 13601 net.cpp:157] Top shape: 64 (64)
I1007 05:14:57.137485 13601 net.cpp:165] Memory required for data: 39574528
I1007 05:14:57.137516 13601 layer_factory.hpp:77] Creating layer target_data
I1007 05:14:57.137594 13601 net.cpp:100] Creating Layer target_data
I1007 05:14:57.137603 13601 net.cpp:408] target_data -> target_data
I1007 05:14:57.137625 13601 net.cpp:408] target_data -> target_label
I1007 05:14:57.137634 13601 data_transformer.cpp:25] Loading mean file from: ./data/ilsvrc12/imagenet_mean.binaryproto
I1007 05:14:57.139858 13601 image_data_layer.cpp:38] Opening file ./data/office/amazon_list.txt
I1007 05:14:57.140740 13601 image_data_layer.cpp:53] Shuffling data
I1007 05:14:57.140909 13601 image_data_layer.cpp:58] A total of 2817 images.
I1007 05:14:57.142262 13601 image_data_layer.cpp:85] output data size: 64,3,227,227
I1007 05:14:57.222867 13601 net.cpp:150] Setting up target_data
I1007 05:14:57.222908 13601 net.cpp:157] Top shape: 64 3 227 227 (9893568)
I1007 05:14:57.222913 13601 net.cpp:157] Top shape: 64 (64)
I1007 05:14:57.222916 13601 net.cpp:165] Memory required for data: 79149056
I1007 05:14:57.222964 13601 layer_factory.hpp:77] Creating layer target_label_silence
I1007 05:14:57.222997 13601 net.cpp:100] Creating Layer target_label_silence
I1007 05:14:57.223007 13601 net.cpp:434] target_label_silence <- target_label
I1007 05:14:57.223031 13601 net.cpp:150] Setting up target_label_silence
I1007 05:14:57.223036 13601 net.cpp:165] Memory required for data: 79149056
I1007 05:14:57.223038 13601 layer_factory.hpp:77] Creating layer data
I1007 05:14:57.223076 13601 net.cpp:100] Creating Layer data
I1007 05:14:57.223080 13601 net.cpp:434] data <- source_data
I1007 05:14:57.223086 13601 net.cpp:434] data <- target_data
I1007 05:14:57.223093 13601 net.cpp:408] data -> data
I1007 05:14:57.223155 13601 net.cpp:150] Setting up data
I1007 05:14:57.223165 13601 net.cpp:157] Top shape: 128 3 227 227 (19787136)
I1007 05:14:57.223168 13601 net.cpp:165] Memory required for data: 158297600
I1007 05:14:57.223172 13601 layer_factory.hpp:77] Creating layer conv1
I1007 05:14:57.223232 13601 net.cpp:100] Creating Layer conv1
I1007 05:14:57.223237 13601 net.cpp:434] conv1 <- data
I1007 05:14:57.223244 13601 net.cpp:408] conv1 -> conv1
I1007 05:14:57.228005 13601 net.cpp:150] Setting up conv1
I1007 05:14:57.228022 13601 net.cpp:157] Top shape: 128 96 55 55 (37171200)
I1007 05:14:57.228027 13601 net.cpp:165] Memory required for data: 306982400
I1007 05:14:57.228041 13601 layer_factory.hpp:77] Creating layer relu1
I1007 05:14:57.228067 13601 net.cpp:100] Creating Layer relu1
I1007 05:14:57.228072 13601 net.cpp:434] relu1 <- conv1
I1007 05:14:57.228078 13601 net.cpp:395] relu1 -> conv1 (in-place)
I1007 05:14:57.228087 13601 net.cpp:150] Setting up relu1
I1007 05:14:57.228092 13601 net.cpp:157] Top shape: 128 96 55 55 (37171200)
I1007 05:14:57.228096 13601 net.cpp:165] Memory required for data: 455667200
I1007 05:14:57.228106 13601 layer_factory.hpp:77] Creating layer pool1
I1007 05:14:57.228126 13601 net.cpp:100] Creating Layer pool1
I1007 05:14:57.228129 13601 net.cpp:434] pool1 <- conv1
I1007 05:14:57.228135 13601 net.cpp:408] pool1 -> pool1
I1007 05:14:57.228250 13601 net.cpp:150] Setting up pool1
I1007 05:14:57.228258 13601 net.cpp:157] Top shape: 128 96 27 27 (8957952)
I1007 05:14:57.228261 13601 net.cpp:165] Memory required for data: 491499008
I1007 05:14:57.228279 13601 layer_factory.hpp:77] Creating layer norm1
I1007 05:14:57.228287 13601 net.cpp:100] Creating Layer norm1
I1007 05:14:57.228292 13601 net.cpp:434] norm1 <- pool1
I1007 05:14:57.228297 13601 net.cpp:408] norm1 -> norm1
I1007 05:14:57.228329 13601 net.cpp:150] Setting up norm1
I1007 05:14:57.228355 13601 net.cpp:157] Top shape: 128 96 27 27 (8957952)
I1007 05:14:57.228375 13601 net.cpp:165] Memory required for data: 527330816
I1007 05:14:57.228379 13601 layer_factory.hpp:77] Creating layer conv2
I1007 05:14:57.228389 13601 net.cpp:100] Creating Layer conv2
I1007 05:14:57.228394 13601 net.cpp:434] conv2 <- norm1
I1007 05:14:57.228400 13601 net.cpp:408] conv2 -> conv2
I1007 05:14:57.237881 13601 net.cpp:150] Setting up conv2
I1007 05:14:57.237915 13601 net.cpp:157] Top shape: 128 256 27 27 (23887872)
I1007 05:14:57.237920 13601 net.cpp:165] Memory required for data: 622882304
I1007 05:14:57.237931 13601 layer_factory.hpp:77] Creating layer relu2
I1007 05:14:57.237948 13601 net.cpp:100] Creating Layer relu2
I1007 05:14:57.237953 13601 net.cpp:434] relu2 <- conv2
I1007 05:14:57.237959 13601 net.cpp:395] relu2 -> conv2 (in-place)
I1007 05:14:57.237968 13601 net.cpp:150] Setting up relu2
I1007 05:14:57.237972 13601 net.cpp:157] Top shape: 128 256 27 27 (23887872)
I1007 05:14:57.237975 13601 net.cpp:165] Memory required for data: 718433792
I1007 05:14:57.237987 13601 layer_factory.hpp:77] Creating layer pool2
I1007 05:14:57.237993 13601 net.cpp:100] Creating Layer pool2
I1007 05:14:57.237996 13601 net.cpp:434] pool2 <- conv2
I1007 05:14:57.238003 13601 net.cpp:408] pool2 -> pool2
I1007 05:14:57.238039 13601 net.cpp:150] Setting up pool2
I1007 05:14:57.238045 13601 net.cpp:157] Top shape: 128 256 13 13 (5537792)
I1007 05:14:57.238049 13601 net.cpp:165] Memory required for data: 740584960
I1007 05:14:57.238051 13601 layer_factory.hpp:77] Creating layer norm2
I1007 05:14:57.238059 13601 net.cpp:100] Creating Layer norm2
I1007 05:14:57.238062 13601 net.cpp:434] norm2 <- pool2
I1007 05:14:57.238068 13601 net.cpp:408] norm2 -> norm2
I1007 05:14:57.238095 13601 net.cpp:150] Setting up norm2
I1007 05:14:57.238101 13601 net.cpp:157] Top shape: 128 256 13 13 (5537792)
I1007 05:14:57.238103 13601 net.cpp:165] Memory required for data: 762736128
I1007 05:14:57.238106 13601 layer_factory.hpp:77] Creating layer conv3
I1007 05:14:57.238124 13601 net.cpp:100] Creating Layer conv3
I1007 05:14:57.238128 13601 net.cpp:434] conv3 <- norm2
I1007 05:14:57.238135 13601 net.cpp:408] conv3 -> conv3
I1007 05:14:57.258378 13601 net.cpp:150] Setting up conv3
I1007 05:14:57.258394 13601 net.cpp:157] Top shape: 128 384 13 13 (8306688)
I1007 05:14:57.258399 13601 net.cpp:165] Memory required for data: 795962880
I1007 05:14:57.258409 13601 layer_factory.hpp:77] Creating layer relu3
I1007 05:14:57.258415 13601 net.cpp:100] Creating Layer relu3
I1007 05:14:57.258419 13601 net.cpp:434] relu3 <- conv3
I1007 05:14:57.258424 13601 net.cpp:395] relu3 -> conv3 (in-place)
I1007 05:14:57.258431 13601 net.cpp:150] Setting up relu3
I1007 05:14:57.258435 13601 net.cpp:157] Top shape: 128 384 13 13 (8306688)
I1007 05:14:57.258438 13601 net.cpp:165] Memory required for data: 829189632
I1007 05:14:57.258450 13601 layer_factory.hpp:77] Creating layer conv4
I1007 05:14:57.258458 13601 net.cpp:100] Creating Layer conv4
I1007 05:14:57.258462 13601 net.cpp:434] conv4 <- conv3
I1007 05:14:57.258467 13601 net.cpp:408] conv4 -> conv4
I1007 05:14:57.273712 13601 net.cpp:150] Setting up conv4
I1007 05:14:57.273728 13601 net.cpp:157] Top shape: 128 384 13 13 (8306688)
I1007 05:14:57.273732 13601 net.cpp:165] Memory required for data: 862416384
I1007 05:14:57.273739 13601 layer_factory.hpp:77] Creating layer relu4
I1007 05:14:57.273756 13601 net.cpp:100] Creating Layer relu4
I1007 05:14:57.273762 13601 net.cpp:434] relu4 <- conv4
I1007 05:14:57.273768 13601 net.cpp:395] relu4 -> conv4 (in-place)
I1007 05:14:57.273774 13601 net.cpp:150] Setting up relu4
I1007 05:14:57.273779 13601 net.cpp:157] Top shape: 128 384 13 13 (8306688)
I1007 05:14:57.273783 13601 net.cpp:165] Memory required for data: 895643136
I1007 05:14:57.273787 13601 layer_factory.hpp:77] Creating layer conv5
I1007 05:14:57.273795 13601 net.cpp:100] Creating Layer conv5
I1007 05:14:57.273799 13601 net.cpp:434] conv5 <- conv4
I1007 05:14:57.273807 13601 net.cpp:408] conv5 -> conv5
I1007 05:14:57.284194 13601 net.cpp:150] Setting up conv5
I1007 05:14:57.284221 13601 net.cpp:157] Top shape: 128 256 13 13 (5537792)
I1007 05:14:57.284225 13601 net.cpp:165] Memory required for data: 917794304
I1007 05:14:57.284245 13601 layer_factory.hpp:77] Creating layer relu5
I1007 05:14:57.284252 13601 net.cpp:100] Creating Layer relu5
I1007 05:14:57.284256 13601 net.cpp:434] relu5 <- conv5
I1007 05:14:57.284262 13601 net.cpp:395] relu5 -> conv5 (in-place)
I1007 05:14:57.284270 13601 net.cpp:150] Setting up relu5
I1007 05:14:57.284274 13601 net.cpp:157] Top shape: 128 256 13 13 (5537792)
I1007 05:14:57.284277 13601 net.cpp:165] Memory required for data: 939945472
I1007 05:14:57.284281 13601 layer_factory.hpp:77] Creating layer pool5
I1007 05:14:57.284296 13601 net.cpp:100] Creating Layer pool5
I1007 05:14:57.284299 13601 net.cpp:434] pool5 <- conv5
I1007 05:14:57.284304 13601 net.cpp:408] pool5 -> pool5
I1007 05:14:57.284337 13601 net.cpp:150] Setting up pool5
I1007 05:14:57.284343 13601 net.cpp:157] Top shape: 128 256 6 6 (1179648)
I1007 05:14:57.284346 13601 net.cpp:165] Memory required for data: 944664064
I1007 05:14:57.284350 13601 layer_factory.hpp:77] Creating layer fc6
I1007 05:14:57.284358 13601 net.cpp:100] Creating Layer fc6
I1007 05:14:57.284363 13601 net.cpp:434] fc6 <- pool5
I1007 05:14:57.284368 13601 net.cpp:408] fc6 -> fc6
I1007 05:14:58.133922 13601 net.cpp:150] Setting up fc6
I1007 05:14:58.133975 13601 net.cpp:157] Top shape: 128 4096 (524288)
I1007 05:14:58.133981 13601 net.cpp:165] Memory required for data: 946761216
I1007 05:14:58.133991 13601 layer_factory.hpp:77] Creating layer relu6
I1007 05:14:58.134008 13601 net.cpp:100] Creating Layer relu6
I1007 05:14:58.134014 13601 net.cpp:434] relu6 <- fc6
I1007 05:14:58.134022 13601 net.cpp:395] relu6 -> fc6 (in-place)
I1007 05:14:58.134032 13601 net.cpp:150] Setting up relu6
I1007 05:14:58.134037 13601 net.cpp:157] Top shape: 128 4096 (524288)
I1007 05:14:58.134040 13601 net.cpp:165] Memory required for data: 948858368
I1007 05:14:58.134050 13601 layer_factory.hpp:77] Creating layer drop6
I1007 05:14:58.134064 13601 net.cpp:100] Creating Layer drop6
I1007 05:14:58.134068 13601 net.cpp:434] drop6 <- fc6
I1007 05:14:58.134073 13601 net.cpp:395] drop6 -> fc6 (in-place)
I1007 05:14:58.134126 13601 net.cpp:150] Setting up drop6
I1007 05:14:58.134132 13601 net.cpp:157] Top shape: 128 4096 (524288)
I1007 05:14:58.134135 13601 net.cpp:165] Memory required for data: 950955520
I1007 05:14:58.134140 13601 layer_factory.hpp:77] Creating layer fc7
I1007 05:14:58.134148 13601 net.cpp:100] Creating Layer fc7
I1007 05:14:58.134152 13601 net.cpp:434] fc7 <- fc6
I1007 05:14:58.134158 13601 net.cpp:408] fc7 -> fc7
I1007 05:14:58.513268 13601 net.cpp:150] Setting up fc7
I1007 05:14:58.513311 13601 net.cpp:157] Top shape: 128 4096 (524288)
I1007 05:14:58.513316 13601 net.cpp:165] Memory required for data: 953052672
I1007 05:14:58.513330 13601 layer_factory.hpp:77] Creating layer relu7
I1007 05:14:58.513353 13601 net.cpp:100] Creating Layer relu7
I1007 05:14:58.513361 13601 net.cpp:434] relu7 <- fc7
I1007 05:14:58.513370 13601 net.cpp:395] relu7 -> fc7 (in-place)
I1007 05:14:58.513381 13601 net.cpp:150] Setting up relu7
I1007 05:14:58.513386 13601 net.cpp:157] Top shape: 128 4096 (524288)
I1007 05:14:58.513389 13601 net.cpp:165] Memory required for data: 955149824
I1007 05:14:58.513392 13601 layer_factory.hpp:77] Creating layer drop7
I1007 05:14:58.513417 13601 net.cpp:100] Creating Layer drop7
I1007 05:14:58.513420 13601 net.cpp:434] drop7 <- fc7
I1007 05:14:58.513427 13601 net.cpp:395] drop7 -> fc7 (in-place)
I1007 05:14:58.513443 13601 net.cpp:150] Setting up drop7
I1007 05:14:58.513449 13601 net.cpp:157] Top shape: 128 4096 (524288)
I1007 05:14:58.513453 13601 net.cpp:165] Memory required for data: 957246976
I1007 05:14:58.513463 13601 layer_factory.hpp:77] Creating layer fc8_new
I1007 05:14:58.513478 13601 net.cpp:100] Creating Layer fc8_new
I1007 05:14:58.513481 13601 net.cpp:434] fc8_new <- fc7
I1007 05:14:58.513489 13601 net.cpp:408] fc8_new -> fc8
I1007 05:14:58.522047 13601 net.cpp:150] Setting up fc8_new
I1007 05:14:58.522081 13601 net.cpp:157] Top shape: 128 31 (3968)
I1007 05:14:58.522119 13601 net.cpp:165] Memory required for data: 957262848
I1007 05:14:58.522135 13601 layer_factory.hpp:77] Creating layer fc8_fc8_new_0_split
I1007 05:14:58.522156 13601 net.cpp:100] Creating Layer fc8_fc8_new_0_split
I1007 05:14:58.522166 13601 net.cpp:434] fc8_fc8_new_0_split <- fc8
I1007 05:14:58.522179 13601 net.cpp:408] fc8_fc8_new_0_split -> fc8_fc8_new_0_split_0
I1007 05:14:58.522195 13601 net.cpp:408] fc8_fc8_new_0_split -> fc8_fc8_new_0_split_1
I1007 05:14:58.522261 13601 net.cpp:150] Setting up fc8_fc8_new_0_split
I1007 05:14:58.522275 13601 net.cpp:157] Top shape: 128 31 (3968)
I1007 05:14:58.522297 13601 net.cpp:157] Top shape: 128 31 (3968)
I1007 05:14:58.522306 13601 net.cpp:165] Memory required for data: 957294592
I1007 05:14:58.522316 13601 layer_factory.hpp:77] Creating layer slice_fc8
I1007 05:14:58.522343 13601 net.cpp:100] Creating Layer slice_fc8
I1007 05:14:58.522354 13601 net.cpp:434] slice_fc8 <- fc8_fc8_new_0_split_0
I1007 05:14:58.522367 13601 net.cpp:408] slice_fc8 -> fc8_source
I1007 05:14:58.522389 13601 net.cpp:408] slice_fc8 -> fc8_target
I1007 05:14:58.522460 13601 net.cpp:150] Setting up slice_fc8
I1007 05:14:58.522474 13601 net.cpp:157] Top shape: 64 31 (1984)
I1007 05:14:58.522485 13601 net.cpp:157] Top shape: 64 31 (1984)
I1007 05:14:58.522493 13601 net.cpp:165] Memory required for data: 957310464
I1007 05:14:58.522502 13601 layer_factory.hpp:77] Creating layer silence
I1007 05:14:58.522514 13601 net.cpp:100] Creating Layer silence
I1007 05:14:58.522524 13601 net.cpp:434] silence <- fc8_target
I1007 05:14:58.522536 13601 net.cpp:150] Setting up silence
I1007 05:14:58.522544 13601 net.cpp:165] Memory required for data: 957310464
…
I1007 05:14:58.522840 13601 net.cpp:150] Setting up softmax_loss
I1007 05:14:58.522855 13601 net.cpp:157] Top shape: (1)
I1007 05:14:58.522862 13601 net.cpp:160]     with loss weight 1
I1007 05:14:58.523036 13601 net.cpp:165] Memory required for data: 957310468
I1007 05:14:58.523048 13601 layer_factory.hpp:77] Creating layer fc8_softmax
I1007 05:14:58.523062 13601 net.cpp:100] Creating Layer fc8_softmax
I1007 05:14:58.523072 13601 net.cpp:434] fc8_softmax <- fc8_fc8_new_0_split_1
I1007 05:14:58.523085 13601 net.cpp:408] fc8_softmax -> fc8_softmax
I1007 05:14:58.523217 13601 net.cpp:150] Setting up fc8_softmax
I1007 05:14:58.523234 13601 net.cpp:157] Top shape: 128 31 (3968)
I1007 05:14:58.523243 13601 net.cpp:165] Memory required for data: 957326340
I1007 05:14:58.523252 13601 layer_factory.hpp:77] Creating layer slice_softmax
I1007 05:14:58.523284 13601 net.cpp:100] Creating Layer slice_softmax
I1007 05:14:58.523295 13601 net.cpp:434] slice_softmax <- fc8_softmax
I1007 05:14:58.523308 13601 net.cpp:408] slice_softmax -> source_softmax
I1007 05:14:58.523325 13601 net.cpp:408] slice_softmax -> target_softmax
I1007 05:14:58.523401 13601 net.cpp:150] Setting up slice_softmax
I1007 05:14:58.523416 13601 net.cpp:157] Top shape: 64 31 (1984)
I1007 05:14:58.523425 13601 net.cpp:157] Top shape: 64 31 (1984)
I1007 05:14:58.523433 13601 net.cpp:165] Memory required for data: 957342212
I1007 05:14:58.523443 13601 layer_factory.hpp:77] Creating layer source_softmax_slice_softmax_0_split
I1007 05:14:58.523470 13601 net.cpp:100] Creating Layer source_softmax_slice_softmax_0_split
I1007 05:14:58.523480 13601 net.cpp:434] source_softmax_slice_softmax_0_split <- source_softmax
I1007 05:14:58.523494 13601 net.cpp:408] source_softmax_slice_softmax_0_split -> source_softmax_slice_softmax_0_split_0
I1007 05:14:58.523509 13601 net.cpp:408] source_softmax_slice_softmax_0_split -> source_softmax_slice_softmax_0_split_1
I1007 05:14:58.523608 13601 net.cpp:150] Setting up source_softmax_slice_softmax_0_split
I1007 05:14:58.523623 13601 net.cpp:157] Top shape: 64 31 (1984)
I1007 05:14:58.523634 13601 net.cpp:157] Top shape: 64 31 (1984)
I1007 05:14:58.523643 13601 net.cpp:165] Memory required for data: 957358084
I1007 05:14:58.523653 13601 layer_factory.hpp:77] Creating layer target_softmax_slice_softmax_1_split
I1007 05:14:58.523669 13601 net.cpp:100] Creating Layer target_softmax_slice_softmax_1_split
I1007 05:14:58.523679 13601 net.cpp:434] target_softmax_slice_softmax_1_split <- target_softmax
I1007 05:14:58.523692 13601 net.cpp:408] target_softmax_slice_softmax_1_split -> target_softmax_slice_softmax_1_split_0
I1007 05:14:58.523738 13601 net.cpp:408] target_softmax_slice_softmax_1_split -> target_softmax_slice_softmax_1_split_1
I1007 05:14:58.523807 13601 net.cpp:150] Setting up target_softmax_slice_softmax_1_split
I1007 05:14:58.523819 13601 net.cpp:157] Top shape: 64 31 (1984)
I1007 05:14:58.523831 13601 net.cpp:157] Top shape: 64 31 (1984)
I1007 05:14:58.523839 13601 net.cpp:165] Memory required for data: 957373956
I1007 05:14:58.523847 13601 layer_factory.hpp:77] Creating layer jmmd_loss
I1007 05:14:58.523864 13601 net.cpp:100] Creating Layer jmmd_loss
I1007 05:14:58.523874 13601 net.cpp:434] jmmd_loss <- source_softmax_slice_softmax_0_split_0
I1007 05:14:58.523885 13601 net.cpp:434] jmmd_loss <- target_softmax_slice_softmax_1_split_0
…
I1007 05:14:58.526974 13601 net.cpp:322] The NetState phase (1) differed from the phase (0) specified by a rule in layer silence_loss_value
I1007 05:14:58.527487 13601 net.cpp:58] Initializing net from parameters: 
name: "amazon_to_webcam"
state {
  phase: TEST
}
layer {
  name: "test_data"
  type: "ImageData"
  top: "data"
  top: "label"
  include {
    phase: TEST
  }
  transform_param {
    mirror: false
    crop_size: 227
    mean_file: "./data/ilsvrc12/imagenet_mean.binaryproto"
  }
  image_data_param {
    source: "./data/office/amazon_list.txt"
    batch_size: 1
    shuffle: false
    new_height: 256
    new_width: 256
  }
}
layer {
  name: "conv1"
  type: "Convolution"
  bottom: "data"
  top: "conv1"
  param {
    lr_mult: 0
    decay_mult: 1
  }
  param {
    lr_mult: 0
    decay_mult: 0
  }
  convolution_param {
    num_output: 96
    kernel_size: 11
    stride: 4
    weight_filler {
      type: "gaussian"
      std: 0.01
    }
    bias_filler {
      type: "constant"
      value: 0
    }
  }
}
layer {
  name: "relu1"
  type: "ReLU"
  bottom: "conv1"
  top: "conv1"
}
layer {
  name: "pool1"
  type: "Pooling"
  bottom: "conv1"
  top: "pool1"
  pooling_param {
    pool: MAX
    kernel_size: 3
    stride: 2
  }
}
layer {
  name: "norm1"
  type: "LRN"
  bottom: "pool1"
  top: "norm1"
  lrn_param {
    local_size: 5
    alpha: 0.0001
    beta: 0.75
  }
}
layer {
  name: "conv2"
  type: "Convolution"
  bottom: "norm1"
  top: "conv2"
  param {
    lr_mult: 0
    decay_mult: 1
  }
  param {
    lr_mult: 0
    decay_mult: 0
  }
  convolution_param {
    num_output: 256
    pad: 2
    kernel_size: 5
    group: 2
    weight_filler {
      type: "gaussian"
      std: 0.01
    }
    bias_filler {
      type: "constant"
      value: 1
    }
  }
}
layer {
  name: "relu2"
  type: "ReLU"
  bottom: "conv2"
  top: "conv2"
}
layer {
  name: "pool2"
  type: "Pooling"
  bottom: "conv2"
  top: "pool2"
  pooling_param {
    pool: MAX
    kernel_size: 3
    stride: 2
  }
}
layer {
  name: "norm2"
  type: "LRN"
  bottom: "pool2"
  top: "norm2"
  lrn_param {
    local_size: 5
    alpha: 0.0001
    beta: 0.75
  }
}
layer {
  name: "conv3"
  type: "Convolution"
  bottom: "norm2"
  top: "conv3"
  param {
    lr_mult: 0.1
    decay_mult: 1
  }
  param {
    lr_mult: 0.2
    decay_mult: 0
  }
  convolution_param {
    num_output: 384
    pad: 1
    kernel_size: 3
    weight_filler {
      type: "gaussian"
      std: 0.01
    }
    bias_filler {
      type: "constant"
      value: 0
    }
  }
}
layer {
  name: "relu3"
  type: "ReLU"
  bottom: "conv3"
  top: "conv3"
}
layer {
  name: "conv4"
  type: "Convolution"
  bottom: "conv3"
  top: "conv4"
  param {
    lr_mult: 0.1
    decay_mult: 1
  }
  param {
    lr_mult: 0.2
    decay_mult: 0
  }
  convolution_param {
    num_output: 384
    pad: 1
    kernel_size: 3
    group: 2
    weight_filler {
      type: "gaussian"
      std: 0.01
    }
    bias_filler {
      type: "constant"
      value: 1
    }
  }
}
layer {
  name: "relu4"
  type: "ReLU"
  bottom: "conv4"
  top: "conv4"
}
layer {
  name: "conv5"
  type: "Convolution"
  bottom: "conv4"
  top: "conv5"
  param {
    lr_mult: 0.1
    decay_mult: 1
  }
  param {
    lr_mult: 0.2
    decay_mult: 0
  }
  convolution_param {
    num_output: 256
    pad: 1
    kernel_size: 3
    group: 2
    weight_filler {
      type: "gaussian"
      std: 0.01
    }
    bias_filler {
      type: "constant"
      value: 1
    }
  }
}
layer {
  name: "relu5"
  type: "ReLU"
  bottom: "conv5"
  top: "conv5"
}
layer {
  name: "pool5"
  type: "Pooling"
  bottom: "conv5"
  top: "pool5"
  pooling_param {
    pool: MAX
    kernel_size: 3
    stride: 2
  }
}
layer {
  name: "fc6"
  type: "InnerProduct"
  bottom: "pool5"
  top: "fc6"
  param {
    lr_mult: 0.1
    decay_mult: 1
  }
  param {
    lr_mult: 0.2
    decay_mult: 0
  }
  inner_product_param {
    num_output: 4096
    weight_filler {
      type: "gaussian"
      std: 0.005
    }
    bias_filler {
      type: "constant"
      value: 1
    }
  }
}
layer {
  name: "relu6"
  type: "ReLU"
  bottom: "fc6"
  top: "fc6"
}
layer {
  name: "drop6"
  type: "Dropout"
  bottom: "fc6"
  top: "fc6"
  dropout_param {
    dropout_ratio: 0.5
  }
}
layer {
  name: "fc7"
  type: "InnerProduct"
  bottom: "fc6"
  top: "fc7"
  param {
    lr_mult: 0.1
    decay_mult: 1
  }
  param {
    lr_mult: 0.2
    decay_mult: 0
  }
  inner_product_param {
    num_output: 4096
    weight_filler {
      type: "gaussian"
      std: 0.005
    }
    bias_filler {
      type: "constant"
      value: 1
    }
  }
}
layer {
  name: "relu7"
  type: "ReLU"
  bottom: "fc7"
  top: "fc7"
}
layer {
  name: "drop7"
  type: "Dropout"
  bottom: "fc7"
  top: "fc7"
  dropout_param {
    dropout_ratio: 0.5
  }
}
layer {
  name: "fc8_new"
  type: "InnerProduct"
  bottom: "fc7"
  top: "fc8"
  param {
    lr_mult: 1
    decay_mult: 1
  }
  param {
    lr_mult: 2
    decay_mult: 0
  }
  inner_product_param {
    num_output: 31
    weight_filler {
      type: "gaussian"
      std: 0.01
    }
    bias_filler {
      type: "constant"
      value: 0
    }
  }
}
layer {
  name: "accuracy"
  type: "Accuracy"
  bottom: "fc8"
  bottom: "label"
  top: "accuracy"
  include {
    phase: TEST
  }
}
I1007 05:14:58.527688 13601 layer_factory.hpp:77] Creating layer test_data
I1007 05:14:58.527714 13601 net.cpp:100] Creating Layer test_data
I1007 05:14:58.527726 13601 net.cpp:408] test_data -> data
I1007 05:14:58.527745 13601 net.cpp:408] test_data -> label
I1007 05:14:58.527761 13601 data_transformer.cpp:25] Loading mean file from: ./data/ilsvrc12/imagenet_mean.binaryproto
I1007 05:14:58.532810 13601 image_data_layer.cpp:38] Opening file ./data/office/amazon_list.txt
I1007 05:14:58.534518 13601 image_data_layer.cpp:58] A total of 2817 images.
I1007 05:14:58.537106 13601 image_data_layer.cpp:85] output data size: 1,3,227,227
I1007 05:14:58.541575 13601 net.cpp:150] Setting up test_data
I1007 05:14:58.541605 13601 net.cpp:157] Top shape: 1 3 227 227 (154587)
I1007 05:14:58.541617 13601 net.cpp:157] Top shape: 1 (1)
I1007 05:14:58.541625 13601 net.cpp:165] Memory required for data: 618352
I1007 05:14:58.541637 13601 layer_factory.hpp:77] Creating layer conv1
I1007 05:14:58.541664 13601 net.cpp:100] Creating Layer conv1
I1007 05:14:58.541673 13601 net.cpp:434] conv1 <- data
I1007 05:14:58.541687 13601 net.cpp:408] conv1 -> conv1
I1007 05:14:58.543938 13601 net.cpp:150] Setting up conv1
I1007 05:14:58.543961 13601 net.cpp:157] Top shape: 1 96 55 55 (290400)
I1007 05:14:58.543968 13601 net.cpp:165] Memory required for data: 1779952
I1007 05:14:58.543988 13601 layer_factory.hpp:77] Creating layer relu1
I1007 05:14:58.544003 13601 net.cpp:100] Creating Layer relu1
I1007 05:14:58.544010 13601 net.cpp:434] relu1 <- conv1
I1007 05:14:58.544020 13601 net.cpp:395] relu1 -> conv1 (in-place)
I1007 05:14:58.544034 13601 net.cpp:150] Setting up relu1
I1007 05:14:58.544044 13601 net.cpp:157] Top shape: 1 96 55 55 (290400)
I1007 05:14:58.544050 13601 net.cpp:165] Memory required for data: 2941552
I1007 05:14:58.544057 13601 layer_factory.hpp:77] Creating layer pool1
I1007 05:14:58.544070 13601 net.cpp:100] Creating Layer pool1
I1007 05:14:58.544077 13601 net.cpp:434] pool1 <- conv1
I1007 05:14:58.544087 13601 net.cpp:408] pool1 -> pool1
I1007 05:14:58.544149 13601 net.cpp:150] Setting up pool1
I1007 05:14:58.544162 13601 net.cpp:157] Top shape: 1 96 27 27 (69984)
I1007 05:14:58.544169 13601 net.cpp:165] Memory required for data: 3221488
I1007 05:14:58.544176 13601 layer_factory.hpp:77] Creating layer norm1
I1007 05:14:58.544189 13601 net.cpp:100] Creating Layer norm1
I1007 05:14:58.544198 13601 net.cpp:434] norm1 <- pool1
I1007 05:14:58.544209 13601 net.cpp:408] norm1 -> norm1
I1007 05:14:58.544262 13601 net.cpp:150] Setting up norm1
I1007 05:14:58.544273 13601 net.cpp:157] Top shape: 1 96 27 27 (69984)
I1007 05:14:58.544281 13601 net.cpp:165] Memory required for data: 3501424
I1007 05:14:58.544288 13601 layer_factory.hpp:77] Creating layer conv2
I1007 05:14:58.544304 13601 net.cpp:100] Creating Layer conv2
I1007 05:14:58.544312 13601 net.cpp:434] conv2 <- norm1
I1007 05:14:58.544323 13601 net.cpp:408] conv2 -> conv2
I1007 05:14:58.558588 13601 net.cpp:150] Setting up conv2
I1007 05:14:58.558609 13601 net.cpp:157] Top shape: 1 256 27 27 (186624)
I1007 05:14:58.558616 13601 net.cpp:165] Memory required for data: 4247920
I1007 05:14:58.558650 13601 layer_factory.hpp:77] Creating layer relu2
I1007 05:14:58.558681 13601 net.cpp:100] Creating Layer relu2
I1007 05:14:58.558689 13601 net.cpp:434] relu2 <- conv2
I1007 05:14:58.558698 13601 net.cpp:395] relu2 -> conv2 (in-place)
I1007 05:14:58.558712 13601 net.cpp:150] Setting up relu2
I1007 05:14:58.558722 13601 net.cpp:157] Top shape: 1 256 27 27 (186624)
I1007 05:14:58.558727 13601 net.cpp:165] Memory required for data: 4994416
I1007 05:14:58.558735 13601 layer_factory.hpp:77] Creating layer pool2
I1007 05:14:58.558746 13601 net.cpp:100] Creating Layer pool2
I1007 05:14:58.558753 13601 net.cpp:434] pool2 <- conv2
I1007 05:14:58.558763 13601 net.cpp:408] pool2 -> pool2
I1007 05:14:58.558821 13601 net.cpp:150] Setting up pool2
I1007 05:14:58.558833 13601 net.cpp:157] Top shape: 1 256 13 13 (43264)
I1007 05:14:58.558840 13601 net.cpp:165] Memory required for data: 5167472
I1007 05:14:58.558846 13601 layer_factory.hpp:77] Creating layer norm2
I1007 05:14:58.558858 13601 net.cpp:100] Creating Layer norm2
I1007 05:14:58.558869 13601 net.cpp:434] norm2 <- pool2
I1007 05:14:58.558878 13601 net.cpp:408] norm2 -> norm2
I1007 05:14:58.558925 13601 net.cpp:150] Setting up norm2
I1007 05:14:58.558935 13601 net.cpp:157] Top shape: 1 256 13 13 (43264)
I1007 05:14:58.558943 13601 net.cpp:165] Memory required for data: 5340528
I1007 05:14:58.558949 13601 layer_factory.hpp:77] Creating layer conv3
I1007 05:14:58.558964 13601 net.cpp:100] Creating Layer conv3
I1007 05:14:58.558971 13601 net.cpp:434] conv3 <- norm2
I1007 05:14:58.558982 13601 net.cpp:408] conv3 -> conv3
I1007 05:14:58.596575 13601 net.cpp:150] Setting up conv3
I1007 05:14:58.596611 13601 net.cpp:157] Top shape: 1 384 13 13 (64896)
I1007 05:14:58.596618 13601 net.cpp:165] Memory required for data: 5600112
I1007 05:14:58.596637 13601 layer_factory.hpp:77] Creating layer relu3
I1007 05:14:58.596650 13601 net.cpp:100] Creating Layer relu3
I1007 05:14:58.596657 13601 net.cpp:434] relu3 <- conv3
I1007 05:14:58.596668 13601 net.cpp:395] relu3 -> conv3 (in-place)
I1007 05:14:58.596683 13601 net.cpp:150] Setting up relu3
I1007 05:14:58.596689 13601 net.cpp:157] Top shape: 1 384 13 13 (64896)
I1007 05:14:58.596695 13601 net.cpp:165] Memory required for data: 5859696
I1007 05:14:58.596701 13601 layer_factory.hpp:77] Creating layer conv4
I1007 05:14:58.596717 13601 net.cpp:100] Creating Layer conv4
I1007 05:14:58.596724 13601 net.cpp:434] conv4 <- conv3
I1007 05:14:58.596734 13601 net.cpp:408] conv4 -> conv4
I1007 05:14:58.621482 13601 net.cpp:150] Setting up conv4
I1007 05:14:58.621510 13601 net.cpp:157] Top shape: 1 384 13 13 (64896)
I1007 05:14:58.621515 13601 net.cpp:165] Memory required for data: 6119280
I1007 05:14:58.621526 13601 layer_factory.hpp:77] Creating layer relu4
I1007 05:14:58.621536 13601 net.cpp:100] Creating Layer relu4
I1007 05:14:58.621543 13601 net.cpp:434] relu4 <- conv4
I1007 05:14:58.621552 13601 net.cpp:395] relu4 -> conv4 (in-place)
I1007 05:14:58.621562 13601 net.cpp:150] Setting up relu4
I1007 05:14:58.621569 13601 net.cpp:157] Top shape: 1 384 13 13 (64896)
I1007 05:14:58.621575 13601 net.cpp:165] Memory required for data: 6378864
I1007 05:14:58.621580 13601 layer_factory.hpp:77] Creating layer conv5
I1007 05:14:58.621593 13601 net.cpp:100] Creating Layer conv5
I1007 05:14:58.621599 13601 net.cpp:434] conv5 <- conv4
I1007 05:14:58.621609 13601 net.cpp:408] conv5 -> conv5
I1007 05:14:58.637230 13601 net.cpp:150] Setting up conv5
I1007 05:14:58.637253 13601 net.cpp:157] Top shape: 1 256 13 13 (43264)
I1007 05:14:58.637257 13601 net.cpp:165] Memory required for data: 6551920
I1007 05:14:58.637272 13601 layer_factory.hpp:77] Creating layer relu5
I1007 05:14:58.637281 13601 net.cpp:100] Creating Layer relu5
I1007 05:14:58.637286 13601 net.cpp:434] relu5 <- conv5
I1007 05:14:58.637295 13601 net.cpp:395] relu5 -> conv5 (in-place)
I1007 05:14:58.637305 13601 net.cpp:150] Setting up relu5
I1007 05:14:58.637310 13601 net.cpp:157] Top shape: 1 256 13 13 (43264)
I1007 05:14:58.637315 13601 net.cpp:165] Memory required for data: 6724976
I1007 05:14:58.637336 13601 layer_factory.hpp:77] Creating layer pool5
I1007 05:14:58.637364 13601 net.cpp:100] Creating Layer pool5
I1007 05:14:58.637369 13601 net.cpp:434] pool5 <- conv5
I1007 05:14:58.637377 13601 net.cpp:408] pool5 -> pool5
I1007 05:14:58.637423 13601 net.cpp:150] Setting up pool5
I1007 05:14:58.637431 13601 net.cpp:157] Top shape: 1 256 6 6 (9216)
I1007 05:14:58.637436 13601 net.cpp:165] Memory required for data: 6761840
I1007 05:14:58.637440 13601 layer_factory.hpp:77] Creating layer fc6
I1007 05:14:58.637454 13601 net.cpp:100] Creating Layer fc6
I1007 05:14:58.637459 13601 net.cpp:434] fc6 <- pool5
I1007 05:14:58.637467 13601 net.cpp:408] fc6 -> fc6
I1007 05:14:59.603998 13601 net.cpp:150] Setting up fc6
I1007 05:14:59.604035 13601 net.cpp:157] Top shape: 1 4096 (4096)
I1007 05:14:59.604040 13601 net.cpp:165] Memory required for data: 6778224
I1007 05:14:59.604049 13601 layer_factory.hpp:77] Creating layer relu6
I1007 05:14:59.604063 13601 net.cpp:100] Creating Layer relu6
I1007 05:14:59.604068 13601 net.cpp:434] relu6 <- fc6
I1007 05:14:59.604075 13601 net.cpp:395] relu6 -> fc6 (in-place)
I1007 05:14:59.604086 13601 net.cpp:150] Setting up relu6
I1007 05:14:59.604090 13601 net.cpp:157] Top shape: 1 4096 (4096)
I1007 05:14:59.604094 13601 net.cpp:165] Memory required for data: 6794608
I1007 05:14:59.604097 13601 layer_factory.hpp:77] Creating layer drop6
I1007 05:14:59.604105 13601 net.cpp:100] Creating Layer drop6
I1007 05:14:59.604110 13601 net.cpp:434] drop6 <- fc6
I1007 05:14:59.604115 13601 net.cpp:395] drop6 -> fc6 (in-place)
I1007 05:14:59.604135 13601 net.cpp:150] Setting up drop6
I1007 05:14:59.604140 13601 net.cpp:157] Top shape: 1 4096 (4096)
I1007 05:14:59.604143 13601 net.cpp:165] Memory required for data: 6810992
I1007 05:14:59.604147 13601 layer_factory.hpp:77] Creating layer fc7
I1007 05:14:59.604156 13601 net.cpp:100] Creating Layer fc7
I1007 05:14:59.604159 13601 net.cpp:434] fc7 <- fc6
I1007 05:14:59.604166 13601 net.cpp:408] fc7 -> fc7
I1007 05:15:00.108875 13601 net.cpp:150] Setting up fc7
I1007 05:15:00.108927 13601 net.cpp:157] Top shape: 1 4096 (4096)
I1007 05:15:00.108932 13601 net.cpp:165] Memory required for data: 6827376
I1007 05:15:00.108943 13601 layer_factory.hpp:77] Creating layer relu7
I1007 05:15:00.108959 13601 net.cpp:100] Creating Layer relu7
I1007 05:15:00.108966 13601 net.cpp:434] relu7 <- fc7
I1007 05:15:00.108975 13601 net.cpp:395] relu7 -> fc7 (in-place)
I1007 05:15:00.108989 13601 net.cpp:150] Setting up relu7
I1007 05:15:00.108994 13601 net.cpp:157] Top shape: 1 4096 (4096)
I1007 05:15:00.108999 13601 net.cpp:165] Memory required for data: 6843760
I1007 05:15:00.109004 13601 layer_factory.hpp:77] Creating layer drop7
I1007 05:15:00.109014 13601 net.cpp:100] Creating Layer drop7
I1007 05:15:00.109019 13601 net.cpp:434] drop7 <- fc7
I1007 05:15:00.109025 13601 net.cpp:395] drop7 -> fc7 (in-place)
I1007 05:15:00.109050 13601 net.cpp:150] Setting up drop7
I1007 05:15:00.109057 13601 net.cpp:157] Top shape: 1 4096 (4096)
I1007 05:15:00.109061 13601 net.cpp:165] Memory required for data: 6860144
I1007 05:15:00.109066 13601 layer_factory.hpp:77] Creating layer fc8_new
I1007 05:15:00.109077 13601 net.cpp:100] Creating Layer fc8_new
I1007 05:15:00.109081 13601 net.cpp:434] fc8_new <- fc7
I1007 05:15:00.109089 13601 net.cpp:408] fc8_new -> fc8
I1007 05:15:00.112481 13601 net.cpp:150] Setting up fc8_new
I1007 05:15:00.112493 13601 net.cpp:157] Top shape: 1 31 (31)
I1007 05:15:00.112498 13601 net.cpp:165] Memory required for data: 6860268
I1007 05:15:00.112504 13601 layer_factory.hpp:77] Creating layer accuracy
I1007 05:15:00.112514 13601 net.cpp:100] Creating Layer accuracy
I1007 05:15:00.112519 13601 net.cpp:434] accuracy <- fc8
I1007 05:15:00.112524 13601 net.cpp:434] accuracy <- label
I1007 05:15:00.112532 13601 net.cpp:408] accuracy -> accuracy
…
