…
    mean_file: "./data/ilsvrc12/imagenet_mean.binaryproto"
  }
  image_data_param {
    source: "./data/office/dslr_list.txt"
    batch_size: 64
    shuffle: true
    new_height: 256
    new_width: 256
  }
}
layer {
  name: "target_data"
  type: "ImageData"
  top: "target_data"
  top: "target_label"
  include {
    phase: TRAIN
  }
  transform_param {
    mirror: true
    crop_size: 227
    mean_file: "./data/ilsvrc12/imagenet_mean.binaryproto"
  }
  image_data_param {
    source: "./data/office/amazon_list.txt"
    batch_size: 64
    shuffle: true
    new_height: 256
    new_width: 256
  }
}
layer {
  name: "target_label_silence"
  type: "Silence"
  bottom: "target_label"
  include {
    phase: TRAIN
  }
}
layer {
  name: "data"
  type: "Concat"
  bottom: "source_data"
  bottom: "target_data"
  top: "data"
  include {
    phase: TRAIN
  }
  concat_param {
    axis: 0
  }
}
layer {
  name: "conv1"
  type: "Convolution"
  bottom: "data"
  top: "conv1"
  param {
    lr_mult: 0
    decay_mult: 1
  }
  param {
    lr_mult: 0
    decay_mult: 0
  }
  convolution_param {
    num_output: 96
    kernel_size: 11
    stride: 4
    weight_filler {
      type: "gaussian"
      std: 0.01
    }
    bias_filler {
      type: "constant"
      value: 0
    }
  }
}
layer {
  name: "relu1"
  type: "ReLU"
  bottom: "conv1"
  top: "conv1"
}
layer {
  name: "pool1"
  type: "Pooling"
  bottom: "conv1"
  top: "pool1"
  pooling_param {
    pool: MAX
    kernel_size: 3
    stride: 2
  }
}
layer {
  name: "norm1"
  type: "LRN"
  bottom: "pool1"
  top: "norm1"
  lrn_param {
    local_size: 5
    alpha: 0.0001
    beta: 0.75
  }
}
layer {
  name: "conv2"
  type: "Convolution"
  bottom: "norm1"
  top: "conv2"
  param {
    lr_mult: 0
    decay_mult: 1
  }
  param {
    lr_mult: 0
    decay_mult: 0
  }
  convolution_param {
    num_output: 256
    pad: 2
    kernel_size: 5
    group: 2
    weight_filler {
      type: "gaussian"
      std: 0.01
    }
    bias_filler {
      type: "constant"
      value: 1
    }
  }
}
layer {
  name: "relu2"
  type: "ReLU"
  bottom: "conv2"
  top: "conv2"
}
layer {
  name: "pool2"
  type: "Pooling"
  bottom: "conv2"
  top: "pool2"
  pooling_param {
    pool: MAX
    kernel_size: 3
    stride: 2
  }
}
layer {
  name: "norm2"
  type: "LRN"
  bottom: "pool2"
  top: "norm2"
  lrn_param {
    local_size: 5
    alpha: 0.0001
    beta: 0.75
  }
}
layer {
  name: "conv3"
  type: "Convolution"
  bottom: "norm2"
  top: "conv3"
  param {
    lr_mult: 0.1
    decay_mult: 1
  }
  param {
    lr_mult: 0.2
    decay_mult: 0
  }
  convolution_param {
    num_output: 384
    pad: 1
    kernel_size: 3
    weight_filler {
      type: "gaussian"
      std: 0.01
    }
    bias_filler {
      type: "constant"
      value: 0
    }
  }
}
layer {
  name: "relu3"
  type: "ReLU"
  bottom: "conv3"
  top: "conv3"
}
layer {
  name: "conv4"
  type: "Convolution"
  bottom: "conv3"
  top: "conv4"
  param {
    lr_mult: 0.1
    decay_mult: 1
  }
  param {
    lr_mult: 0.2
    decay_mult: 0
  }
  convolution_param {
    num_output: 384
    pad: 1
    kernel_size: 3
    group: 2
    weight_filler {
      type: "gaussian"
      std: 0.01
    }
    bias_filler {
      type: "constant"
      value: 1
    }
  }
}
layer {
  name: "relu4"
  type: "ReLU"
  bottom: "conv4"
  top: "conv4"
}
layer {
  name: "conv5"
  type: "Convolution"
  bottom: "conv4"
  top: "conv5"
  param {
    lr_mult: 0.1
    decay_mult: 1
  }
  param {
    lr_mult: 0.2
    decay_mult: 0
  }
  convolution_param {
    num_output: 256
    pad: 1
    kernel_size: 3
    group: 2
    weight_filler {
      type: "gaussian"
      std: 0.01
    }
    bias_filler {
      type: "constant"
      value: 1
    }
  }
}
layer {
  name: "relu5"
  type: "ReLU"
  bottom: "conv5"
  top: "conv5"
}
layer {
  name: "pool5"
  type: "Pooling"
  bottom: "conv5"
  top: "pool5"
  pooling_param {
    pool: MAX
    kernel_size: 3
    stride: 2
  }
}
layer {
  name: "fc6"
  type: "InnerProduct"
  bottom: "pool5"
  top: "fc6"
  param {
    lr_mult: 0.1
    decay_mult: 1
  }
  param {
    lr_mult: 0.2
    decay_mult: 0
  }
  inner_product_param {
    num_output: 4096
    weight_filler {
      type: "gaussian"
      std: 0.005
    }
    bias_filler {
      type: "constant"
      value: 1
    }
  }
}
layer {
  name: "relu6"
  type: "ReLU"
  bottom: "fc6"
  top: "fc6"
}
layer {
  name: "drop6"
  type: "Dropout"
  bottom: "fc6"
  top: "fc6"
  dropout_param {
    dropout_ratio: 0.5
  }
}
layer {
  name: "fc7"
  type: "InnerProduct"
  bottom: "fc6"
  top: "fc7"
  param {
    lr_mult: 0.1
    decay_mult: 1
  }
  param {
    lr_mult: 0.2
    decay_mult: 0
  }
  inner_product_param {
    num_output: 4096
    weight_filler {
      type: "gaussian"
      std: 0.005
    }
    bias_filler {
      type: "constant"
      value: 1
    }
  }
}
layer {
  name: "relu7"
  type: "ReLU"
  bottom: "fc7"
  top: "fc7"
}
layer {
  name: "drop7"
  type: "Dropout"
  bottom: "fc7"
  top: "fc7"
  dropout_param {
    dropout_ratio: 0.5
  }
}
layer {
  name: "fc8_new"
  type: "InnerProduct"
  bottom: "fc7"
  top: "fc8"
  param {
    lr_mult: 1
    decay_mult: 1
  }
  param {
    lr_mult: 2
    decay_mult: 0
  }
  inner_product_param {
    num_output: 31
    weight_filler {
      type: "gaussian"
      std: 0.01
    }
    bias_filler {
      type: "constant"
      value: 0
    }
  }
}
layer {
  name: "slice_fc7"
  type: "Slice"
  bottom: "fc7"
  top: "fc7_source"
  top: "fc7_target"
  include {
    phase: TRAIN
  }
  slice_param {
    slice_dim: 0
  }
}
layer {
  name: "slice_fc8"
  type: "Slice"
  bottom: "fc8"
  top: "fc8_source"
  top: "fc8_target"
  include {
    phase: TRAIN
  }
  slice_param {
    slice_dim: 0
  }
}
layer {
  name: "silence"
  type: "Silence"
  bottom: "fc8_target"
  include {
    phase: TRAIN
  }
}
layer {
  name: "softmax_loss"
  type: "SoftmaxWithLoss"
  bottom: "fc8_source"
  bottom: "source_label"
  top: "softmax_loss"
  include {
    phase: TRAIN
  }
}
layer {
  name: "fc8_softmax"
  type: "Softmax"
  bottom: "fc8"
  top: "fc8_softmax"
  include {
    phase: TRAIN
  }
}
layer {
  name: "slice_softmax"
  type: "Slice"
  bottom: "fc8_softmax"
  top: "source_softmax"
  top: "target_softmax"
  include {
    phase: TRAIN
  }
  slice_param {
    slice_dim: 0
  }
}
layer {
  name: "jmmd_loss_fc7"
  type: "JMMDLoss"
  bottom: "fc7_source"
  bottom: "fc7_target"
  bottom: "source_softmax"
  bottom: "target_softmax"
  top: "jmmd_loss_fc7"
  loss_weight: 0.3
  include {
    phase: TRAIN
  }
}
layer {
  name: "jmmd_loss_softmax"
  type: "JMMDLoss"
  bottom: "source_softmax"
  bottom: "target_softmax"
  bottom: "source_softmax"
  bottom: "target_softmax"
  top: "jmmd_loss_softmax"
  loss_weight: 0.3
  include {
    phase: TRAIN
  }
}
layer {
  name: "silence_loss_value"
  type: "Silence"
  bottom: "jmmd_loss_fc7"
  bottom: "jmmd_loss_softmax"
  include {
    phase: TRAIN
  }
}
I1008 12:23:33.632756 55935 layer_factory.hpp:77] Creating layer source_data
I1008 12:23:33.632800 55935 net.cpp:100] Creating Layer source_data
I1008 12:23:33.632817 55935 net.cpp:408] source_data -> source_data
I1008 12:23:33.632841 55935 net.cpp:408] source_data -> source_label
I1008 12:23:33.632856 55935 data_transformer.cpp:25] Loading mean file from: ./data/ilsvrc12/imagenet_mean.binaryproto
I1008 12:23:33.661975 55935 image_data_layer.cpp:38] Opening file ./data/office/dslr_list.txt
I1008 12:23:33.662174 55935 image_data_layer.cpp:53] Shuffling data
I1008 12:23:33.662216 55935 image_data_layer.cpp:58] A total of 498 images.
I1008 12:23:34.175912 55935 image_data_layer.cpp:85] output data size: 64,3,227,227
I1008 12:23:34.267448 55935 net.cpp:150] Setting up source_data
I1008 12:23:34.267514 55935 net.cpp:157] Top shape: 64 3 227 227 (9893568)
I1008 12:23:34.267523 55935 net.cpp:157] Top shape: 64 (64)
I1008 12:23:34.267526 55935 net.cpp:165] Memory required for data: 39574528
I1008 12:23:34.267540 55935 layer_factory.hpp:77] Creating layer target_data
I1008 12:23:34.267583 55935 net.cpp:100] Creating Layer target_data
I1008 12:23:34.267593 55935 net.cpp:408] target_data -> target_data
I1008 12:23:34.267613 55935 net.cpp:408] target_data -> target_label
I1008 12:23:34.267623 55935 data_transformer.cpp:25] Loading mean file from: ./data/ilsvrc12/imagenet_mean.binaryproto
I1008 12:23:34.269002 55935 image_data_layer.cpp:38] Opening file ./data/office/amazon_list.txt
I1008 12:23:34.269891 55935 image_data_layer.cpp:53] Shuffling data
I1008 12:23:34.270090 55935 image_data_layer.cpp:58] A total of 2817 images.
I1008 12:23:34.271452 55935 image_data_layer.cpp:85] output data size: 64,3,227,227
I1008 12:23:34.360146 55935 net.cpp:150] Setting up target_data
I1008 12:23:34.360188 55935 net.cpp:157] Top shape: 64 3 227 227 (9893568)
I1008 12:23:34.360195 55935 net.cpp:157] Top shape: 64 (64)
I1008 12:23:34.360199 55935 net.cpp:165] Memory required for data: 79149056
I1008 12:23:34.360210 55935 layer_factory.hpp:77] Creating layer target_label_silence
I1008 12:23:34.360229 55935 net.cpp:100] Creating Layer target_label_silence
I1008 12:23:34.360237 55935 net.cpp:434] target_label_silence <- target_label
I1008 12:23:34.360255 55935 net.cpp:150] Setting up target_label_silence
I1008 12:23:34.360260 55935 net.cpp:165] Memory required for data: 79149056
I1008 12:23:34.360265 55935 layer_factory.hpp:77] Creating layer data
I1008 12:23:34.360278 55935 net.cpp:100] Creating Layer data
I1008 12:23:34.360282 55935 net.cpp:434] data <- source_data
I1008 12:23:34.360290 55935 net.cpp:434] data <- target_data
I1008 12:23:34.360297 55935 net.cpp:408] data -> data
I1008 12:23:34.360409 55935 net.cpp:150] Setting up data
I1008 12:23:34.360420 55935 net.cpp:157] Top shape: 128 3 227 227 (19787136)
I1008 12:23:34.360425 55935 net.cpp:165] Memory required for data: 158297600
I1008 12:23:34.360430 55935 layer_factory.hpp:77] Creating layer conv1
I1008 12:23:34.360452 55935 net.cpp:100] Creating Layer conv1
I1008 12:23:34.360457 55935 net.cpp:434] conv1 <- data
I1008 12:23:34.360466 55935 net.cpp:408] conv1 -> conv1
I1008 12:23:34.366019 55935 net.cpp:150] Setting up conv1
I1008 12:23:34.366040 55935 net.cpp:157] Top shape: 128 96 55 55 (37171200)
I1008 12:23:34.366045 55935 net.cpp:165] Memory required for data: 306982400
I1008 12:23:34.366065 55935 layer_factory.hpp:77] Creating layer relu1
I1008 12:23:34.366078 55935 net.cpp:100] Creating Layer relu1
I1008 12:23:34.366083 55935 net.cpp:434] relu1 <- conv1
I1008 12:23:34.366091 55935 net.cpp:395] relu1 -> conv1 (in-place)
I1008 12:23:34.366101 55935 net.cpp:150] Setting up relu1
I1008 12:23:34.366106 55935 net.cpp:157] Top shape: 128 96 55 55 (37171200)
I1008 12:23:34.366111 55935 net.cpp:165] Memory required for data: 455667200
I1008 12:23:34.366114 55935 layer_factory.hpp:77] Creating layer pool1
I1008 12:23:34.366125 55935 net.cpp:100] Creating Layer pool1
I1008 12:23:34.366129 55935 net.cpp:434] pool1 <- conv1
I1008 12:23:34.366135 55935 net.cpp:408] pool1 -> pool1
I1008 12:23:34.366185 55935 net.cpp:150] Setting up pool1
I1008 12:23:34.366214 55935 net.cpp:157] Top shape: 128 96 27 27 (8957952)
I1008 12:23:34.366231 55935 net.cpp:165] Memory required for data: 491499008
I1008 12:23:34.366236 55935 layer_factory.hpp:77] Creating layer norm1
I1008 12:23:34.366245 55935 net.cpp:100] Creating Layer norm1
I1008 12:23:34.366250 55935 net.cpp:434] norm1 <- pool1
I1008 12:23:34.366256 55935 net.cpp:408] norm1 -> norm1
I1008 12:23:34.366292 55935 net.cpp:150] Setting up norm1
I1008 12:23:34.366299 55935 net.cpp:157] Top shape: 128 96 27 27 (8957952)
I1008 12:23:34.366304 55935 net.cpp:165] Memory required for data: 527330816
I1008 12:23:34.366307 55935 layer_factory.hpp:77] Creating layer conv2
I1008 12:23:34.366322 55935 net.cpp:100] Creating Layer conv2
I1008 12:23:34.366327 55935 net.cpp:434] conv2 <- norm1
I1008 12:23:34.366334 55935 net.cpp:408] conv2 -> conv2
I1008 12:23:34.377591 55935 net.cpp:150] Setting up conv2
I1008 12:23:34.377611 55935 net.cpp:157] Top shape: 128 256 27 27 (23887872)
I1008 12:23:34.377616 55935 net.cpp:165] Memory required for data: 622882304
I1008 12:23:34.377629 55935 layer_factory.hpp:77] Creating layer relu2
I1008 12:23:34.377640 55935 net.cpp:100] Creating Layer relu2
I1008 12:23:34.377645 55935 net.cpp:434] relu2 <- conv2
I1008 12:23:34.377651 55935 net.cpp:395] relu2 -> conv2 (in-place)
I1008 12:23:34.377660 55935 net.cpp:150] Setting up relu2
I1008 12:23:34.377665 55935 net.cpp:157] Top shape: 128 256 27 27 (23887872)
I1008 12:23:34.377670 55935 net.cpp:165] Memory required for data: 718433792
I1008 12:23:34.377673 55935 layer_factory.hpp:77] Creating layer pool2
I1008 12:23:34.377682 55935 net.cpp:100] Creating Layer pool2
I1008 12:23:34.377686 55935 net.cpp:434] pool2 <- conv2
I1008 12:23:34.377691 55935 net.cpp:408] pool2 -> pool2
I1008 12:23:34.377732 55935 net.cpp:150] Setting up pool2
I1008 12:23:34.377739 55935 net.cpp:157] Top shape: 128 256 13 13 (5537792)
I1008 12:23:34.377743 55935 net.cpp:165] Memory required for data: 740584960
I1008 12:23:34.377746 55935 layer_factory.hpp:77] Creating layer norm2
I1008 12:23:34.377755 55935 net.cpp:100] Creating Layer norm2
I1008 12:23:34.377760 55935 net.cpp:434] norm2 <- pool2
I1008 12:23:34.377768 55935 net.cpp:408] norm2 -> norm2
I1008 12:23:34.377800 55935 net.cpp:150] Setting up norm2
I1008 12:23:34.377806 55935 net.cpp:157] Top shape: 128 256 13 13 (5537792)
I1008 12:23:34.377810 55935 net.cpp:165] Memory required for data: 762736128
I1008 12:23:34.377815 55935 layer_factory.hpp:77] Creating layer conv3
I1008 12:23:34.377826 55935 net.cpp:100] Creating Layer conv3
I1008 12:23:34.377830 55935 net.cpp:434] conv3 <- norm2
I1008 12:23:34.377838 55935 net.cpp:408] conv3 -> conv3
I1008 12:23:34.402691 55935 net.cpp:150] Setting up conv3
I1008 12:23:34.402729 55935 net.cpp:157] Top shape: 128 384 13 13 (8306688)
I1008 12:23:34.402734 55935 net.cpp:165] Memory required for data: 795962880
I1008 12:23:34.402746 55935 layer_factory.hpp:77] Creating layer relu3
I1008 12:23:34.402755 55935 net.cpp:100] Creating Layer relu3
I1008 12:23:34.402760 55935 net.cpp:434] relu3 <- conv3
I1008 12:23:34.402766 55935 net.cpp:395] relu3 -> conv3 (in-place)
I1008 12:23:34.402776 55935 net.cpp:150] Setting up relu3
I1008 12:23:34.402781 55935 net.cpp:157] Top shape: 128 384 13 13 (8306688)
I1008 12:23:34.402784 55935 net.cpp:165] Memory required for data: 829189632
I1008 12:23:34.402788 55935 layer_factory.hpp:77] Creating layer conv4
I1008 12:23:34.402801 55935 net.cpp:100] Creating Layer conv4
I1008 12:23:34.402804 55935 net.cpp:434] conv4 <- conv3
I1008 12:23:34.402812 55935 net.cpp:408] conv4 -> conv4
I1008 12:23:34.421169 55935 net.cpp:150] Setting up conv4
I1008 12:23:34.421187 55935 net.cpp:157] Top shape: 128 384 13 13 (8306688)
I1008 12:23:34.421192 55935 net.cpp:165] Memory required for data: 862416384
I1008 12:23:34.421200 55935 layer_factory.hpp:77] Creating layer relu4
I1008 12:23:34.421208 55935 net.cpp:100] Creating Layer relu4
I1008 12:23:34.421213 55935 net.cpp:434] relu4 <- conv4
I1008 12:23:34.421221 55935 net.cpp:395] relu4 -> conv4 (in-place)
I1008 12:23:34.421243 55935 net.cpp:150] Setting up relu4
I1008 12:23:34.421249 55935 net.cpp:157] Top shape: 128 384 13 13 (8306688)
I1008 12:23:34.421267 55935 net.cpp:165] Memory required for data: 895643136
I1008 12:23:34.421272 55935 layer_factory.hpp:77] Creating layer conv5
I1008 12:23:34.421288 55935 net.cpp:100] Creating Layer conv5
I1008 12:23:34.421291 55935 net.cpp:434] conv5 <- conv4
I1008 12:23:34.421299 55935 net.cpp:408] conv5 -> conv5
I1008 12:23:34.434278 55935 net.cpp:150] Setting up conv5
I1008 12:23:34.434295 55935 net.cpp:157] Top shape: 128 256 13 13 (5537792)
I1008 12:23:34.434300 55935 net.cpp:165] Memory required for data: 917794304
I1008 12:23:34.434311 55935 layer_factory.hpp:77] Creating layer relu5
I1008 12:23:34.434319 55935 net.cpp:100] Creating Layer relu5
I1008 12:23:34.434324 55935 net.cpp:434] relu5 <- conv5
I1008 12:23:34.434330 55935 net.cpp:395] relu5 -> conv5 (in-place)
I1008 12:23:34.434339 55935 net.cpp:150] Setting up relu5
I1008 12:23:34.434345 55935 net.cpp:157] Top shape: 128 256 13 13 (5537792)
I1008 12:23:34.434348 55935 net.cpp:165] Memory required for data: 939945472
I1008 12:23:34.434352 55935 layer_factory.hpp:77] Creating layer pool5
I1008 12:23:34.434363 55935 net.cpp:100] Creating Layer pool5
I1008 12:23:34.434367 55935 net.cpp:434] pool5 <- conv5
I1008 12:23:34.434373 55935 net.cpp:408] pool5 -> pool5
I1008 12:23:34.434411 55935 net.cpp:150] Setting up pool5
I1008 12:23:34.434418 55935 net.cpp:157] Top shape: 128 256 6 6 (1179648)
I1008 12:23:34.434422 55935 net.cpp:165] Memory required for data: 944664064
I1008 12:23:34.434425 55935 layer_factory.hpp:77] Creating layer fc6
I1008 12:23:34.434435 55935 net.cpp:100] Creating Layer fc6
I1008 12:23:34.434440 55935 net.cpp:434] fc6 <- pool5
I1008 12:23:34.434448 55935 net.cpp:408] fc6 -> fc6
I1008 12:23:35.313347 55935 net.cpp:150] Setting up fc6
I1008 12:23:35.313385 55935 net.cpp:157] Top shape: 128 4096 (524288)
I1008 12:23:35.313390 55935 net.cpp:165] Memory required for data: 946761216
I1008 12:23:35.313400 55935 layer_factory.hpp:77] Creating layer relu6
I1008 12:23:35.313418 55935 net.cpp:100] Creating Layer relu6
I1008 12:23:35.313423 55935 net.cpp:434] relu6 <- fc6
I1008 12:23:35.313431 55935 net.cpp:395] relu6 -> fc6 (in-place)
I1008 12:23:35.313442 55935 net.cpp:150] Setting up relu6
I1008 12:23:35.313446 55935 net.cpp:157] Top shape: 128 4096 (524288)
I1008 12:23:35.313450 55935 net.cpp:165] Memory required for data: 948858368
I1008 12:23:35.313454 55935 layer_factory.hpp:77] Creating layer drop6
I1008 12:23:35.313463 55935 net.cpp:100] Creating Layer drop6
I1008 12:23:35.313467 55935 net.cpp:434] drop6 <- fc6
I1008 12:23:35.313472 55935 net.cpp:395] drop6 -> fc6 (in-place)
I1008 12:23:35.313494 55935 net.cpp:150] Setting up drop6
I1008 12:23:35.313499 55935 net.cpp:157] Top shape: 128 4096 (524288)
I1008 12:23:35.313503 55935 net.cpp:165] Memory required for data: 950955520
I1008 12:23:35.313506 55935 layer_factory.hpp:77] Creating layer fc7
I1008 12:23:35.313514 55935 net.cpp:100] Creating Layer fc7
I1008 12:23:35.313519 55935 net.cpp:434] fc7 <- fc6
I1008 12:23:35.313524 55935 net.cpp:408] fc7 -> fc7
I1008 12:23:35.687625 55935 net.cpp:150] Setting up fc7
I1008 12:23:35.687664 55935 net.cpp:157] Top shape: 128 4096 (524288)
I1008 12:23:35.687669 55935 net.cpp:165] Memory required for data: 953052672
I1008 12:23:35.687680 55935 layer_factory.hpp:77] Creating layer relu7
I1008 12:23:35.687697 55935 net.cpp:100] Creating Layer relu7
I1008 12:23:35.687705 55935 net.cpp:434] relu7 <- fc7
I1008 12:23:35.687712 55935 net.cpp:395] relu7 -> fc7 (in-place)
I1008 12:23:35.687723 55935 net.cpp:150] Setting up relu7
I1008 12:23:35.687727 55935 net.cpp:157] Top shape: 128 4096 (524288)
I1008 12:23:35.687731 55935 net.cpp:165] Memory required for data: 955149824
I1008 12:23:35.687734 55935 layer_factory.hpp:77] Creating layer drop7
I1008 12:23:35.687743 55935 net.cpp:100] Creating Layer drop7
I1008 12:23:35.687747 55935 net.cpp:434] drop7 <- fc7
I1008 12:23:35.687752 55935 net.cpp:395] drop7 -> fc7 (in-place)
I1008 12:23:35.687785 55935 net.cpp:150] Setting up drop7
I1008 12:23:35.687791 55935 net.cpp:157] Top shape: 128 4096 (524288)
I1008 12:23:35.687808 55935 net.cpp:165] Memory required for data: 957246976
I1008 12:23:35.687813 55935 layer_factory.hpp:77] Creating layer fc7_drop7_0_split
I1008 12:23:35.687819 55935 net.cpp:100] Creating Layer fc7_drop7_0_split
I1008 12:23:35.687822 55935 net.cpp:434] fc7_drop7_0_split <- fc7
I1008 12:23:35.687827 55935 net.cpp:408] fc7_drop7_0_split -> fc7_drop7_0_split_0
I1008 12:23:35.687836 55935 net.cpp:408] fc7_drop7_0_split -> fc7_drop7_0_split_1
I1008 12:23:35.687865 55935 net.cpp:150] Setting up fc7_drop7_0_split
I1008 12:23:35.687871 55935 net.cpp:157] Top shape: 128 4096 (524288)
I1008 12:23:35.687875 55935 net.cpp:157] Top shape: 128 4096 (524288)
I1008 12:23:35.687880 55935 net.cpp:165] Memory required for data: 961441280
I1008 12:23:35.687882 55935 layer_factory.hpp:77] Creating layer fc8_new
I1008 12:23:35.687891 55935 net.cpp:100] Creating Layer fc8_new
I1008 12:23:35.687896 55935 net.cpp:434] fc8_new <- fc7_drop7_0_split_0
I1008 12:23:35.687901 55935 net.cpp:408] fc8_new -> fc8
I1008 12:23:35.690585 55935 net.cpp:150] Setting up fc8_new
I1008 12:23:35.690593 55935 net.cpp:157] Top shape: 128 31 (3968)
I1008 12:23:35.690598 55935 net.cpp:165] Memory required for data: 961457152
I1008 12:23:35.690603 55935 layer_factory.hpp:77] Creating layer fc8_fc8_new_0_split
I1008 12:23:35.690609 55935 net.cpp:100] Creating Layer fc8_fc8_new_0_split
I1008 12:23:35.690613 55935 net.cpp:434] fc8_fc8_new_0_split <- fc8
I1008 12:23:35.690618 55935 net.cpp:408] fc8_fc8_new_0_split -> fc8_fc8_new_0_split_0
I1008 12:23:35.690624 55935 net.cpp:408] fc8_fc8_new_0_split -> fc8_fc8_new_0_split_1
I1008 12:23:35.690646 55935 net.cpp:150] Setting up fc8_fc8_new_0_split
I1008 12:23:35.690652 55935 net.cpp:157] Top shape: 128 31 (3968)
I1008 12:23:35.690655 55935 net.cpp:157] Top shape: 128 31 (3968)
I1008 12:23:35.690659 55935 net.cpp:165] Memory required for data: 961488896
I1008 12:23:35.690662 55935 layer_factory.hpp:77] Creating layer slice_fc7
I1008 12:23:35.690672 55935 net.cpp:100] Creating Layer slice_fc7
I1008 12:23:35.690675 55935 net.cpp:434] slice_fc7 <- fc7_drop7_0_split_1
I1008 12:23:35.690681 55935 net.cpp:408] slice_fc7 -> fc7_source
I1008 12:23:35.690690 55935 net.cpp:408] slice_fc7 -> fc7_target
I1008 12:23:35.690717 55935 net.cpp:150] Setting up slice_fc7
I1008 12:23:35.690722 55935 net.cpp:157] Top shape: 64 4096 (262144)
I1008 12:23:35.690727 55935 net.cpp:157] Top shape: 64 4096 (262144)
I1008 12:23:35.690729 55935 net.cpp:165] Memory required for data: 963586048
I1008 12:23:35.690733 55935 layer_factory.hpp:77] Creating layer slice_fc8
I1008 12:23:35.690738 55935 net.cpp:100] Creating Layer slice_fc8
I1008 12:23:35.690743 55935 net.cpp:434] slice_fc8 <- fc8_fc8_new_0_split_0
I1008 12:23:35.690747 55935 net.cpp:408] slice_fc8 -> fc8_source
I1008 12:23:35.690753 55935 net.cpp:408] slice_fc8 -> fc8_target
I1008 12:23:35.690793 55935 net.cpp:150] Setting up slice_fc8
I1008 12:23:35.690800 55935 net.cpp:157] Top shape: 64 31 (1984)
I1008 12:23:35.690804 55935 net.cpp:157] Top shape: 64 31 (1984)
I1008 12:23:35.690806 55935 net.cpp:165] Memory required for data: 963601920
I1008 12:23:35.690810 55935 layer_factory.hpp:77] Creating layer silence
I1008 12:23:35.691606 55935 net.cpp:100] Creating Layer silence
I1008 12:23:35.691613 55935 net.cpp:434] silence <- fc8_target
I1008 12:23:35.691618 55935 net.cpp:150] Setting up silence
I1008 12:23:35.691622 55935 net.cpp:165] Memory required for data: 963601920
…
I1008 12:23:35.691732 55935 net.cpp:150] Setting up softmax_loss
I1008 12:23:35.691746 55935 net.cpp:157] Top shape: (1)
I1008 12:23:35.691751 55935 net.cpp:160]     with loss weight 1
I1008 12:23:35.691778 55935 net.cpp:165] Memory required for data: 963601924
I1008 12:23:35.691782 55935 layer_factory.hpp:77] Creating layer fc8_softmax
I1008 12:23:35.691797 55935 net.cpp:100] Creating Layer fc8_softmax
I1008 12:23:35.691800 55935 net.cpp:434] fc8_softmax <- fc8_fc8_new_0_split_1
I1008 12:23:35.691805 55935 net.cpp:408] fc8_softmax -> fc8_softmax
I1008 12:23:35.691851 55935 net.cpp:150] Setting up fc8_softmax
I1008 12:23:35.691857 55935 net.cpp:157] Top shape: 128 31 (3968)
I1008 12:23:35.691861 55935 net.cpp:165] Memory required for data: 963617796
I1008 12:23:35.691864 55935 layer_factory.hpp:77] Creating layer slice_softmax
I1008 12:23:35.691871 55935 net.cpp:100] Creating Layer slice_softmax
I1008 12:23:35.691875 55935 net.cpp:434] slice_softmax <- fc8_softmax
I1008 12:23:35.691880 55935 net.cpp:408] slice_softmax -> source_softmax
I1008 12:23:35.691886 55935 net.cpp:408] slice_softmax -> target_softmax
I1008 12:23:35.691911 55935 net.cpp:150] Setting up slice_softmax
I1008 12:23:35.691917 55935 net.cpp:157] Top shape: 64 31 (1984)
I1008 12:23:35.691921 55935 net.cpp:157] Top shape: 64 31 (1984)
I1008 12:23:35.691925 55935 net.cpp:165] Memory required for data: 963633668
I1008 12:23:35.691927 55935 layer_factory.hpp:77] Creating layer source_softmax_slice_softmax_0_split
I1008 12:23:35.691932 55935 net.cpp:100] Creating Layer source_softmax_slice_softmax_0_split
I1008 12:23:35.691936 55935 net.cpp:434] source_softmax_slice_softmax_0_split <- source_softmax
I1008 12:23:35.691941 55935 net.cpp:408] source_softmax_slice_softmax_0_split -> source_softmax_slice_softmax_0_split_0
I1008 12:23:35.691947 55935 net.cpp:408] source_softmax_slice_softmax_0_split -> source_softmax_slice_softmax_0_split_1
I1008 12:23:35.691952 55935 net.cpp:408] source_softmax_slice_softmax_0_split -> source_softmax_slice_softmax_0_split_2
I1008 12:23:35.691987 55935 net.cpp:150] Setting up source_softmax_slice_softmax_0_split
I1008 12:23:35.691992 55935 net.cpp:157] Top shape: 64 31 (1984)
I1008 12:23:35.691996 55935 net.cpp:157] Top shape: 64 31 (1984)
I1008 12:23:35.692000 55935 net.cpp:157] Top shape: 64 31 (1984)
I1008 12:23:35.692003 55935 net.cpp:165] Memory required for data: 963657476
I1008 12:23:35.692006 55935 layer_factory.hpp:77] Creating layer target_softmax_slice_softmax_1_split
I1008 12:23:35.692013 55935 net.cpp:100] Creating Layer target_softmax_slice_softmax_1_split
I1008 12:23:35.692016 55935 net.cpp:434] target_softmax_slice_softmax_1_split <- target_softmax
I1008 12:23:35.692023 55935 net.cpp:408] target_softmax_slice_softmax_1_split -> target_softmax_slice_softmax_1_split_0
I1008 12:23:35.692028 55935 net.cpp:408] target_softmax_slice_softmax_1_split -> target_softmax_slice_softmax_1_split_1
I1008 12:23:35.692032 55935 net.cpp:408] target_softmax_slice_softmax_1_split -> target_softmax_slice_softmax_1_split_2
I1008 12:23:35.692065 55935 net.cpp:150] Setting up target_softmax_slice_softmax_1_split
I1008 12:23:35.692070 55935 net.cpp:157] Top shape: 64 31 (1984)
I1008 12:23:35.692075 55935 net.cpp:157] Top shape: 64 31 (1984)
I1008 12:23:35.692077 55935 net.cpp:157] Top shape: 64 31 (1984)
I1008 12:23:35.692080 55935 net.cpp:165] Memory required for data: 963681284
I1008 12:23:35.692085 55935 layer_factory.hpp:77] Creating layer jmmd_loss_fc7
I1008 12:23:35.692091 55935 net.cpp:100] Creating Layer jmmd_loss_fc7
I1008 12:23:35.692095 55935 net.cpp:434] jmmd_loss_fc7 <- fc7_source
I1008 12:23:35.692100 55935 net.cpp:434] jmmd_loss_fc7 <- fc7_target
I1008 12:23:35.692103 55935 net.cpp:434] jmmd_loss_fc7 <- source_softmax_slice_softmax_0_split_0
…
I1008 12:23:35.693531 55935 net.cpp:322] The NetState phase (1) differed from the phase (0) specified by a rule in layer silence_loss_value
I1008 12:23:35.693722 55935 net.cpp:58] Initializing net from parameters: 
name: "amazon_to_webcam"
state {
  phase: TEST
}
layer {
  name: "test_data"
  type: "ImageData"
  top: "data"
  top: "label"
  include {
    phase: TEST
  }
  transform_param {
    mirror: false
    crop_size: 227
    mean_file: "./data/ilsvrc12/imagenet_mean.binaryproto"
  }
  image_data_param {
    source: "./data/office/amazon_list.txt"
    batch_size: 1
    shuffle: false
    new_height: 256
    new_width: 256
  }
}
layer {
  name: "conv1"
  type: "Convolution"
  bottom: "data"
  top: "conv1"
  param {
    lr_mult: 0
    decay_mult: 1
  }
  param {
    lr_mult: 0
    decay_mult: 0
  }
  convolution_param {
    num_output: 96
    kernel_size: 11
    stride: 4
    weight_filler {
      type: "gaussian"
      std: 0.01
    }
    bias_filler {
      type: "constant"
      value: 0
    }
  }
}
layer {
  name: "relu1"
  type: "ReLU"
  bottom: "conv1"
  top: "conv1"
}
layer {
  name: "pool1"
  type: "Pooling"
  bottom: "conv1"
  top: "pool1"
  pooling_param {
    pool: MAX
    kernel_size: 3
    stride: 2
  }
}
layer {
  name: "norm1"
  type: "LRN"
  bottom: "pool1"
  top: "norm1"
  lrn_param {
    local_size: 5
    alpha: 0.0001
    beta: 0.75
  }
}
layer {
  name: "conv2"
  type: "Convolution"
  bottom: "norm1"
  top: "conv2"
  param {
    lr_mult: 0
    decay_mult: 1
  }
  param {
    lr_mult: 0
    decay_mult: 0
  }
  convolution_param {
    num_output: 256
    pad: 2
    kernel_size: 5
    group: 2
    weight_filler {
      type: "gaussian"
      std: 0.01
    }
    bias_filler {
      type: "constant"
      value: 1
    }
  }
}
layer {
  name: "relu2"
  type: "ReLU"
  bottom: "conv2"
  top: "conv2"
}
layer {
  name: "pool2"
  type: "Pooling"
  bottom: "conv2"
  top: "pool2"
  pooling_param {
    pool: MAX
    kernel_size: 3
    stride: 2
  }
}
layer {
  name: "norm2"
  type: "LRN"
  bottom: "pool2"
  top: "norm2"
  lrn_param {
    local_size: 5
    alpha: 0.0001
    beta: 0.75
  }
}
layer {
  name: "conv3"
  type: "Convolution"
  bottom: "norm2"
  top: "conv3"
  param {
    lr_mult: 0.1
    decay_mult: 1
  }
  param {
    lr_mult: 0.2
    decay_mult: 0
  }
  convolution_param {
    num_output: 384
    pad: 1
    kernel_size: 3
    weight_filler {
      type: "gaussian"
      std: 0.01
    }
    bias_filler {
      type: "constant"
      value: 0
    }
  }
}
layer {
  name: "relu3"
  type: "ReLU"
  bottom: "conv3"
  top: "conv3"
}
layer {
  name: "conv4"
  type: "Convolution"
  bottom: "conv3"
  top: "conv4"
  param {
    lr_mult: 0.1
    decay_mult: 1
  }
  param {
    lr_mult: 0.2
    decay_mult: 0
  }
  convolution_param {
    num_output: 384
    pad: 1
    kernel_size: 3
    group: 2
    weight_filler {
      type: "gaussian"
      std: 0.01
    }
    bias_filler {
      type: "constant"
      value: 1
    }
  }
}
layer {
  name: "relu4"
  type: "ReLU"
  bottom: "conv4"
  top: "conv4"
}
layer {
  name: "conv5"
  type: "Convolution"
  bottom: "conv4"
  top: "conv5"
  param {
    lr_mult: 0.1
    decay_mult: 1
  }
  param {
    lr_mult: 0.2
    decay_mult: 0
  }
  convolution_param {
    num_output: 256
    pad: 1
    kernel_size: 3
    group: 2
    weight_filler {
      type: "gaussian"
      std: 0.01
    }
    bias_filler {
      type: "constant"
      value: 1
    }
  }
}
layer {
  name: "relu5"
  type: "ReLU"
  bottom: "conv5"
  top: "conv5"
}
layer {
  name: "pool5"
  type: "Pooling"
  bottom: "conv5"
  top: "pool5"
  pooling_param {
    pool: MAX
    kernel_size: 3
    stride: 2
  }
}
layer {
  name: "fc6"
  type: "InnerProduct"
  bottom: "pool5"
  top: "fc6"
  param {
    lr_mult: 0.1
    decay_mult: 1
  }
  param {
    lr_mult: 0.2
    decay_mult: 0
  }
  inner_product_param {
    num_output: 4096
    weight_filler {
      type: "gaussian"
      std: 0.005
    }
    bias_filler {
      type: "constant"
      value: 1
    }
  }
}
layer {
  name: "relu6"
  type: "ReLU"
  bottom: "fc6"
  top: "fc6"
}
layer {
  name: "drop6"
  type: "Dropout"
  bottom: "fc6"
  top: "fc6"
  dropout_param {
    dropout_ratio: 0.5
  }
}
layer {
  name: "fc7"
  type: "InnerProduct"
  bottom: "fc6"
  top: "fc7"
  param {
    lr_mult: 0.1
    decay_mult: 1
  }
  param {
    lr_mult: 0.2
    decay_mult: 0
  }
  inner_product_param {
    num_output: 4096
    weight_filler {
      type: "gaussian"
      std: 0.005
    }
    bias_filler {
      type: "constant"
      value: 1
    }
  }
}
layer {
  name: "relu7"
  type: "ReLU"
  bottom: "fc7"
  top: "fc7"
}
layer {
  name: "drop7"
  type: "Dropout"
  bottom: "fc7"
  top: "fc7"
  dropout_param {
    dropout_ratio: 0.5
  }
}
layer {
  name: "fc8_new"
  type: "InnerProduct"
  bottom: "fc7"
  top: "fc8"
  param {
    lr_mult: 1
    decay_mult: 1
  }
  param {
    lr_mult: 2
    decay_mult: 0
  }
  inner_product_param {
    num_output: 31
    weight_filler {
      type: "gaussian"
      std: 0.01
    }
    bias_filler {
      type: "constant"
      value: 0
    }
  }
}
layer {
  name: "accuracy"
  type: "Accuracy"
  bottom: "fc8"
  bottom: "label"
  top: "accuracy"
  include {
    phase: TEST
  }
}
I1008 12:23:35.693805 55935 layer_factory.hpp:77] Creating layer test_data
I1008 12:23:35.693819 55935 net.cpp:100] Creating Layer test_data
I1008 12:23:35.693823 55935 net.cpp:408] test_data -> data
I1008 12:23:35.693831 55935 net.cpp:408] test_data -> label
I1008 12:23:35.693838 55935 data_transformer.cpp:25] Loading mean file from: ./data/ilsvrc12/imagenet_mean.binaryproto
I1008 12:23:35.696633 55935 image_data_layer.cpp:38] Opening file ./data/office/amazon_list.txt
I1008 12:23:35.697327 55935 image_data_layer.cpp:58] A total of 2817 images.
I1008 12:23:35.698397 55935 image_data_layer.cpp:85] output data size: 1,3,227,227
I1008 12:23:35.700819 55935 net.cpp:150] Setting up test_data
I1008 12:23:35.700834 55935 net.cpp:157] Top shape: 1 3 227 227 (154587)
I1008 12:23:35.700839 55935 net.cpp:157] Top shape: 1 (1)
I1008 12:23:35.700842 55935 net.cpp:165] Memory required for data: 618352
I1008 12:23:35.700847 55935 layer_factory.hpp:77] Creating layer conv1
I1008 12:23:35.700860 55935 net.cpp:100] Creating Layer conv1
I1008 12:23:35.700865 55935 net.cpp:434] conv1 <- data
I1008 12:23:35.700870 55935 net.cpp:408] conv1 -> conv1
I1008 12:23:35.701886 55935 net.cpp:150] Setting up conv1
I1008 12:23:35.701896 55935 net.cpp:157] Top shape: 1 96 55 55 (290400)
I1008 12:23:35.701900 55935 net.cpp:165] Memory required for data: 1779952
I1008 12:23:35.701907 55935 layer_factory.hpp:77] Creating layer relu1
I1008 12:23:35.701915 55935 net.cpp:100] Creating Layer relu1
I1008 12:23:35.701918 55935 net.cpp:434] relu1 <- conv1
I1008 12:23:35.701922 55935 net.cpp:395] relu1 -> conv1 (in-place)
I1008 12:23:35.701928 55935 net.cpp:150] Setting up relu1
I1008 12:23:35.701932 55935 net.cpp:157] Top shape: 1 96 55 55 (290400)
I1008 12:23:35.701936 55935 net.cpp:165] Memory required for data: 2941552
I1008 12:23:35.701938 55935 layer_factory.hpp:77] Creating layer pool1
I1008 12:23:35.701943 55935 net.cpp:100] Creating Layer pool1
I1008 12:23:35.701947 55935 net.cpp:434] pool1 <- conv1
I1008 12:23:35.701951 55935 net.cpp:408] pool1 -> pool1
I1008 12:23:35.701980 55935 net.cpp:150] Setting up pool1
I1008 12:23:35.701985 55935 net.cpp:157] Top shape: 1 96 27 27 (69984)
I1008 12:23:35.701989 55935 net.cpp:165] Memory required for data: 3221488
I1008 12:23:35.701992 55935 layer_factory.hpp:77] Creating layer norm1
I1008 12:23:35.702006 55935 net.cpp:100] Creating Layer norm1
I1008 12:23:35.702018 55935 net.cpp:434] norm1 <- pool1
I1008 12:23:35.702023 55935 net.cpp:408] norm1 -> norm1
I1008 12:23:35.702049 55935 net.cpp:150] Setting up norm1
I1008 12:23:35.702055 55935 net.cpp:157] Top shape: 1 96 27 27 (69984)
I1008 12:23:35.702059 55935 net.cpp:165] Memory required for data: 3501424
I1008 12:23:35.702062 55935 layer_factory.hpp:77] Creating layer conv2
I1008 12:23:35.702069 55935 net.cpp:100] Creating Layer conv2
I1008 12:23:35.702074 55935 net.cpp:434] conv2 <- norm1
I1008 12:23:35.702077 55935 net.cpp:408] conv2 -> conv2
I1008 12:23:35.708487 55935 net.cpp:150] Setting up conv2
I1008 12:23:35.708495 55935 net.cpp:157] Top shape: 1 256 27 27 (186624)
I1008 12:23:35.708498 55935 net.cpp:165] Memory required for data: 4247920
I1008 12:23:35.708505 55935 layer_factory.hpp:77] Creating layer relu2
I1008 12:23:35.708511 55935 net.cpp:100] Creating Layer relu2
I1008 12:23:35.708514 55935 net.cpp:434] relu2 <- conv2
I1008 12:23:35.708518 55935 net.cpp:395] relu2 -> conv2 (in-place)
I1008 12:23:35.708524 55935 net.cpp:150] Setting up relu2
I1008 12:23:35.708528 55935 net.cpp:157] Top shape: 1 256 27 27 (186624)
I1008 12:23:35.708531 55935 net.cpp:165] Memory required for data: 4994416
I1008 12:23:35.708534 55935 layer_factory.hpp:77] Creating layer pool2
I1008 12:23:35.708539 55935 net.cpp:100] Creating Layer pool2
I1008 12:23:35.708542 55935 net.cpp:434] pool2 <- conv2
I1008 12:23:35.708562 55935 net.cpp:408] pool2 -> pool2
I1008 12:23:35.708595 55935 net.cpp:150] Setting up pool2
I1008 12:23:35.708600 55935 net.cpp:157] Top shape: 1 256 13 13 (43264)
I1008 12:23:35.708603 55935 net.cpp:165] Memory required for data: 5167472
I1008 12:23:35.708607 55935 layer_factory.hpp:77] Creating layer norm2
I1008 12:23:35.708613 55935 net.cpp:100] Creating Layer norm2
I1008 12:23:35.708616 55935 net.cpp:434] norm2 <- pool2
I1008 12:23:35.708621 55935 net.cpp:408] norm2 -> norm2
I1008 12:23:35.708653 55935 net.cpp:150] Setting up norm2
I1008 12:23:35.708659 55935 net.cpp:157] Top shape: 1 256 13 13 (43264)
I1008 12:23:35.708662 55935 net.cpp:165] Memory required for data: 5340528
I1008 12:23:35.708665 55935 layer_factory.hpp:77] Creating layer conv3
I1008 12:23:35.708673 55935 net.cpp:100] Creating Layer conv3
I1008 12:23:35.708675 55935 net.cpp:434] conv3 <- norm2
I1008 12:23:35.708679 55935 net.cpp:408] conv3 -> conv3
I1008 12:23:35.728458 55935 net.cpp:150] Setting up conv3
I1008 12:23:35.728473 55935 net.cpp:157] Top shape: 1 384 13 13 (64896)
I1008 12:23:35.728477 55935 net.cpp:165] Memory required for data: 5600112
I1008 12:23:35.728484 55935 layer_factory.hpp:77] Creating layer relu3
I1008 12:23:35.728490 55935 net.cpp:100] Creating Layer relu3
I1008 12:23:35.728493 55935 net.cpp:434] relu3 <- conv3
I1008 12:23:35.728498 55935 net.cpp:395] relu3 -> conv3 (in-place)
I1008 12:23:35.728503 55935 net.cpp:150] Setting up relu3
I1008 12:23:35.728508 55935 net.cpp:157] Top shape: 1 384 13 13 (64896)
I1008 12:23:35.728510 55935 net.cpp:165] Memory required for data: 5859696
I1008 12:23:35.728513 55935 layer_factory.hpp:77] Creating layer conv4
I1008 12:23:35.728520 55935 net.cpp:100] Creating Layer conv4
I1008 12:23:35.728523 55935 net.cpp:434] conv4 <- conv3
I1008 12:23:35.728528 55935 net.cpp:408] conv4 -> conv4
I1008 12:23:35.742702 55935 net.cpp:150] Setting up conv4
I1008 12:23:35.742717 55935 net.cpp:157] Top shape: 1 384 13 13 (64896)
I1008 12:23:35.742720 55935 net.cpp:165] Memory required for data: 6119280
I1008 12:23:35.742727 55935 layer_factory.hpp:77] Creating layer relu4
I1008 12:23:35.742732 55935 net.cpp:100] Creating Layer relu4
I1008 12:23:35.742735 55935 net.cpp:434] relu4 <- conv4
I1008 12:23:35.742740 55935 net.cpp:395] relu4 -> conv4 (in-place)
I1008 12:23:35.742745 55935 net.cpp:150] Setting up relu4
I1008 12:23:35.742749 55935 net.cpp:157] Top shape: 1 384 13 13 (64896)
I1008 12:23:35.742753 55935 net.cpp:165] Memory required for data: 6378864
I1008 12:23:35.742755 55935 layer_factory.hpp:77] Creating layer conv5
I1008 12:23:35.742780 55935 net.cpp:100] Creating Layer conv5
I1008 12:23:35.742792 55935 net.cpp:434] conv5 <- conv4
I1008 12:23:35.742799 55935 net.cpp:408] conv5 -> conv5
I1008 12:23:35.752755 55935 net.cpp:150] Setting up conv5
I1008 12:23:35.752768 55935 net.cpp:157] Top shape: 1 256 13 13 (43264)
I1008 12:23:35.752773 55935 net.cpp:165] Memory required for data: 6551920
I1008 12:23:35.752780 55935 layer_factory.hpp:77] Creating layer relu5
I1008 12:23:35.752786 55935 net.cpp:100] Creating Layer relu5
I1008 12:23:35.752789 55935 net.cpp:434] relu5 <- conv5
I1008 12:23:35.752794 55935 net.cpp:395] relu5 -> conv5 (in-place)
I1008 12:23:35.752800 55935 net.cpp:150] Setting up relu5
I1008 12:23:35.752804 55935 net.cpp:157] Top shape: 1 256 13 13 (43264)
I1008 12:23:35.752807 55935 net.cpp:165] Memory required for data: 6724976
I1008 12:23:35.752810 55935 layer_factory.hpp:77] Creating layer pool5
I1008 12:23:35.752815 55935 net.cpp:100] Creating Layer pool5
I1008 12:23:35.752818 55935 net.cpp:434] pool5 <- conv5
I1008 12:23:35.752822 55935 net.cpp:408] pool5 -> pool5
I1008 12:23:35.752851 55935 net.cpp:150] Setting up pool5
I1008 12:23:35.752856 55935 net.cpp:157] Top shape: 1 256 6 6 (9216)
I1008 12:23:35.752858 55935 net.cpp:165] Memory required for data: 6761840
I1008 12:23:35.752861 55935 layer_factory.hpp:77] Creating layer fc6
I1008 12:23:35.752868 55935 net.cpp:100] Creating Layer fc6
I1008 12:23:35.752871 55935 net.cpp:434] fc6 <- pool5
I1008 12:23:35.752877 55935 net.cpp:408] fc6 -> fc6
I1008 12:23:36.562317 55935 net.cpp:150] Setting up fc6
I1008 12:23:36.562356 55935 net.cpp:157] Top shape: 1 4096 (4096)
I1008 12:23:36.562361 55935 net.cpp:165] Memory required for data: 6778224
I1008 12:23:36.562371 55935 layer_factory.hpp:77] Creating layer relu6
I1008 12:23:36.562381 55935 net.cpp:100] Creating Layer relu6
I1008 12:23:36.562386 55935 net.cpp:434] relu6 <- fc6
I1008 12:23:36.562394 55935 net.cpp:395] relu6 -> fc6 (in-place)
I1008 12:23:36.562404 55935 net.cpp:150] Setting up relu6
I1008 12:23:36.562408 55935 net.cpp:157] Top shape: 1 4096 (4096)
I1008 12:23:36.562412 55935 net.cpp:165] Memory required for data: 6794608
I1008 12:23:36.562415 55935 layer_factory.hpp:77] Creating layer drop6
I1008 12:23:36.562422 55935 net.cpp:100] Creating Layer drop6
I1008 12:23:36.562425 55935 net.cpp:434] drop6 <- fc6
I1008 12:23:36.562430 55935 net.cpp:395] drop6 -> fc6 (in-place)
I1008 12:23:36.562450 55935 net.cpp:150] Setting up drop6
I1008 12:23:36.562458 55935 net.cpp:157] Top shape: 1 4096 (4096)
I1008 12:23:36.562460 55935 net.cpp:165] Memory required for data: 6810992
I1008 12:23:36.562463 55935 layer_factory.hpp:77] Creating layer fc7
I1008 12:23:36.562472 55935 net.cpp:100] Creating Layer fc7
I1008 12:23:36.562476 55935 net.cpp:434] fc7 <- fc6
I1008 12:23:36.562482 55935 net.cpp:408] fc7 -> fc7
I1008 12:23:36.934808 55935 net.cpp:150] Setting up fc7
I1008 12:23:36.934854 55935 net.cpp:157] Top shape: 1 4096 (4096)
I1008 12:23:36.934859 55935 net.cpp:165] Memory required for data: 6827376
I1008 12:23:36.934869 55935 layer_factory.hpp:77] Creating layer relu7
I1008 12:23:36.934880 55935 net.cpp:100] Creating Layer relu7
I1008 12:23:36.934885 55935 net.cpp:434] relu7 <- fc7
I1008 12:23:36.934893 55935 net.cpp:395] relu7 -> fc7 (in-place)
I1008 12:23:36.934903 55935 net.cpp:150] Setting up relu7
I1008 12:23:36.934907 55935 net.cpp:157] Top shape: 1 4096 (4096)
I1008 12:23:36.934911 55935 net.cpp:165] Memory required for data: 6843760
I1008 12:23:36.934914 55935 layer_factory.hpp:77] Creating layer drop7
I1008 12:23:36.934921 55935 net.cpp:100] Creating Layer drop7
I1008 12:23:36.934924 55935 net.cpp:434] drop7 <- fc7
I1008 12:23:36.934929 55935 net.cpp:395] drop7 -> fc7 (in-place)
I1008 12:23:36.934948 55935 net.cpp:150] Setting up drop7
I1008 12:23:36.934954 55935 net.cpp:157] Top shape: 1 4096 (4096)
I1008 12:23:36.934957 55935 net.cpp:165] Memory required for data: 6860144
I1008 12:23:36.934960 55935 layer_factory.hpp:77] Creating layer fc8_new
I1008 12:23:36.934970 55935 net.cpp:100] Creating Layer fc8_new
I1008 12:23:36.934991 55935 net.cpp:434] fc8_new <- fc7
I1008 12:23:36.934999 55935 net.cpp:408] fc8_new -> fc8
I1008 12:23:36.937741 55935 net.cpp:150] Setting up fc8_new
I1008 12:23:36.937750 55935 net.cpp:157] Top shape: 1 31 (31)
I1008 12:23:36.937753 55935 net.cpp:165] Memory required for data: 6860268
I1008 12:23:36.937759 55935 layer_factory.hpp:77] Creating layer accuracy
I1008 12:23:36.937767 55935 net.cpp:100] Creating Layer accuracy
I1008 12:23:36.937772 55935 net.cpp:434] accuracy <- fc8
I1008 12:23:36.937775 55935 net.cpp:434] accuracy <- label
I1008 12:23:36.937780 55935 net.cpp:408] accuracy -> accuracy
…
